saved_models/cnn_1d.pth (torch_old, 220127 bytes, 8 tensors)

weight f4 [16, 1, 5]
000000 50 90 ae 3d 3f 88 e9 3d d8 98 e7 3e 6f c0 a6 3e
       0.08523619 0.1140294 0.45233798 0.3256869
000010 78 8c 03 3e f8 bd 15 be 7a 66 50 be 63 8d dd bd
       0.12846553 -0.14623249 -0.20351592 -0.10817983
000020 e4 40 76 3d 76 bb 0d be c3 13 7c 3d dc e2 5d 3e
       0.06012048 -0.13841042 0.061542284 0.21668571
000030 7f d8 b6 bc e6 17 d6 be 9f 84 b3 bd 33 f4 0a bd
       -0.02232003 -0.41815108 -0.0876553 -0.033924293
000040 dd 9c ea be 9a 96 9d 3e d5 50 de 3e 36 fd b2 bd
       -0.45822802 0.30778962 0.43421045 -0.087397024
000050 3b 61 12 bf bc 3a b3 be e3 d9 65 be 4d 0d 86 be
       -0.5717961 -0.35005748 -0.22446398 -0.26182023
000060 e8 b9 b3 3d 2e d6 9e 3e be 33 9b 3e 50 83 fc 3d
       0.08775693 0.3102278 0.30312914 0.12329733
000070 16 c2 67 be fb 57 92 3d d0 e7 cf be a4 e8 b4 3e
       -0.22632632 0.07145687 -0.40606546 0.3533374
000080 99 55 c5 3e 8e aa b1 3d ef 2c a1 3d 5d 37 b0 3e
       0.38541868 0.08675109 0.078698985 0.3441724
000090 1a f4 88 3e 45 a5 70 3d 15 20 ba bd 5f 49 fc 3d
       0.26748735 0.058751363 -0.090881504 0.12318682
0000a0 af 21 b7 3d 6d 8c 9b bd e8 5f a6 be 85 71 e2 be
       0.089419715 -0.075951435 -0.32495046 -0.44227234
0000b0 ce 8f 82 3d 11 90 a9 3e f5 29 08 bf 0b c2 9d be
       0.06375085 0.33117726 -0.5318902 -0.30812106
0000c0 f3 35 9c be f6 a4 b6 3e b5 c0 bc bd 72 57 54 be
       -0.3050991 0.3567273 -0.092164434 -0.20736483
0000d0 b7 08 5b bd a0 fb 22 bc b8 46 d9 be 97 68 ff be
       -0.053475108 -0.009947687 -0.42436767 -0.49884483
0000e0 ed 8a 43 3e 7f 97 c8 3e ea 11 ea 3e 71 0a f6 3e
       0.19095965 0.39178082 0.45716792 0.4805484
0000f0 47 2f c1 bd 40 52 0a 3e af 9e b7 3e 13 98 fc bd
       -0.094328456 0.13507938 0.35863253 -0.12333693
000100 c5 c4 07 bf 8a 76 e5 3d 8b 8e 22 3e 78 85 6c 3d
       -0.5303462 0.1120425 0.15874688 0.057744473
000110 5c b1 e8 bd b1 97 b0 3e fe 87 64 3e 51 cf db 3e
       -0.113619536 0.3449073 0.22317502 0.42931607
000120 14 1c 27 be 46 07 54 bd dd da 19 3e 98 71 63 3e
       -0.16319305 -0.05176475 0.15024896 0.22211301
000130 f1 a5 93 be ac d5 ea bd da 3b da be 60 c1 b2 3e
       -0.2883754 -0.11466536 -0.42623788 0.34913158

bias f4 [16]
000000 7b fa f8 bd d5 5f a1 be dd ee 23 be 45 e8 f0 bb
       -0.1215715 -0.31518427 -0.16009088 -0.0073519074
000010 ba 75 8a 3e 7e 4e 3b be 7c 3c d0 3e 13 81 8a be
       0.27042943 -0.18291661 0.40671146 -0.270516
000020 bf aa 87 be a0 61 8a be c3 ab 7e 3c af cf 63 bd
       -0.26497456 -0.27027607 0.015543881 -0.055617984
000030 bd 75 c1 3d b5 1a c0 3d aa e9 e1 bd 30 c7 25 3e
       0.09446285 0.09380094 -0.11030896 0.16189265

weight f4 [258, 129]
000000 d8 d6 a8 bd ea fc ee bc 27 1e 8d 3b cf b1 e0 3c
       -0.08244103 -0.029173333 0.004306573 0.027428536
000010 0c f7 43 bc 31 ef be bd 81 1a 12 3b 61 68 27 bd
       -0.011960756 -0.09322966 0.002229363 -0.040871028
000020 b1 b4 b6 bd af b1 0e bc 31 01 96 bd 88 d7 44 bb
       -0.08921183 -0.008709355 -0.07324446 -0.0030035693
000030 95 93 6c 3d 83 e5 ac bd f6 fc d8 3d ca fb 03 3d
       0.057757933 -0.084422134 0.105951235 0.032222547
000040 a7 74 7c bd 12 e9 df bc 3c ce 31 bc 5c a1 2f bb
       -0.061634686 -0.027332816 -0.010852393 -0.0026799059
000050 5e 9b d2 bc 28 6e df 3d fc d8 30 3d 62 ed 82 bd
       -0.02570885 0.109096825 0.043175682 -0.063929334
000060 67 6e 25 bd 26 7a b7 3a c0 a6 68 bd 96 e7 75 3d
       -0.04038849 0.0013998195 -0.05679965 0.06003531
000070 f4 7b 0a 3c 2f 91 01 3d c7 65 20 bb 63 cd 1c bd
       0.008452404 0.0316326 -0.0024474727 -0.03828181
000080 5a f6 9f 3d 9a d5 24 bd 9d 4c dd 3c 4f 05 03 bd
       0.0781066 -0.04024277 0.027014071 -0.031987485
000090 1f b4 03 bd 78 18 8e 3d 85 77 64 bd d8 66 7c bd
       -0.0321542 0.06938261 -0.055778045 -0.061621517
0000a0 26 97 07 bd a7 13 29 3c 0a 01 8f 3d 93 9a 07 bd
       -0.03310313 0.010319627 0.0698262 -0.033106398
0000b0 c8 9a be 3d f6 70 84 bd cc 9d e6 3d 36 fa 89 bd
       0.09306866 -0.06466858 0.11260566 -0.06737177
0000c0 7e 07 c5 3d 54 86 b8 39 6b 41 cc 3d 73 93 d0 bd
       0.0962057 0.00035195297 0.09973415 -0.10184374
0000d0 55 d7 90 bc ee 39 0d bd 9d 5a 7a 3c 43 8a a5 3d
       -0.017680803 -0.034479074 0.015280393 0.08083012
0000e0 ec 85 8a 3d 1c 44 7c bd a2 97 e9 3d ec 81 54 3d
       0.06763825 -0.06158839 0.11405875 0.051881716
0000f0 8e 47 ad bc 2f 8b 7b bd 9e fd 3e 3d 2d 7b c9 bc
       -0.021152284 -0.061412033 0.046628587 -0.024594868
000100 58 c1 09 bd 77 1e 4b bd a5 e5 a4 bd 68 80 c4 bb
       -0.033631653 -0.0495896 -0.08051614 -0.0059967525
000110 2c a9 04 3d 64 fa b1 3c 22 b9 a3 bd f1 5f f5 bc
       0.032387897 0.02172584 -0.07994296 -0.029952975
000120 ad c4 a3 3d 5b 84 47 bd 03 bc 61 bc d3 97 5a 3d
       0.07996497 -0.04871021 -0.013777736 0.053367447
000130 fd 38 c3 3d a9 0f 8a 3d f3 20 34 bd cf f1 0b bd
       0.09532354 0.06741268 -0.043976735 -0.034166154
000140 aa ea a3 3a 89 d2 a7 3c 3f 91 cc bc e1 b6 34 3d
       0.0012505848 0.020486133 -0.024971602 0.04411972
000150 a3 2e c6 3c 85 f6 d7 ba 01 02 ff 3d 80 58 32 3d
       0.02419216 -0.0016476667 0.12451554 0.04354143
000160 48 5b 0f 3d ae 18 3c bd 1d d3 06 3d 1d cf 57 bd
       0.034999162 -0.045921974 0.032916177 -0.052687753
000170 6d 92 b8 3d 44 3e 9b bd 07 40 b6 3c 3a 96 7a 3d
       0.090123035 -0.075802356 0.022247327 0.061178423
000180 80 62 09 bd 14 17 b3 bc 09 31 68 bc 3f 32 28 3a
       -0.033541203 -0.02186159 -0.014171847 0.00064161787
000190 c6 7e fa bd 57 2d 5e 3d 7e 08 b0 bd 9b c7 51 bd
       -0.12231211 0.05424246 -0.0859537 -0.05121575
0001a0 bd b0 85 bb 7c 08 cc 3c 6c 78 89 3d fa 10 d9 bb
       -0.0040799067 0.02490639 0.06712422 -0.006624338
0001b0 be 26 82 bd 46 66 50 3d 34 18 14 bc ba 16 72 bc
       -0.06355046 0.050878786 -0.009038974 -0.014775926
0001c0 3b eb 38 bc 0b 40 15 3c a5 a3 bd bd 7f fe b4 3c
       -0.011286552 0.009109507 -0.09259728 0.02209401
0001d0 81 50 38 bd 89 09 60 bd 7e e0 ba 3b 35 20 2d 3d
       -0.04499865 -0.054696593 0.005703031 0.042267043
0001e0 01 ac 2e bd 51 0d 0d 3c c1 ab a0 3c ed a6 3e bd
       -0.042644504 0.008609132 0.019613149 -0.04654591
0001f0 37 7f e1 bc fb 28 be bc 65 10 22 bd c3 b2 37 3c
       -0.027526481 -0.0232129 -0.039566416 0.011212054
000200 b6 c3 c2 3d 21 24 8c 3d 8d fd ba bd 38 81 80 bd
       0.09509985 0.068428285 -0.09130392 -0.062746465
000210 d0 72 16 3d b0 da a2 bd 99 34 d2 bc ce 9b 49 3d
       0.036730587 -0.079518676 -0.025659846 0.049220853
000220 a1 28 d9 3d a0 e6 41 3c d1 d7 0d bd 34 a8 17 be
       0.106034525 0.01183477 -0.034629647 -0.14810258
000230 3d 4c 57 3d 4e 82 97 bd 5f 35 5b 3d 9e 31 f2 3c
       0.05256294 -0.073979005 0.053517696 0.029564675
000240 44 f6 1a 3d d6 e4 13 3d e9 62 c2 bc a6 8a 2a bd
       0.037832513 0.036106907 -0.023728805 -0.04163613
000250 b6 cf 49 bc 5b 37 3f bc 1c 9b be 3d 45 ba a1 3d
       -0.012317589 -0.011670913 0.093069285 0.07896856
000260 58 fb b5 bd 69 4e 11 3d 83 9a 0e 3d ac 00 1f 3d
       -0.08885831 0.03547517 0.034815323 0.038819
000270 ca b0 92 3d 6d 7b 7d bd a4 49 ca bc b3 c5 4a 3c
       0.07162626 -0.061885286 -0.024693318 0.012376237
000280 d5 c6 1e 3c a6 1c 38 3d 00 81 9b 3c 82 e4 3e bd
       0.00969096 0.044949196 0.01898241 -0.04660464
000290 c3 a4 9b bd 5e 68 8b 3c 91 94 b5 bd aa 74 28 bd
       -0.07599785 0.01701754 -0.088662274 -0.041126885
0002a0 c9 51 1c bd 55 49 3f bd 0a 03 ff bc c7 45 e2 bc
       -0.038163934 -0.046700794 -0.031129379 -0.027621163
0002b0 bb 48 63 3b 6b fe 75 3d 5d e4 b4 3d a7 cb 8c 3d
       0.0034680802 0.060057085 0.08832619 0.06874781
0002c0 a9 86 22 3c 05 8c 53 3d 15 6f 47 bd 36 84 9a 3d
       0.009919801 0.051647205 -0.04868992 0.075447485
0002d0 30 f5 5b bc f3 cc a1 bc c6 24 b9 bd a1 77 dd bd
       -0.0134251565 -0.019751048 -0.09040217 -0.10813833
0002e0 90 c1 a6 bc ac 7f 3a 3d ca c9 b5 bd 4c 5a 9f bd
       -0.02035597 0.045531914 -0.08876379 -0.07780895
0002f0 e6 a2 b0 bd 44 d0 98 bb 56 99 89 3c ab fd 1c bd
       -0.086248204 -0.004663499 0.01679675 -0.038327854
000300 c4 87 22 3d db 7b 3e 3d 62 11 7f 3d c4 9e 8e bc
       0.039680257 0.046504837 0.062272437 -0.01740969
000310 fe 8a cc 3c d7 4b 0e bd 45 48 ec bc c0 b1 2b bd
       0.02496862 -0.034740295 -0.028843055 -0.041917562
000320 7d f2 fd bb 6c 62 4a bd 70 6d 63 bc 03 0e bd 3c
       -0.007749854 -0.04941027 -0.013881072 0.02307797
000330 e7 43 9d 3d 94 6d 21 3d 8f 37 9d 3d 68 93 47 bd
       0.07678967 0.039411142 0.076766126 -0.048724562
000340 58 cb 3a bd 0e 20 b7 bd 4a 05 84 bd cf c1 c1 bd
       -0.04560408 -0.08941661 -0.06446321 -0.09460794
000350 59 fe ba bd 18 2b 69 3d 7f c6 a8 bc d6 bb 18 3d
       -0.09130544 0.056925863 -0.020602463 0.03728851
000360 5b 1e 93 3d 26 89 37 bc fb 34 b1 bb e4 ad d9 bc
       0.07183524 -0.011202132 -0.005407927 -0.026572175
000370 51 33 8f bd d5 5d 74 3d f1 d6 25 bc c2 4a a1 3c
       -0.0699221 0.059659798 -0.010122047 0.019688968
000380 a6 07 9b 3d 1d ba 06 3d dc 50 fd b8 6b 02 97 3d
       0.07569818 0.032892335 -0.00012079041 0.07373508
000390 0c 21 4e bd fb 0e f2 bd 51 d6 68 bc 5c bc 9e bd
       -0.050324485 -0.118192635 -0.014211253 -0.077507704
0003a0 e1 7e 20 3d 01 4f 5d 3b 83 53 bb bd 36 cf 98 3d
       0.0391835 0.0033769014 -0.09146788 0.07461397
0003b0 14 a3 43 3c 69 44 d4 3c ee ce b0 bd d2 11 d3 bc
       0.011940736 0.025911527 -0.08633219 -0.025765333
0003c0 85 b1 38 3d 0c a8 b1 3d 4c 72 a7 3d f2 79 6c bb
       0.04509117 0.086746305 0.08176097 -0.0036083427
0003d0 91 17 37 bd a1 d4 30 bd 9e 7a 76 ba 36 1f b6 bc
       -0.04470021 -0.04317153 -0.00094024267 -0.02223168
0003e0 3f 08 79 bc da 3b 89 bd 0f e2 7c bd e7 96 98 bd
       -0.01519972 -0.06700869 -0.061739024 -0.07450657
0003f0 14 ee b0 bd 0b 0d 5d 3d 74 25 91 bd aa 6d 83 3d
       -0.0863916 0.053967517 -0.07087222 0.06417401

bias f4 [258]
000000 2f 7d 67 3d 90 fd c8 3c b1 96 7e 3d 89 8e 64 bd
       0.05651587 0.02453497 0.06215543 -0.055799995
000010 4f c8 86 3d af 6b b2 3d ec bd ec 3c 7f 07 01 3d
       0.065811746 0.08711945 0.028899156 0.03150129
000020 19 0c 38 bc ba da 1a bd c2 91 08 bd 3e a4 8f bd
       -0.011233353 -0.03780625 -0.03334213 -0.070137486
000030 46 cc 74 ba ab 84 cc bb 3f 29 7a bd 3f 52 53 bd
       -0.00093383004 -0.006241401 -0.06107449 -0.051592108
000040 e6 6c d8 bd 25 55 8b bd bf 3b 4b 3d 9e d3 bf 3d
       -0.10567646 -0.068033494 0.049617525 0.09366535
000050 5f 28 26 bd 5e f3 91 bd 2b d4 93 3d fa 20 0a bd
       -0.040565845 -0.07126497 0.07218202 -0.033722855
000060 f6 a5 5a 3d 42 f1 1b 3d da 54 88 3c 80 9e 28 3a
       0.05338093 0.03807188 0.016642023 0.000643231
000070 e2 db 42 bc 20 7e b2 3d 35 74 9b 3d b0 a4 36 bd
       -0.011893244 0.08715463 0.07590524 -0.044590652
000080 d7 fb a8 bd c6 25 63 3d fd c7 16 3d de 12 d3 3c
       -0.0825116 0.055455945 0.036811817 0.025765833
000090 35 a4 9d 3d 54 65 98 bd b1 8f 2c bd c5 17 8a bd
       0.07697336 -0.07441202 -0.042129222 -0.06742815
0000a0 13 01 9a bd 7f 9e 87 bd 16 d5 1e bd 74 c8 31 3c
       -0.07519736 -0.066220276 -0.038777433 0.010851014
0000b0 b9 0f 9d 3c 10 08 6d bb fa fe 14 bd 9f 57 c1 3c
       0.019172536 -0.0036168136 -0.036375977 0.023601351
0000c0 ee 38 09 3d ae 95 94 bd 88 57 c4 3c 25 47 5d bd
       0.033501558 -0.07255112 0.02396752 -0.054022927
0000d0 f3 bf 53 bd 5c 24 bf bd 31 ad 99 3d 84 99 bf 3d
       -0.05169673 -0.09333107 0.07503737 0.09355453
0000e0 e9 b2 bc bc 25 3f 5a 3d 0d 23 99 bd be d6 4c bd
       -0.02303453 0.053282876 -0.074773885 -0.05000948
0000f0 af d1 8d bd 6c 1a e2 3c 81 d3 24 3d 27 b3 98 3b
       -0.069247596 0.02760049 0.04024077 0.0046600285
000100 ce e9 3f 3b 3c 8c 95 bd f8 2c 7a 3d e6 e4 86 3d
       0.0029283646 -0.07302138 0.06107804 0.06586628
000110 e3 f2 82 bd 9d 09 09 3d 26 f8 9d 3c 1a eb df bb
       -0.06393983 0.033456434 0.019283365 -0.006833446
000120 01 e8 a5 3c fc 22 97 bd d9 67 74 bd c3 01 0d 3d
       0.02025223 -0.073797196 -0.05966935 0.03442551
000130 51 20 20 3d 8b ff 8a bc 2d 71 a3 bd 0c 32 cc bc
       0.03909332 -0.016967556 -0.07980571 -0.024926208
000140 69 c6 17 bd 41 3e 88 bd 37 fa 97 bd e7 e9 19 bd
       -0.037054453 -0.06652499 -0.074207716 -0.037576582
000150 b8 80 a3 bd a0 8c 2c 3d 7e 85 e4 3c d1 17 fd 3b
       -0.079835355 0.042126298 0.027895685 0.0077237864
000160 83 63 89 bd ac 72 97 3d 9f a8 bf 3d d4 f4 b1 3d
       -0.067084335 0.07394919 0.09358334 0.086892754
000170 0f 0b 62 3d 2b c8 75 3b e2 d2 83 bc 77 01 16 bd
       0.055186328 0.0037503343 -0.016091768 -0.03662249
000180 13 a1 5d 3d 59 dd 86 3d 0f 8f ed 3c c9 04 34 3d
       0.05410869 0.065851875 0.02899888 0.043949876
000190 a9 5f 1a 3b e2 7a d0 bb 13 84 20 bd 31 52 99 bd
       0.0023555553 -0.006362305 -0.039188456 -0.0748638
0001a0 fd dd 22 3d 78 40 23 bc d5 14 7b 3d 9d f8 bd 3c
       0.039762486 -0.009964101 0.061299164 0.023189837
0001b0 eb 49 74 bd 89 58 06 3d ba f9 85 3d 58 c6 68 3c
       -0.059640806 0.032799277 0.06541772 0.014207445
0001c0 d8 aa f3 3b 40 e5 01 3d 1d c7 aa 3d bf 39 71 3c
       0.0074361376 0.03171277 0.08338759 0.01472324
0001d0 50 3b 3b 3d 6d 01 0e bd 2a b2 05 3c 0b 45 af bc
       0.04571086 -0.03466933 0.008160153 -0.021395227
0001e0 f7 15 88 3d 20 b6 f4 bc 45 9f e9 bc 11 cc 0d 3b
       0.066448145 -0.029872 -0.028518328 0.0021636526
0001f0 96 aa 5e 3d 1f c3 ad bd 91 f2 04 bd fd 93 34 3d
       0.054361902 -0.08484482 -0.03245789 0.044086445
000200 e9 63 a2 bd 30 2b 85 3d 5e 80 99 3d 0b b2 df 3c
       -0.079292126 0.06502378 0.07495187 0.027306577
000210 c2 ba 29 bd 13 d7 25 bc 4b ed 52 bc a0 dd 1a 3d
       -0.04143787 -0.0101220785 -0.012873958 0.037809014
000220 a0 ef 9c 3d 18 3d 0f 3d 75 d0 12 3d 8b c6 93 bd
       0.07662892 0.034970373 0.03584333 -0.072156034
000230 3d c0 8b bd bf c6 a8 3c c3 ff 34 3d 72 e0 39 3d
       -0.06823776 0.020602582 0.044189226 0.045380063
000240 57 98 91 bd 24 60 f8 bb c4 53 f5 bc db 06 27 bd
       -0.07109135 -0.00757982 -0.02994717 -0.040778022
000250 d3 42 da bc 59 c5 91 3d fe df 01 bc d8 89 4e bd
       -0.026643192 0.07117719 -0.007926939 -0.050424427
000260 ac 27 26 3c 47 52 1d bd ce 11 b0 3d 3d 61 f6 3c
       0.010141294 -0.038408544 0.08597146 0.030075664
000270 41 2c 99 3c 72 62 08 bd 3f 11 49 3d ab c2 6d bd
       0.01869786 -0.03329701 0.049088713 -0.058046978
000280 4e 58 d0 bc ff f1 7f bd 7f 9c 01 bd f8 06 a1 3c
       -0.025432732 -0.062486645 -0.031643387 0.019656643
000290 ec 2d d5 bc df 9a a3 bd e5 67 a2 bd a4 c8 a3 bd
       -0.026022874 -0.07988524 -0.079299726 -0.079972535
0002a0 5b 33 75 bd 6f 0a 95 3d c6 12 ed bc 88 42 38 bd
       -0.05986343 0.07277381 -0.028939616 -0.044985324
0002b0 e7 32 a7 3d f3 db 1a bd 63 c9 5a 3d d0 ce f0 3c
       0.08164006 -0.037807416 0.053414714 0.02939549
0002c0 d1 75 99 bd dc a5 1e 39 18 87 89 bd 81 4f ab bc
       -0.07493175 0.00015129842 -0.0671522 -0.020911934
0002d0 15 69 f5 bb fc 23 f9 3c b5 92 8b 3d 00 31 69 3c
       -0.0074893334 0.030412666 0.068150915 0.014232874
0002e0 8e 6b 74 3d da 8a 4c bc 67 dc c1 bd a5 e5 f6 3c
       0.059672885 -0.012484277 -0.094658665 0.0301388
0002f0 b3 88 59 3d 70 6a 1a bd 03 d1 80 bc 2c 82 52 3c
       0.053108882 -0.037699163 -0.015724665 0.012848418
000300 dd 98 81 bd 41 e9 30 3d 66 b2 16 3d 19 3b 78 bb
       -0.063279845 0.0431912 0.036791228 -0.0037877022
000310 a2 98 33 3d d5 19 48 3d 07 21 35 3d 48 97 e6 38
       0.043846734 0.04885276 0.04422095 0.00010995433
000320 9b 05 06 3d e3 10 66 3d 48 f7 0b bd 30 21 dc bc
       0.03272019 0.05616845 -0.034171373 -0.026871294
000330 fd ff 22 3d 64 83 79 bd 69 5d a8 3d 71 30 b9 bd
       0.03979491 -0.06091632 0.082209416 -0.090424426
000340 b1 fb 0c 3c aa 57 12 bd d4 e2 02 3c 05 56 3c bc
       0.00860493 -0.035728134 0.00798865 -0.011495118
000350 51 b6 94 bc 2d a6 59 bd 26 b2 b0 bd e1 44 26 bd
       -0.018153341 -0.053136993 -0.08627729 -0.04059303
000360 28 ec 4c bd 8c 7b ec 3b 50 a3 87 bd c0 be 11 3d
       -0.050029904 0.0072168764 -0.06622946 0.035582304
000370 3a c4 55 bd bf dd 57 bd 69 1c b9 3d 65 c1 69 3b
       -0.05218909 -0.052701708 0.09038622 0.003566825
000380 d2 1c 4c 3a da 71 fe bc 8e 40 00 bc 42 9c ed 3c
       0.0007786277 -0.031060148 -0.007827891 0.029005174
000390 6a 2f 5f 3d be 46 7d 3d d9 e5 50 3d 16 ef 4d 3d
       0.054488577 0.061835043 0.05100045 0.05027684
0003a0 89 42 28 bd 15 bb 57 bd 2f 9f b9 bd 9e f4 9b 3d
       -0.041079078 -0.05266865 -0.09063565 0.076150164
0003b0 cc 6c 64 3d e7 09 dc bc 8e 33 51 bd 32 a7 11 3c
       0.05576782 -0.02686019 -0.051074557 0.00888996
0003c0 91 d7 57 bc 59 53 84 3d 84 5e d7 3a f2 82 06 bb
       -0.013173954 0.0646121 0.0016431366 -0.0020524827
0003d0 ff 93 a7 3d cb 52 93 3d ff b2 c3 3c aa 0d c0 bc
       0.08182525 0.07193526 0.023889063 -0.023444016
0003e0 f3 94 ba bc 73 2e b0 3d d1 61 42 bc ad 1b 8b 3d
       -0.022776103 0.086026095 -0.011864142 0.06792388
0003f0 b4 14 88 bd b3 9e 9c bd ef 64 80 bc f8 05 3b bd
       -0.06644574 -0.07647457 -0.015673129 -0.04565999

weight f4 [64, 258]
000000 53 48 99 3d 39 bd bf 3c 80 90 95 bc ea a7 24 bc
       0.07484498 0.023405658 -0.01825738 -0.010049799
000010 0b 9f b3 3d 74 34 55 3d ec 04 6a bd 3e ab e8 3b
       0.087705694 0.052051976 -0.0571336 0.007100492
000020 51 fa 8a 3a 57 c1 2a bd fc c9 82 3d 48 97 2e be
       0.0010603165 -0.04168829 0.06386182 -0.17049897
000030 e1 b8 04 3e cc fe 66 bd 83 88 58 bc ce ab 3b bd
       0.1296115 -0.056395337 -0.013216141 -0.045818143
000040 f5 44 9d bc f2 98 95 3c c9 5c 2d bd 9b 78 e6 3c
       -0.01919792 0.018261407 -0.042324815 0.028133681
000050 33 b9 af bd 19 31 5f bd 01 4b fa bc d4 76 e5 bc
       -0.08580246 -0.054490183 -0.030553343 -0.028010763
000060 7e c1 d6 bc 46 5a 11 be 4b 7a fa bd 83 74 71 3d
       -0.026215311 -0.14194593 -0.12230357 0.058949005
000070 33 29 3a 3c 8a a5 f7 bc b6 98 98 3d f9 7b 11 be
       0.011362362 -0.030230302 0.07451002 -0.14207448
000080 01 20 b9 bd 45 bb f9 bc 33 7b 17 3d c3 cc 4a bd
       -0.090393074 -0.030484805 0.036982726 -0.049511682
000090 55 48 bd bd b8 37 b0 bd b8 5e 5c bd 92 f4 4e bc
       -0.09242312 -0.086043775 -0.05380127 -0.012631552
0000a0 2e 7b 36 ba da a0 5c 3c fb 10 36 be 97 e6 c3 3b
       -0.0006961104 0.013466084 -0.17779915 0.005978416
0000b0 ba 8d 0f bd bb 1c c5 bc da ad a4 bd 3d bc 9b bd
       -0.03504727 -0.024061551 -0.08040972 -0.07604263
0000c0 f8 0f ca 3d ed 7a 7a bc 4b 67 70 bd 0e aa 43 3d
       0.09866327 -0.015288097 -0.058692258 0.0477696
0000d0 2f ae ff 3b 78 93 2e be af 33 84 3c 71 f1 8e 3c
       0.0078027467 -0.17048442 0.016137926 0.017449113
0000e0 cc c7 12 3d 28 1b ce bc 88 f2 81 bd e3 21 d8 3c
       0.035835072 -0.025159433 -0.06345087 0.026383346
0000f0 ee 7c 60 bd c2 71 0c bd 1a 8d 91 3d d6 be 2b 3b
       -0.054806642 -0.034288175 0.07106991 0.0026206276
000100 f1 30 23 3d cd 5b a9 3d 8c 02 e1 3d 21 b9 95 3c
       0.039841596 0.08269463 0.10986814 0.018276753
000110 45 97 b8 bd cd b0 a9 bd fa 6b 67 bd 9f ec a7 3c
       -0.090132274 -0.08285675 -0.05649946 0.020498572
000120 d4 c8 55 3c 28 55 44 3d 51 93 b4 bc 2e 7e aa 3b
       0.013048369 0.047932774 -0.022042902 0.00520303
000130 c6 eb 6a bd ee c9 f3 bc 5c 85 35 3d c8 78 5e 3c
       -0.057353757 -0.029759374 0.044316635 0.013578601
000140 5a a6 0d 3d 7a e2 0d 3d db f9 22 be 6e b4 31 3e
       0.034582473 0.034639813 -0.15915625 0.17353985
000150 c7 24 d9 bd e1 74 a2 3c 0a c6 ef bb 1f a0 ab 3d
       -0.10602718 0.019831123 -0.0073173093 0.0838015
000160 bd 30 e0 bb d6 dc 3e 3d 6c 2f d0 3b 7e 13 45 3d
       -0.0068417476 0.046597324 0.0063533094 0.048114292
000170 07 18 c6 3c 70 bc 1c 3d 45 6d 8d bd ed f1 04 be
       0.024181379 0.038265646 -0.06905607 -0.12982912
000180 3a 98 b1 3d 60 1f c4 bc b6 e7 c6 bb 4f 11 3b 3d
       0.08671613 -0.023940742 -0.0060701026 0.045670804
000190 5d 0a 3f 3c 82 f0 65 ba 05 65 d6 3c b4 5d a5 3d
       0.011660186 -0.0008771495 0.026171217 0.08074513
0001a0 99 72 6f bd e1 c5 31 bd e5 65 bd bd 4f e5 88 bd
       -0.0584589 -0.043401603 -0.092479505 -0.06684362
0001b0 3c 11 ec 3d ed c0 df 3c 82 f7 b8 bc c5 03 3f 3d
       0.11526725 0.027313674 -0.022578958 0.046634454
0001c0 6c 26 67 bd f2 c1 a4 bc 2e b6 b8 3d 3f 7b 88 bc
       -0.056433126 -0.020112012 0.09019123 -0.01666033
0001d0 01 b4 9e bd 81 f4 e7 bd 09 e5 5c bd bd 4e 6e 3d
       -0.07749177 -0.11325932 -0.053929362 0.05818056
0001e0 68 92 ac bd 22 8f 6c bc 4a 10 b8 bc d7 e3 bf bb
       -0.08426362 -0.014438422 -0.022468705 -0.005856018
0001f0 5a bb d1 bc 74 d0 0b bd c2 58 23 bd f2 26 01 3e
       -0.025602031 -0.034134343 -0.039879568 0.12612513
000200 37 c8 aa bd 3a d6 6f bd 5d 42 90 3c 18 1d 92 3c
       -0.08338969 -0.05855391 0.01760977 0.017836139
000210 50 67 c9 bd 6f e1 3b 3d ac d8 3d be 58 fb 6b 3b
       -0.098341584 0.045869287 -0.18539685 0.0036007967
000220 cf 30 f2 bc 87 3f e4 bd 55 3a 97 3d 0b dc 90 3b
       -0.02956429 -0.111449294 0.07384173 0.0044207624
000230 73 7f 32 3c 46 bf 57 3d cf 33 2c be 7d 1d d3 bc
       0.010894644 0.052672647 -0.16816638 -0.025770897
000240 86 0f 6f 3d 6d 3f 05 3d a2 08 18 3e ee 9a 9b bc
       0.058364414 0.03253119 0.14847043 -0.018994775
000250 b5 e4 84 3d 3a b8 9f bb ee 22 de bd 2e a8 90 3d
       0.06488935 -0.0048742564 -0.10846506 0.07063328
000260 dc 6e 33 bd 0e 02 bb 3d 12 35 ae 3d 49 a7 70 3c
       -0.043806896 0.09131251 0.08506216 0.014688321
000270 7a b5 fb 3d c8 ea 4a bc 54 fe d4 3c 3e 14 a6 3d
       0.12290473 -0.012385078 0.02600018 0.0810933
000280 46 fe 20 bd b0 30 bc bd 3f 0b 89 3d ec a0 8d 3c
       -0.039304994 -0.09188974 0.06691598 0.017288648
000290 90 b7 09 bd a3 c0 8c 3b a7 de 46 bd ca 7c cd 3d
       -0.033622324 0.004295425 -0.04855218 0.10033567
0002a0 59 8b 9f 3d a8 f3 cb 3d 80 a9 9d 3d 01 9f c6 3d
       0.0779025 0.09958583 0.07698345 0.09698296
0002b0 c0 f4 cd 3d 0e a3 9d 3d e0 43 24 3d 29 f3 22 bd
       0.10056448 0.07697116 0.040103793 -0.039782677
0002c0 87 33 ec 3c ab 2d 07 bc a3 f3 cb bd fb 8f 88 bb
       0.028833164 -0.008250634 -0.099585794 -0.0041675544
0002d0 9a aa 56 3d bf eb 57 bd 76 9a ad 3b 73 b1 2b bd
       0.052408792 -0.05271506 0.005297954 -0.041917276
0002e0 66 07 61 3d c0 59 80 3c 9d 0d 22 3d 41 73 6b 3d
       0.054938696 0.015667796 0.039563764 0.05748296
0002f0 20 20 b8 bc 16 87 94 bd 23 8e 9a 3d dc b1 f1 3c
       -0.022476256 -0.07252328 0.07546642 0.029503755
000300 83 61 0b be 79 62 d7 3a ff 43 6d 3c 1c 78 96 bd
       -0.13611417 0.0016432545 0.014481544 -0.07347128
000310 11 45 5e 3b 39 25 8f bd 64 46 6f b7 8f 60 58 bc
       0.0033915679 -0.069895215 -1.4261899e-05 -0.013206615
000320 b7 bb e0 3d 66 da 91 3d 6d b7 66 3d 91 14 d0 bd
       0.10973304 0.07121734 0.056327272 -0.10160173
000330 0f 8c 94 bd 0e 9e db bd aa c0 87 3d 0b 97 94 3d
       -0.072532766 -0.10723506 0.06628545 0.07255372
000340 6d d3 b9 3d e2 7d 48 3c 4c 42 24 bd 69 b2 09 3d
       0.090735294 0.012237044 -0.040102288 0.03361741
000350 18 9c b4 3d 6e 66 6f bc c0 e0 53 3c 89 4f ff 3d
       0.08818835 -0.0146118235 0.012932003 0.12466342
000360 9e 34 0f bd 7b e8 c1 3c ba 3e a4 bc 34 6e f7 3c
       -0.03496229 0.023670426 -0.020049442 0.030203916
000370 70 97 b7 3c 3b a9 86 3c 78 99 cb 3b fe 94 0b 3e
       0.022411078 0.016438117 0.0062133633 0.13631055
000380 90 a1 87 3d 18 aa 25 3b 4a ef 96 bd dd 05 2a be
       0.066226125 0.0025278386 -0.073698595 -0.16603799
000390 68 6e 6c 3d 20 f3 b6 3c dc b2 8c 3d f2 27 6e 3d
       0.05772248 0.022332728 0.06870052 0.058143564
0003a0 ac 94 a8 bc 1e 7f b6 3d fb 08 0f be 23 08 ff bd
       -0.020578705 0.089109644 -0.1396827 -0.12452724
0003b0 ff 9e 03 3b 45 7a c5 bd 7b cd 00 be a2 ca 22 3d
       0.0020083783 -0.09642462 -0.12578385 0.039744027
0003c0 a1 d8 b0 bd 53 5b 58 3d 2d 9d 23 3d c6 3e b5 3c
       -0.08635069 0.05282147 0.039944816 0.02212466
0003d0 f0 f9 83 3d 39 56 1d 3d fc 7e c1 3d 1c 61 18 bd
       0.06444156 0.038412306 0.094480485 -0.037201986
0003e0 46 e4 01 3e 5e a2 39 3d 22 ba 88 bd 58 38 2e 3d
       0.12684736 0.04532086 -0.06676127 0.042534202
0003f0 ac f0 9c 3b 78 07 bb bd b0 47 6d bd 91 75 02 bd
       0.0047894325 -0.09132284 -0.057929695 -0.0318504

bias f4 [64]
000000 f9 68 33 bc 81 9b 37 3d 22 13 ea bc bb 4a 68 3d
       -0.01095032 0.044826034 -0.028573576 0.056711894
000010 84 cf f6 bc ae 5c 91 3c b7 36 70 3c 3d 6b 79 bd
       -0.030128248 0.017744388 0.014661483 -0.060893286
000020 30 28 4d 3d 26 2d 87 3d 39 ed 58 3c c8 5a fa 3c
       0.050087154 0.06600408 0.013240152 0.030560866
000030 78 11 88 bd 37 44 f7 bc 6e 52 27 bc c7 f8 37 bc
       -0.06643957 -0.030183895 -0.010212524 -0.011228747
000040 6a ac 1c 3d 45 f1 91 3c 66 d1 ec bc d1 b9 03 3d
       0.038250364 0.017815242 -0.028908443 0.03215963
000050 76 e4 e8 bb d5 a3 0c 3d ae c4 dd 3c e6 df cd bc
       -0.007107313 0.03433593 0.027071323 -0.025131177
000060 f7 0f 5e 3d 37 03 a3 3c 29 b2 26 bc cf 24 49 3d
       0.054214444 0.019898994 -0.010174313 0.04910737
000070 a2 ae 65 bd a8 c2 85 bc 1b 4e 2e 3c 0d cb 75 bd
       -0.056074746 -0.01632817 0.010638739 -0.060008097
000080 7a 3e 16 3d 0d 88 58 3d 35 c2 a6 bc ef 77 d8 3c
       0.036680676 0.052864123 -0.020356277 0.026424376
000090 e7 f1 03 bd af ff 20 bd e4 0f 5a 3d 1f 08 62 bd
       -0.032213118 -0.03930634 0.05323781 -0.055183526
0000a0 52 a9 5b bd 60 b8 86 3c 9a 4e a5 3c 2d 41 4f bd
       -0.053628273 0.016445339 0.020179082 -0.050599266
0000b0 45 22 2a bc ca 18 43 bc a1 f4 ee 3c dd 2b 0c bd
       -0.010384147 -0.011907766 0.029169383 -0.03422152
0000c0 e7 77 69 3c 64 0a b8 bb c4 50 4a 3d 88 35 34 3c
       0.014249778 -0.005616473 0.04939343 0.010999091
0000d0 9a 47 f7 3c 8e 6e aa bc a0 9e f3 bc 32 14 52 bd
       0.03018551 -0.02080467 -0.029738724 -0.05128879
0000e0 58 bc 63 3c 04 aa 11 bd b1 4b 51 3b 53 23 46 3d
       0.013899885 -0.03556253 0.0031935985 0.04837353
0000f0 95 0e ee bc 85 e0 00 3d c0 6d 38 bd d9 f3 aa bb
       -0.029059688 0.03146412 -0.04502654 -0.005217057

weight f4 [2, 64]
000000 fd 98 8c be 5c bf 9b be 9b 1d 82 be 20 f6 24 bd
       -0.2746047 -0.30419433 -0.25413212 -0.040273786
000010 7a e0 58 be 8b 38 62 3e 69 fc 83 be 14 f2 98 3e
       -0.21179381 0.22091882 -0.2577851 0.2987219
000020 30 9c ba bd e9 4a 5f be ad 8e e5 ba d7 d0 0e be
       -0.09111822 -0.2180592 -0.0017513834 -0.13946854
000030 dd 6d 91 3e 4b ca 1f 3e 21 05 4f 3c 9a 4d 30 be
       0.28404132 0.15604512 0.0126355 -0.17217103
000040 fc 11 ae 3b bb ec 61 3e bd f7 92 be 5a 5f 40 be
       0.0053122025 0.22062962 -0.28704634 -0.18786374
000050 bd 06 09 3e 4f 04 63 be 4c d8 4b 3e 2c c6 b9 3d
       0.13381477 -0.22169612 0.1990673 0.090710014
000060 d4 cd a5 be a9 ca 8f 3e dd 91 7b 3e 3f d7 06 3c
       -0.32383597 0.28084305 0.24567361 0.00823003
000070 44 8a 88 be 57 9c 8e bd 02 45 64 be da 38 8d 3e
       -0.26667988 -0.06963413 -0.2229195 0.27582437
000080 35 d6 45 be 5d 2d 84 be dc c6 53 3d 16 78 8b 3d
       -0.19319995 -0.2581586 0.05170332 0.06810014
000090 42 ad 79 3e 9c f2 83 3e 97 c5 19 be 98 40 30 be
       0.24382499 0.25771034 -0.15016781 -0.1721214
0000a0 9c 20 78 be e1 09 92 3e 4a 6d de bd 8b 64 66 be
       -0.2423119 0.28523162 -0.10860689 -0.22499292
0000b0 19 cd 6c 3e b4 02 95 be 63 8e 79 bd 4f e6 4f be
       0.23125114 -0.29103625 -0.060926806 -0.203027
0000c0 2e 75 60 be 44 2f a8 3d 35 db d2 bd aa 9f a6 3e
       -0.219197 0.0821214 -0.10295717 0.3254369
0000d0 a6 f4 49 3e bc 8b 93 3e 1c 6f 89 be f6 49 7b 3e
       0.19722232 0.28817546 -0.26842582 0.24539933
0000e0 96 8d 21 bd d0 ae 15 be 60 ed 2a 3c 38 35 74 be
       -0.039441667 -0.14617467 0.010432571 -0.23848426
0000f0 3d a0 99 be 82 a9 8d bd f3 05 d8 bd 70 b8 00 be
       -0.30005065 -0.06917097 -0.1054801 -0.12570357
000100 ab 38 95 3d f2 7b 23 3d 7a 4f cd 3c f3 67 83 3e
       0.07286199 0.039913125 0.025062311 0.25665244
000110 bc ca 5f 3e 4a 44 1b 3d 7b 7a 8e 3d 56 fe 83 bc
       0.21854681 0.037906922 0.06956955 -0.016112488
000120 b7 5e a2 3e 49 44 eb 3d b4 26 bc be 78 25 6b 3e
       0.31712887 0.11487634 -0.36748278 0.22963512
000130 c1 7b 88 3c 0e 22 66 be f1 4e 74 3e b7 b3 55 3e
       0.016660573 -0.22473928 0.23858239 0.20869337
000140 9a 7e 91 3e 8d 05 41 be 06 03 17 bd 5c 72 3c 3e
       0.28416902 -0.18849774 -0.036868118 0.18403
000150 d0 e4 94 be cd 3d 17 bd e7 e7 23 be 40 bc 78 be
       -0.2908082 -0.036924172 -0.16006432 -0.24290562
000160 37 2c 9d 3c b7 a5 b9 bd 2c fa 76 be ee 70 9b 3e
       0.019186122 -0.09064811 -0.2411887 0.30359596
000170 6d 86 e4 3d a8 0d 8f 3e b9 ff 62 3d 60 f6 8e bd
       0.11158452 0.27940106 0.055419657 -0.06980586
000180 b7 33 4a 3e bf cb a7 bd 1c 44 9c be 85 49 8b be
       0.1974629 -0.08193158 -0.30520713 -0.27204528
000190 7a a9 6d be 80 e7 7d bd 88 3a 2e 3e 4f 8c 5c 3e
       -0.23209181 -0.061988354 0.17014515 0.21537898
0001a0 ae 34 e5 3d 51 b5 ea 3c ec 43 6e be 2e 8a 51 3e
       0.111916885 0.028650912 -0.23268098 0.20462868
0001b0 6b 3c 91 3d 70 59 d5 3d 28 ae 37 3e 34 3c 50 3e
       0.07091602 0.104174495 0.17937529 0.20335466
0001c0 28 8e 90 3e 36 b0 9b be 2a e6 40 3e 42 40 c5 bd
       0.28233457 -0.30407876 0.188378 -0.09631397
0001d0 ef 55 c9 bd 5c bf 3c 3c 59 07 6a 3e bf d5 3d be
       -0.09830844 0.011520233 0.22854365 -0.18538569
0001e0 e1 8a 90 3e b5 c8 4b be 34 96 80 be c2 b9 09 3d
       0.28230956 -0.19900782 -0.25114596 0.033624418
0001f0 6c f1 c6 3d 1d 54 82 3e 94 1d 48 3e 28 35 5e 3d
       0.09714016 0.25454798 0.19542533 0.054249913

bias f4 [2]
000000 66 79 d0 3d 3f e8 1b 3d
       0.10179405 0.038063284
