saved_models/cnn_2d.pth (torch_old, 71651 bytes, 6 tensors)

weight f4 [16, 1, 5, 5]
00000000: 2092 663e 8046 c5bd be53 91be 6d3b 21be
00000010: cd4a 7dbe 3dca 223e 2086 c3bd 5376 a2be
00000020: 5bcf f13d 89c3 39be 51a1 ed3d b8cb 093e
00000030: 58f7 90be fe05 0cbe 8adb 3d3d f7b6 413d
00000040: ff43 93bd 78ec 84bd 520b e73d be86 2dbe
00000050: 8a6e 12be 1d05 b7bd 1a78 56be a218 a3bd
00000060: 3690 2cbe e567 01be 72e5 923d c5ed 9f3e
00000070: 1258 5dbc 796f 963e 61f0 933e 7642 3ebe
00000080: 0415 783e 421e 53be 41e9 da3c 05de f03d
00000090: 810b 38be af62 453e 7671 3a3e 5e37 1fbe
000000a0: a4f1 763e 4b4e 11bd 011c bebd 0fad 75be
000000b0: 0aec 0c3e d999 36bd 7d90 a3bd 2828 88bd
000000c0: 886d 51be 7f91 88be 0b81 88bc 6840 873e
000000d0: 40c2 18bd 9786 9c3e 897e 4a3d 3629 8f3d
000000e0: 80af c2bc 0560 4e3d 1610 643e f2a3 4d3e
000000f0: ed27 533e 1a40 fabd e3c4 22be efb8 1dbd
00000100: 469e 943e f133 3f3e 133a 1f3e 6b5a 823e
00000110: 11ab 633e b6c3 383c eda3 353d d927 613e
00000120: b920 d8bd abb9 473c 55aa 5c3e c2c4 a0be
00000130: dbd6 8cbd c595 2abd acb7 ab3d bef8 483e
00000140: 3464 94be c975 70bd 03ac b43d b13d 74bd
00000150: a25c 813e 194a 68be be46 90be 698d 27be
00000160: 9c70 993e e140 2a3e 8d83 8ebe 9d84 04be
00000170: dcc3 6abe bd26 243e d4a4 9d3c 501f 06be
00000180: 0fee 44bd 8fad d3bc 331f cfbd c31e 673e
00000190: 6e8d 573e 59ae 6f3d d5cc 73be f8ad 8d3e
000001a0: 81e5 873e d407 363e e44b b53d e292 dc3d
000001b0: 4002 663e d294 453e f9e8 1a3e 3796 7e3c
000001c0: 695a e6bd 4e16 b9bd c92b 933d 3755 613e
000001d0: 8cac e4bd a5e6 3d3d 32ee 913e 9d93 103c
000001e0: f621 863e 447f 41bd c2de b83c cf37 843e
000001f0: 7342 f93d b8d2 083d bb63 f0bd 6e84 27be
00000200: 4c14 67bc df8d 7d3e 8f82 31be 73d7 29bd
00000210: afff a23d 069a 8cbd 6b69 a13e b01f f2bd
00000220: d7ca 5cbd 0c42 f43c 4913 c83d 0d32 273e
00000230: 7873 9b3d 1638 e2bd b2c8 46be a78f e53d
00000240: 04b8 53be 9fdc b6bd dc4e 46be 803b 05be
00000250: fa13 1abe 16b7 3d3e 46f5 b03e 45d5 983e
00000260: 6c5d 64be f752 9abe 6715 e23d 9788 993e
00000270: 8e3b 2e3e 40d4 abbe e440 4cbe 2f36 113e
00000280: a3db 943c 90df 103e 2476 dbbd 5ab7 eabd
00000290: eef0 8e3e e509 203e 9de8 1a3e 4596 a03d
000002a0: 9ca0 ea3d c0c8 d13c 06d6 393e 76a7 83bd
000002b0: 4dfe 52be d4cc 99bd ba20 5b3e 35b9 343e
000002c0: a86e 92be 3245 98bd c6d1 aebd 07ab 4bbe
000002d0: 9941 8c3d b76c 0fbe 7acf 2b3e db0e d6bd
000002e0: 541f 273e b6ca 4a3e 62c7 b63c 12bc 9c3d
000002f0: 491a 77be 7531 dc3d 00dd 623d a05d e4bd
00000300: 9a54 22bd fe9f 0cbe c910 80be e094 13be
00000310: 8623 903d 61ce 08be 5cc6 003e 855e 483e
00000320: 4941 a1bd 1f66 643e 29e6 c73d fedb 69be
00000330: cd9b 06bd 5e8f 58bd 38b6 4c3e 2d4c 513e
00000340: 20fc 4a3e c7d2 813e f257 103e 3f00 b23e
00000350: 5c27 a6bd 2d1a 0cbd 19a5 b0bd 11e2 1d3e
00000360: 35a1 5c3e 65a0 793e f989 12be ed91 b6bd
00000370: 4320 7dbd 1c96 77bd 15ff 533e 73eb 063e
00000380: bc39 8dbd d793 183d 98a0 6e3d 9b6a a73e
00000390: b4e8 933d b42a 75be 7b2e 163e 4a8c 2d3e
000003a0: 4983 613e 65c8 f73d 5324 69be 1848 97bd
000003b0: 6262 853e 826d 6c3e 08c5 0bbd 8f6b 9e3c
000003c0: cb9e ccbc 1001 80bd f7ff b63d c047 863d
000003d0: ab76 89bd 4c89 e93d 462e e4bd e03d 873d
000003e0: 509f bebd 0db1 a3bd 27e6 8b3e 6bd8 a6be
000003f0: 8b7b 08bc 6ffa 3bbd 1618 94be a898 953d
0.2251668 -0.096325874 -0.28384203 -0.15745325 -0.24735565 0.1589746 -0.09547067 -0.317309
0.11807128 -0.18140997 0.11603034 0.13456619 -0.28313708 -0.13674161 0.046351947 0.04729363
-0.071907036 -0.06490415 0.11281456 -0.16945931 -0.1429998 -0.08936522 -0.20944253 -0.07963683
-0.16851887 -0.12637289 0.071726695 0.3123609 -0.013509767 0.29381922 0.28894332 -0.1858004
0.24226767 -0.20617011 0.026722552 0.11761097 -0.17973138 0.19275926 0.18207344 -0.15548465
0.24115616 -0.035475057 -0.09282685 -0.23991798 0.13761917 -0.044580314 -0.07986543 -0.06648284
-0.20451939 -0.26673505 -0.016663095 0.26416326 -0.037294626 0.30571434 0.04943708 0.06990282
-0.023765326 0.05038454 0.22271761 0.20082071 0.20620699 -0.12219258 -0.15895419 -0.038506445
0.29027003 0.18672158 0.15549497 0.25459608 0.22233225 0.01127713 0.044345785 0.21987857
-0.10553116 0.012190263 0.21549352 -0.31400114 -0.06876918 -0.041646738 0.08384642 0.19626138
-0.289827 -0.05870608 0.08821871 -0.059629146 0.25265986 -0.22684516 -0.28178972 -0.16362537
0.29968727 0.16626312 -0.2783474 -0.12941213 -0.22926277 0.16030402 0.019243635 -0.13097882
-0.048078593 -0.025839595 -0.10113373 0.22570328 0.21050045 0.05851588 -0.23808606 0.2767179
0.26542285 0.17776424 0.088523656 0.10770203 0.22461796 0.19295052 0.15127935 0.015538744
-0.11247713 -0.090374574 0.07186086 0.22005163 -0.11165723 0.046362538 0.2850204 0.008824256
0.26197785 -0.04724051 0.022567157 0.2582383 0.12170877 0.033404082 -0.11737772 -0.16359112
-0.01410396 0.24761151 -0.1733496 -0.041465234 0.07958924 -0.06865315 0.3152574 -0.1182245
-0.05390438 0.02981665 0.09769303 0.16327687 0.07590383 -0.11045854 -0.19412497 0.1120904
-0.20675665 -0.08928799 -0.1936602 -0.13010979 -0.15046683 0.18526873 0.3456213 0.29850212
-0.22301263 -0.30141422 0.110392384 0.29987022 0.17014906 -0.3356037 -0.19946629 0.14180826
0.018171137 0.14147782 -0.10715893 -0.11460753 0.2791819 0.15628774 0.15127797 0.07841162
0.11456415 0.02560842 0.1814805 -0.06428425 -0.2060482 -0.07509771 0.21399203 0.17648776
-0.2860005 -0.07435073 -0.08536105 -0.1988946 0.06848449 -0.14006315 0.16778365 -0.10452052
0.16320544 0.1980389 0.02231187 0.07653059 -0.2413112 0.10751621 0.055386543 -0.1115067
-0.039631464 -0.13732907 -0.25012806 -0.1441226 0.070380256 -0.13359977 0.12575668 0.19567306
-0.0787378 0.22304581 0.097606964 -0.22837827 -0.032863427 -0.0528711 0.19991386 0.20439215
0.1982274 0.25356123 0.14096048 0.34765813 -0.08112976 -0.03420465 -0.0862524 0.15418269
0.2154587 0.24377592 -0.14310445 -0.08914552 -0.061798345 -0.06044589 0.20702775 0.13175754
-0.068957776 0.037250366 0.058258623 0.3269852 0.07222119 -0.23942071 0.14666168 0.16948047
0.22022738 0.12098769 -0.22767763 -0.07386798 0.26051623 0.23088649 -0.03412345 0.019338397
-0.024978062 -0.06250203 0.0893554 0.06556654 -0.06712087 0.114031404 -0.111416385 0.066035986
-0.0930773 -0.07992754 0.2732403 -0.3258699 -0.008330236 -0.04589313 -0.28924626 0.073045075

bias f4 [16]
00000000: a052 b1bd af5b 003d 6fc4 5cbd 39ab c3bd
00000010: 6689 2f3e dae5 5d3e 71a3 4dbc f952 223e
00000020: 576e 393e 41f1 12bd 0212 a33d d45d 09bc
00000030: ec31 703d 9b70 533d d571 5d3d 5b60 1b3e
-0.086583376 0.031337436 -0.05389827 -0.095541425 0.17142257 0.21669713 -0.0125511745 0.15851964
0.18108498 -0.03587461 0.07962419 -0.008384187 0.05864136 0.05162106 0.054063637 0.15173475

weight f4 [32, 16, 5, 5]
00000000: 5783 0a3e b0ed 983d f055 2d3b 19a4 333d
00000010: 5ff1 fa3d 04f5 a4bd 6b53 163d e3c9 25bd
00000020: 43e7 4d3d 7084 163d 65ef 153d 4a7e 123d
00000030: e7aa 013c 5fec 0f3e b46a fb3d fef3 223c
00000040: 9a99 4c3d c1c3 4f3c 1e19 953d 4ab9 823d
00000050: e3d0 98bd 7f8c 64bd f44c 17bc 796a 92bc
00000060: f8b4 c6bc c16c f6bc 775a 6b3d da68 c9bd
00000070: 0672 83bc 6c01 24bd e20c 223b b64a 073c
00000080: f204 a33b 27f7 503d 99a9 fabb 77b6 353d
00000090: fc81 003d 796c 103d 4cf6 293d a1dc b0bc
000000a0: a747 4b3c 6d1b a1bc 24b1 c43c d431 9dbb
000000b0: 2dd3 a13d 699c 90bd 1def a9bb 47b1 58bc
000000c0: 04f9 c8bd cbab b3bb d2a1 a03d a92c 843c
000000d0: fe26 9b3c 05bc ce3d ebdd 143d 8512 b73c
000000e0: 5ae6 23bd 7fb8 8abd 252a 893d cafb 98bd
000000f0: 22e2 39bd bccc 11bd 092a cdbd 2063 703d
00000100: 5e7b 70bd c262 35bc 0a47 dcbd 34b8 e13b
00000110: 37a5 973d 643c ddbc 929c 87bd 191a 0cbd
00000120: d776 a2bd 9eac bcbd 5ddf 20bd d99f 7e3d
00000130: cc18 a23d bd40 e73c eaa6 823d 1b6f e0bd
00000140: 5fd8 a43d b017 a5bc 8450 873b 4eae de3c
00000150: 7aff 18bd 76e3 a13c 9d46 893c bd62 1fbd
00000160: 187e a3bc 72d8 f53c a8ef c73d e0ff 66bc
00000170: 76c9 34bd 47e4 0dbd 4ac0 443d 338d 65bd
00000180: 535c 80bc 603b 88bd a38c 9c3b 2e21 20bd
00000190: 95fa 1e3a 0d4f 1b3c e225 04bc dd20 213e
000001a0: f4cb 80bd cfb9 e53c 2dbf 2abd c701 363d
000001b0: 58de 00bc ac13 093c ed40 64bd 4e27 84bd
000001c0: 1ca9 173d 5ff6 973d 148d c7bd 86d9 94bd
000001d0: bf6e d0bd 1d1f db3b 803a fabc e119 c2bc
000001e0: b228 5cbd b3f5 db3c 827f 83bd 8d99 4fbd
000001f0: a589 47bd 0ac9 a03d 9ac9 6e3d 4244 803c
00000200: 50ff 50bc 2b04 16bd 6ebf 4a3d 7981 03bd
00000210: b205 053d c37b 2f3d 5ab3 e8bc 16f6 0a3c
00000220: 8a27 68bb 6d5d a73d 84b5 623b f7a2 6bbd
00000230: 7b9c 20bd cd65 74bd 08c7 0ebd 8361 493c
00000240: 99a5 34bc f2f3 9abc 2c0e 06bd 242b efbb
00000250: 0e6b 54bd 6771 8fbc 028e 283e d505 c4bc
00000260: e85b 29bd 5c9e 7a3d 7926 bf3d a713 d53d
00000270: a8a5 3a3c 5c95 26be d816 683d 8cbb 93bd
00000280: a6c5 053e 4e98 09bd 998e 4e3d b415 fb3c
00000290: 1746 c63c b584 32bc 12f9 77bd a6ea e2bc
000002a0: 1003 9e3d ddcc 8b3c 3b9c 89bd b282 d93c
000002b0: 97ff a5bd 0f9e 80bd 0088 c23c 1baa 6d39
000002c0: 48f9 8abc daf7 05bc 66ad 75bc 0a90 abbd
000002d0: 451c 323d b8b9 ac3d b70a b33c 6c4d 06be
000002e0: 1b25 57bd d493 873c eec8 8fbd 2dc8 123d
000002f0: eed7 1a3c 06d8 703d 9b86 23bd 99f2 163d
00000300: 25e8 04bd c001 64bd 31bf b8bc 1679 53bd
00000310: 9374 2f3c b586 29bd 075c 153c 77c9 bfbc
00000320: d9e2 7ebd eee4 703c 5316 cabd 5b6b 1c3c
00000330: 4822 84b9 b326 20bd 038f b5bb ba6c 5bbd
00000340: f706 1abd 060c 45bc 7403 5c3a 98c4 60bd
00000350: 6b8a 8bbd 71da 223d 2f5c 84bc d8ba 2c3c
00000360: f61c 1cbd f993 55bd e1ae 55bd 1c77 a9bc
00000370: f81a 46bd 7045 003d 18cd 243b 1958 45bc
00000380: 351e 1bbc eaf0 fc3d fa62 083e 6c96 343d
00000390: cd54 d5bc 1fa3 1a3d ec1f f63c d555 253c
000003a0: e13e 77bd ff5a 8cbd d95f 263c ac46 8bbd
000003b0: 1bb2 f838 4a14 89bd 12fd b7bd f9ba a03d
000003c0: ed14 f2bd d824 84bc afdf c1bd c91c 8ebd
000003d0: 966e 27bd 3afe d1bd ef36 323c 7f05 a1bd
000003e0: 6604 62bd e05f 63bd 463a 393d 62b7 5d3d
000003f0: 0cc8 8dbc 3c99 71bd 3986 143d 5971 b9bc
0.13526665 0.0746721 0.0026448928 0.043857668 0.12253069 -0.080545455 0.036700647 -0.040475737
0.050269376 0.036747396 0.036605258 0.03576497 0.007914281 0.14055012 0.122762114 0.009945868
0.049951173 0.012680949 0.07280181 0.06382997 -0.07461717 -0.05579805 -0.009234656 -0.017873036
-0.024256214 -0.030081155 0.05745932 -0.09834452 -0.016045582 -0.04004042 0.0024726917 0.008257559
0.0049749548 0.051016953 -0.007649612 0.044363465 0.031373963 0.035259698 0.041494653 -0.021589579
0.01240722 -0.019666398 0.024010248 -0.0047971997 0.07901607 -0.07061083 -0.005185975 -0.01322586
-0.09813121 -0.005483126 0.07843365 0.016134577 0.018939491 0.10094456 0.03634445 0.022347698
-0.040014602 -0.06773471 0.066974916 -0.074699 -0.045381673 -0.03559564 -0.10017783 0.058688283
-0.058711402 -0.011070909 -0.10755737 0.006888414 0.07404559 -0.027006336 -0.0662166 -0.034204576
-0.07932823 -0.092126116 -0.039275516 0.06216416 0.07914886 0.028229112 0.063794926 -0.10958692
0.08049082 -0.020152897 0.0041294713 0.027182724 -0.037353016 0.019761782 0.016757304 -0.038912524
-0.019957587 0.030010436 0.09762508 -0.014099091 -0.04413744 -0.03464153 0.048034944 -0.05604286
-0.015669024 -0.0665195 0.0047775074 -0.039094143 0.00060645613 0.009479296 -0.008065673 0.15735193
-0.06288901 0.028042702 -0.041686226 0.04443529 -0.007865511 0.008366507 -0.05572598 -0.06452809
0.03702651 0.074200384 -0.097437054 -0.07268052 -0.10177373 0.0066870586 -0.030545473 -0.02369398
-0.053749748 0.026850557 -0.064208046 -0.050683547 -0.048715252 0.07850845 0.05829773 0.015657548
-0.012756184 -0.03662507 0.049498968 -0.032105897 0.032476135 0.042842638 -0.028405834 0.008481523
-0.0035423958 0.081721164 0.0034593055 -0.057528462 -0.03921173 -0.059667397 -0.03485778 0.012291315
-0.01102581 -0.01891515 -0.03272836 -0.007298844 -0.051859908 -0.01751013 0.16460422 -0.023928562
-0.041347414 0.06118618 0.0933351 0.10404139 0.011392035 -0.16267914 0.05666241 -0.07213506
0.13063678 -0.033592515 0.05042896 0.030649997 0.024203343 -0.010895898 -0.060540266 -0.02769978
0.07715428 0.01706546 -0.06719252 0.026551578 -0.081053905 -0.06280147 0.02374649 0.0002266545
-0.01696457 -0.008176768 -0.014994955 -0.08377083 0.04348399 0.084338605 0.021855695 -0.13115472
-0.05252562 0.016549982 -0.07020746 0.035835434 0.009450896 0.058799766 -0.03992329 0.036852453
-0.032447953 -0.05566573 -0.022552105 -0.05162915 0.010708946 -0.041388232 0.009116179 -0.023411496
-0.062228058 0.014703019 -0.09867539 0.00954708 -0.00025202543 -0.039099406 -0.00554073 -0.053570487
-0.0376043 -0.012026792 0.00083928485 -0.054874986 -0.068135105 0.039759103 -0.016157238 0.010542594
-0.038113557 -0.05214307 -0.05216873 -0.020686679 -0.048365563 0.03131622 0.002514666 -0.01204493
-0.009467651 0.12350638 0.13319007 0.044088766 -0.026041413 0.03775322 0.030044518 0.010091265
-0.0603627 -0.06853294 0.010154688 -0.06800589 0.00011858736 -0.06693323 -0.08983816 0.07848162
-0.118203975 -0.01613085 -0.094664924 -0.06939084 -0.040876947 -0.10253568 0.010877355 -0.078623764
-0.055179976 -0.055511355 0.04522159 0.054129966 -0.017307304 -0.058984026 0.036260817 -0.022637056

bias f4 [32]
00000000: 200c 003d 0a8a 3dbd f572 a0bc 31f2 99bc
00000010: b058 b3bc 4300 38bd 6bd8 44bd d48f a53c
00000020: 0dab af3c 574b 1e3c 85d8 d53b aefb 853d
00000030: 0fbd 66bd ab9b 113d 85b3 b73c ed1f 0c3c
00000040: 880f df3c f8ee 023d eb8e 663c 9b89 853c
00000050: 5879 44bb 36aa 19bd 9c38 b6bc fb7c a43d
00000060: 6251 aeba de16 a53d 1308 683d 58a9 0cbd
00000070: 9dd1 10bc 6113 73bc 2fc0 9b3c f1e2 043d
0.031261563 -0.046274222 -0.019586066 -0.018792244 -0.021892875 -0.044922125 -0.048057955 0.020210184
0.021443868 0.009661517 0.0065260553 0.06542145 -0.056332644 0.035548847 0.022424469 0.008552534
0.027229086 0.03196618 0.01407216 0.016300967 -0.0029979553 -0.03751584 -0.02224379 0.08031651
-0.00132994 0.08061002 0.056648325 -0.034341186 -0.008839038 -0.014836163 0.019012539 0.03244299

weight f4 [2, 32]
00000000: a3c7 7e3e 331c 593e 538d 783d fbb5 0dbe
00000010: cec7 723d 4ce8 593d 1f24 e83c b91c 8a3e
00000020: 3845 0dbe 4896 023e 40c7 d33d aed3 3cbe
00000030: af62 8c3d f860 25be 0a67 793e af7e 813d
00000040: 1d3c 813e 5039 80be 6c49 da3d 0bc2 9ebc
00000050: 841c 48be c2f8 1ebd f59e 8b3e 4400 d8bd
00000060: f69d 273e ee35 47be 6876 72be 4168 233d
00000070: 1ba6 edbd e822 693e 2a3a 083e af8e 05be
00000080: 7a4e 20bd 5c27 6abd 0e38 42be 679e 913e
00000090: eb1b 263d 7b8b 71be 0a2c d5bd 338a 3bbe
000000a0: 42e3 22be a108 d3bd 2d35 3ebe baa5 b83d
000000b0: f36a 87be 24c4 5c3e 209b 13be 8ccb a4bc
000000c0: 9d75 ccbd c752 893e 7fc4 943d f559 d5bc
000000d0: 29d3 d53d c3b6 18be 4fe8 3ebe 76f4 3a3e
000000e0: 7c5d ca3d 24c2 bd3d 0bf0 ba3d 320e 84be
000000f0: b483 773e efc8 bfbd be20 41be b26f 643e
0.24880843 0.21202163 0.060681652 -0.13838951 0.05927258 0.05320005 0.028337536 0.2697504
-0.13795936 0.1275264 0.10340738 -0.18440124 0.0685476 -0.16150272 0.24355713 0.06322991
0.25241175 -0.25043726 0.10658535 -0.019379636 -0.19542128 -0.038811453 0.27269712 -0.10546926
0.16368851 -0.19454166 -0.23677981 0.039894346 -0.11603948 0.22767222 0.13303438 -0.1304271
-0.03913734 -0.057166442 -0.18966696 0.28441164 0.04055397 -0.23588364 -0.104087904 -0.18314438
-0.15907004 -0.1030438 -0.18574972 0.09015985 -0.26448783 0.21559197 -0.14414644 -0.02011659
-0.099833705 0.26820967 0.07264041 -0.026043871 0.10440666 -0.14913468 -0.18643306 0.18257317
0.09881112 0.09265545 0.09127816 -0.2579208 0.24171335 -0.09364497 -0.18860146 0.22308233

bias f4 [2]
00000000: b268 3e3d 0e82 08be
0.046486564 -0.13330862
