saved_models/conv1drnn.pth (torch_old, 390637 bytes, 17 tensors)

weight f4 [4927, 10]
0.27740404 0.23872167 0.14928043 0.5463005 -0.1633454 0.2781342 0.8118371 -0.6340612
-0.6526508 -0.27571303 0.26605725 -0.1577458 0.01795449 1.2725164 -0.62233484 0.56016296
1.0295681 -0.7028971 -0.65445733 -0.39265528 -0.5376671 -0.34923396 0.0019290023 -0.267948
-0.17257224 0.44381383 0.5020755 -0.39100388 0.29144543 0.33002868 -0.002609192 -0.07010956
-0.67504805 0.14368714 -0.83678484 0.77153045 0.0017270932 -0.09609653 0.42159504 -0.38607755
-0.7328122 -0.17039517 0.58666044 0.039589077 -0.050743457 0.18060027 0.6900496 -0.25026628
-0.04052493 0.07024767 -0.97563696 -0.26824626 0.0493937 0.24565564 -0.18722452 0.19180469
0.22779709 -0.004460653 0.22114047 -0.25448197 -0.24927887 -0.46742412 -0.87165314 -0.20194519
0.22730513 -0.06524959 0.9811657 -0.20632648 -0.780506 -1.052447 -0.0594676 0.061809197
0.09559951 -0.6548559 -0.37342346 0.40544462 0.26955473 -0.49322802 0.18476836 -0.3866686
-0.9373664 -0.25968105 -0.41192666 0.01522148 0.3738458 0.12895028 0.34723285 -0.090989456
-0.29836684 -1.2080216 -0.8999838 -0.47399536 -0.16338666 -0.26684284 -0.009766107 0.27798426
-0.046910584 -0.07072214 -0.1962175 -0.5165742 0.07355394 -0.60688776 -1.0297072 0.3163935
-0.23732649 0.30860415 1.442005 0.48740876 -0.45812634 -0.72485465 -0.67932194 -1.1335323
-0.48806298 -1.3417487 -0.5267104 1.3203645 0.925112 0.5263448 0.27674016 -0.28696576
-0.17691725 -0.046320986 -0.31248838 -0.056726784 -0.009828396 0.39534467 0.46464744 -0.568135
0.07316362 -0.023655152 -0.34311038 0.34305754 0.12618275 0.7540093 -0.48672614 0.53962046
0.48700395 -0.48039955 0.089157075 -0.105485186 -0.553203 -0.3620935 0.1284297 -0.07088284
0.10351091 -0.057354625 0.47107297 -0.11260176 0.69649446 -1.1748333 -0.4287208 -0.021803247
-0.027251536 0.9697618 -0.6062799 -0.27621067 0.8873269 -0.32779327 -0.12751207 -0.49065202
-0.04318925 -0.4566718 0.029423125 -0.5526151 -0.56734073 0.71191686 0.19528455 0.23793678
-0.777929 -0.35319203 -0.77131844 -1.2879347 -0.3895832 0.15976506 -0.9297211 -0.55274314
1.0475153 0.22295813 0.5795858 -0.523349 0.11397638 -0.52156305 0.39136553 0.26122683
-0.21956706 0.7142434 0.07206857 -0.39965528 -0.20795749 -0.4690638 -1.2314011 -1.229806
-0.38008922 -0.7451203 -0.08288788 -0.1497256 0.06595051 0.05222419 -0.35927394 -1.6793206
0.011041691 0.45273587 -0.7351024 0.632948 -0.06741646 1.2831674 1.2256291 0.50528383
0.173462 -1.0856498 -0.74936336 -0.70126516 -1.0876169 -0.36174595 -0.14506792 -0.4052532
0.40945488 -0.33841473 0.31319696 -1.2019341 0.15606593 0.32499683 0.26047283 0.44116563
-0.47750622 0.15418586 0.5842497 -1.6427382 0.280234 -0.6984885 -0.33031157 0.13427514
0.14409171 0.045529746 -0.07776924 0.57859373 0.5533912 -0.20225091 -0.63953024 -0.27189928
-0.26797706 -0.22467619 -0.17109631 0.1683984 -0.59109086 1.1296701 0.25227648 -0.2563212
1.3608395 -0.470779 -1.0457338 0.19506973 -0.95720845 0.6935026 -0.11663051 0.9325811
00000000: e707 8e3e 7473 743e f8dc 183e 59da 0b3f
00000010: 0444 27be 9b67 8e3e 8ed4 4f3f d651 22bf
00000020: 1f14 27bf 422a 8dbe a838 883e 1d88 21be
00000030: 4b15 933c d1e1 a23f 5651 1fbf d766 0f3f
00000040: e3c8 833f 10f1 33bf 848a 27bf 1d0a c9be
00000050: 8da4 09bf cbce b2be 94d6 fc3a 7b30 89be
00000060: c7b6 30be 913b e33e 0588 003f a931 c8be
00000070: 5638 953e 85f9 a83e fafe 2abb 9a95 8fbd
00000080: f3cf 2cbf b922 133e 8837 56bf 0583 453f
00000090: a25f e23a 42ce c4bd 4edb d73e f5ab c5be
000000a0: 9599 3bbf 127c 2ebe 612f 163f 2828 223d
000000b0: 5fd8 4fbd 47ef 383e 17a7 303f e722 80be
000000c0: 78fd 25bd 03de 8f3d 58c3 79bf 9357 89be
000000d0: 0c51 4a3d 278d 7b3e c9b7 3fbe 7368 443e
000000e0: a443 693e ab2a 92bb a672 623e 764b 82be
000000f0: f642 7fbe 3752 efbe a924 5fbf b8ca 4ebe
00000100: adc2 683e 94a1 85bd ad2d 7b3f 4047 53be
00000110: 3ecf 47bf 95b6 86bf 4c94 73bd a42b 7d3d
00000120: adc9 c33d a3a4 27bf 5c31 bfbe 7096 cf3e
00000130: 1403 8a3e 6288 fcbe eb33 3d3e 6df9 c5be
00000140: 3ff7 6fbf eaf4 84be 0de8 d2be 8463 793c
00000150: b768 bf3e 8b0b 043e 81c8 b13e ae58 babd
00000160: 8ac3 98be 74a0 9abf 5765 66bf 85af f2be
00000170: d54e 27be a09f 88be 0602 20bc f453 8e3e
00000180: 5025 40bd c5d6 90bd 3eed 48be 353e 04bf
00000190: 73a3 963d ff5c 1bbf 72cd 83bf 54fe a13e
000001a0: b705 73be 5d01 9e3e 9f93 b83f a48d f93e
000001b0: 898f eabe 1390 39bf 0be8 2dbf 9617 91bf
000001c0: 64e3 f9be 6cbe abbf 7ed6 06bf b401 a93f
000001d0: 24d4 6c3f 88be 063f e3b0 8d3e 2ded 92be
000001e0: cc29 35be 13bb 3dbd 7afe 9fbe 585a 68bd
000001f0: 4807 21bc 9e6a ca3e 45e6 ed3e 4c71 11bf
00000200: cfd6 953d 73c8 c1bc 2aac afbe 3da5 af3e
00000210: 0d36 013e c106 413f 2b34 f9be 9124 0a3f
00000220: 9558 f93e eef6 f5be fc97 b63d 9e08 d8bd
00000230: b69e 0dbf 5264 b9be 1383 033e 062b 91bd
00000240: 87fd d33d afec 6abd 7a30 f13e c09b e6bd
00000250: 764d 323f f060 96bf 4b81 dbbe b99c b2bc
00000260: 9d3e dfbc 4f42 783f 2935 1bbf 7c6b 8dbe
00000270: db27 633f 85d4 a7be 8692 02be be36 fbbe
00000280: 36e7 30bd e3d0 e9be c408 f13c 2f78 0dbf
00000290: 3e3d 11bf 2f40 363f acf8 473e b3a5 733e
000002a0: 5b26 47bf 96d5 b4be 2075 45bf 0bdb a4bf
000002b0: 7377 c7be 7499 233e 3402 6ebf 9380 0dbf
000002c0: fb14 863f 234f 643e bc5f 143f 33fa 05bf
000002d0: 736c e93d 2885 05bf 1061 c83e 86bf 853e
000002e0: 30d6 60be a8d8 363f b098 933d 9e9f ccbe
000002f0: cff2 54be 2129 f0be 8d9e 9dbf 486a 9dbf
00000300: 0e9b c2be 34c0 3ebf 1fc1 a9bd ab51 19be
00000310: 1011 873d 08e9 553d c1f2 b7be faf3 d6bf
00000320: 35e8 343c ffcc e73e ac2f 3cbf e108 223f
00000330: a411 8abd d43e a43f 6ae1 9c3f 485a 013f
00000340: 06a0 313e 93f6 8abf 47d6 3fbf 1d86 33bf
00000350: 0837 8bbf c436 b9be af8c 14be 597d cfbe
00000360: 12a4 d13e b244 adbe 5a5b a03e fad8 99bf
00000370: bfcf 1f3e fc65 a63e b25c 853e 76e0 e13e
00000380: b27b f4be e6e2 1d3e 6391 153f 3f45 d2bf
00000390: d57a 8f3e 24d0 32bf 991e a9be 6c7f 093e
000003a0: c78c 133e 667d 3a3d 7b45 9fbd b81e 143f
000003b0: 0cab 0d3f dd1a 4fbe 41b8 23bf 6236 8bbe
000003c0: 4a34 89be 8411 66be df33 2fbe a170 2c3e
000003d0: bb51 17bf 0899 903f 622a 813e 883c 83be
000003e0: fd2f ae3f f209 f1be 9bda 85bf 5cc0 473e
000003f0: 9d0b 75bf 6389 313f fadb eebd a3bd 6e3f

weight_ih_l0 f4 [64, 10]
-0.27743518 -0.23856454 -0.13698387 0.049186196 -0.04784442 0.12115148 0.262023 0.0050657517
-0.196345 -0.30944175 0.14630531 0.11019885 0.196491 -0.0144056585 -0.22430526 0.14187299
0.016832706 0.0022503473 0.32299826 0.07185165 -0.36839557 0.0153580895 -0.15857613 -0.0055963257
0.06906134 0.2945564 0.0042358977 -0.013721984 -0.22638306 0.21698882 -0.15916178 0.13072208
-0.3664877 -0.41432992 -0.048821133 -0.04546105 0.10604581 0.10357321 0.22867519 0.018733358
-0.05331293 -0.31940883 0.013385805 -0.06083196 0.07541705 0.40109947 0.009227595 0.17037137
-0.20772026 -0.21048152 -0.10648084 0.14629611 -0.3589291 -0.42954317 -0.3192229 -0.051883485
0.08061469 -0.039493 -0.037183836 0.13239843 -0.17960162 -0.26053464 -0.2521349 -0.077133566
-0.36100549 -0.1312048 0.38690165 -0.14307547 -0.08682076 -0.29928392 0.009622654 0.02044677
0.041290678 0.03380369 -0.14269878 0.104220405 -0.00022614769 0.07197453 -0.16406727 0.029435063
-0.25254056 -0.059855424 0.0077291485 -0.4386571 -0.027490616 -0.09722954 0.0056044394 -0.25846583
-0.026377922 -0.24480242 0.15401185 -0.31281367 -0.33118424 -0.049224664 -0.1642866 0.0724025
0.22386135 0.23570749 0.03207553 -0.12447611 -0.13951413 0.014451009 0.2260708 0.3083304
0.061879985 -0.24683142 0.15729824 0.09978378 0.019296272 0.00861118 -0.32606933 -0.11890517
-0.12259849 0.075380355 -0.18247013 0.0834242 0.29108167 0.2701996 -0.13454138 0.009707096
0.24286096 -0.22479345 0.07162315 0.12671664 0.069491625 0.1938146 -0.10115507 -0.33086997
0.22593996 -0.26294264 -0.2506009 -0.047133658 -0.13965844 -0.10802597 0.16281085 -0.106147155
0.3312787 -0.050515078 0.006751677 -0.17129509 -0.29269388 0.1465487 0.123401396 -0.16595022
-0.1448041 0.13416757 -0.049890507 0.12261811 0.09858164 -0.12334819 0.25514272 -0.14882787
-0.13349386 -0.3934735 -0.06983765 0.2952793 0.13965379 0.2687708 0.32429996 -0.04239585
-0.1902979 0.0058564544 -0.18347391 0.10417327 -0.055811822 -0.06408036 0.14218706 0.21305332
-0.24299988 -0.0020580888 0.09504187 -0.11677399 0.0650689 -0.12607485 -0.083143055 -0.034471095
-0.03902024 0.11791897 -0.23590305 0.1769518 0.077485085 -0.0047416985 0.025558949 0.08444518
-0.025412649 0.20998466 0.21510583 -0.23935983 -0.11335331 -0.036097288 0.15907878 0.01082778
-0.23161769 -0.10110843 -0.1230866 0.005284667 -0.08278203 -0.21046865 -0.028026044 0.12971655
0.13513514 -0.09442994 0.09775087 -0.16200042 0.21123081 -0.11502898 -0.09519616 -0.13076487
-0.23827755 -0.124587774 0.09716448 0.10230991 -0.14189869 -0.2329886 -0.031248808 -0.2237683
0.19893491 0.07792625 -0.09981641 0.041974723 0.12194213 0.13926473 -0.048235 0.1669617
0.03245166 -0.22806957 -0.019402564 0.016332597 0.17779759 0.24761641 0.15221766 0.13298044
0.22762263 -0.18242761 0.07756388 -0.07769483 -0.022753537 -0.16536036 0.040527284 -0.09829134
-0.23029563 -0.056927204 -0.09249008 -0.073988676 -0.07726401 0.19379908 0.006164402 0.10916361
0.041672766 -0.13070932 0.18012273 0.1442971 0.10599503 -0.22053352 0.113147676 0.07628858
00000000: fc0b 8ebe 434a 74be 8045 0cbe 7777 493d
00000010: 83f8 43bd 441e f83d e127 863e 9bfe a53b
00000020: aa0e 49be 266f 9ebe 0fd1 153e efaf e13d
00000030: f034 493e b605 6cbc 47b0 65be 2747 113e
00000040: bee4 893c 907a 133b 0760 a53e f526 933d
00000050: 589e bcbe 7fa0 7b3c c861 22be 6261 b7bb
00000060: 0870 8d3d 19d0 963e 49cd 8a3b 2cd2 60bc
00000070: f6d0 67be 5132 5e3e 4efb 22be 02dc 053e
00000080: 47a4 bbbe 0d23 d4be abf8 47bd 5e35 3abd
00000090: 8c2e d93d 311e d43d d429 6a3e b376 993c
000000a0: a95e 5abd 8e89 a3be 2350 5b3c ef2a 79bd
000000b0: 4174 9a3d e95c cd3e 572f 173c d575 2e3e
000000c0: 9fb4 54be 7888 57be a012 dabd a6ce 153e
000000d0: 8ec5 b7be 15ed dbbe 2f71 a3be c783 54bd
000000e0: 5119 a53d 69c3 21bd 144e 18bd 7493 073e
000000f0: 7de9 37be cc64 85be d317 81be 34f8 9dbd
00000100: b6d5 b8be 8d5a 06be f917 c63e 6082 12be
00000110: 15cf b1bd be3b 99be 56a8 1d3c fc7f a73c
00000120: 6a20 293d bd75 0a3d a11f 12be 8271 d53d
00000130: 0f22 6db9 6267 933d 4001 28be cd21 f13c
00000140: ff4c 81be f62a 75bd cc44 fd3b aa97 e0be
00000150: 0034 e1bc 4820 c7bd 72a5 b73b a255 84be
00000160: 8316 d8bc 7cad 7abe 48b5 1d3e 1d29 a0be
00000170: fb90 a9be cd9f 49bd bf3a 28be c347 943d
00000180: e93b 653e 4e5d 713e a261 033d 55ed febd
00000190: cbdc 0ebe edc3 6c3c 1b7f 673e 7bdd 9d3e
000001a0: de75 7d3d 60c1 7cbe ca12 213e 705b cc3d
000001b0: 3713 9e3c e815 0d3c 8ff2 a6be 8e84 f3bd
000001c0: eb14 fbbd 0461 9a3d 73d9 3abe 4fda aa3d
000001d0: a808 953e 9a57 8a3e 37c5 09be 830a 1f3c
000001e0: 8bb0 783e 4130 66be 28af 923d 02c2 013e
000001f0: a051 8e3d 5677 463e 642a cfbd ca67 a9be
00000200: ce5c 673e 6ba0 86be c34e 80be 390f 41bd
00000210: 9f02 0fbe b83c ddbd e3b7 263e ae63 d9bd
00000220: 5d9d a93e e6e8 4ebd 2c3d dd3b fb67 2fbe
00000230: f9db 95be dd10 163e dfb9 fc3d dbee 29be
00000240: 8747 14be 3963 093e fd59 4cbd 341f fb3d
00000250: 2ce5 c93d fa9d fcbd 11a2 823e 5566 18be
00000260: 9db2 08be 5c75 c9be 0b07 8fbd d92e 973e
00000270: 6701 0f3e 549c 893e a50a a63e 45a7 2dbd
00000280: 74dd 42be 80e7 bf3b 96e0 3bbe cc58 d53d
00000290: f09a 64bd 903c 83bd 7c99 113e a62a 5a3e
000002a0: f6d4 78be 00e1 06bb 50a5 c23d 3427 efbd
000002b0: d842 853d c419 01be e846 aabd 9031 0dbd
000002c0: b0d3 1fbd 807f f13d 9290 71be da32 353e
000002d0: 80b0 9e3d 4060 9bbb 0061 d13c 98f1 ac3d
000002e0: 302e d0bc 3806 573e b444 5c3e be1a 75be
000002f0: c825 e8bd c0da 13bd 8ce5 223e 0067 313c
00000300: 302d 6dbe f011 cfbd d414 fcbd 002b ad3b
00000310: a089 a9bd 1885 57be e096 e5bc 6ad4 043e
00000320: de60 0a3e 7c64 c1bd 9c31 c83d 70e3 25be
00000330: e44c 583e 5094 ebbd 34f6 c2bd 3ae7 05be
00000340: 08ff 73be e027 ffbd 2cfe c63d dc87 d13d
00000350: e44d 11be 9094 6ebe 80fd ffbc 8423 65be
00000360: 98b5 4b3e cc97 9f3d 8c6c ccbd b0ed 2b3d
00000370: ccbc f93d 6a9b 0e3e 1092 45bd 02f8 2a3e
00000380: 08ec 043d 128b 69be 20f2 9ebc f0cb 853c
00000390: 9210 363e 288f 7d3e f2de 1b3e 062c 083e
000003a0: e815 693e 4ece 3abe d0d9 9e3d 781e 9fbd
000003b0: a065 babc 3a54 29be f0ff 253d f84c c9bd
000003c0: 9ed2 6bbe 802c 69bd 706b bdbd 6087 97bd
000003d0: 983c 9ebd 4473 463e c0fe c93b 2c91 df3d
000003e0: 10b1 2a3d aad8 05be 1872 383e 9ec2 133e
000003f0: ec13 d93d 8ad3 61be f8b9 e73d 303d 9c3d

weight_hh_l0 f4 [64, 16]
-0.2019068 0.08830592 0.22763973 -0.22685623 0.21952528 -0.02019322 0.11993551 -0.120179236
0.24745637 0.24936792 -0.12814224 0.03672102 0.014825821 0.24442253 -0.14874303 -0.16148514
-0.04684803 -0.052171618 0.14394793 0.040404707 -0.22597516 -0.0063163936 -0.06960508 0.16005155
0.22344366 -0.15821004 -0.03969583 0.12726146 0.015781999 -0.042452663 0.049176365 0.07307884
-0.12598738 -0.12944737 0.13275933 0.004039347 0.082004756 -0.09898767 -0.070997536 0.104070485
0.24887845 -0.12808803 0.22514686 0.038076878 -0.19931939 0.02120313 0.09880403 0.14163128
-0.13684627 -0.11430392 0.198991 0.15651816 -0.1857864 0.07629216 0.028154463 0.059108913
0.18801722 -0.0383372 -0.10954258 0.0049387217 -0.04476148 0.09616876 -0.12354195 0.063251734
0.09347689 -0.092209846 0.0045151412 0.16895512 -0.059426397 -0.23534226 0.23716992 0.051108032
-0.0053739846 -0.010811359 -0.017369717 0.039445132 -0.103789 -0.17498648 -0.115558386 -0.08014211
0.24848416 0.18618011 0.16332185 0.064451754 0.11329275 0.09610751 0.13354895 -0.03353378
0.10160008 -0.055303633 0.07321581 -0.12073544 -0.18694648 -0.15029562 0.017901003 -0.24863192
0.093069434 -0.2237306 -0.009095877 0.1411401 0.24079561 0.124665916 -0.23247173 0.22531554
-0.11229381 0.05401382 -0.1323007 0.18031073 -0.09348637 0.021743506 0.23359051 0.071554095
0.07063857 -0.084650695 -0.19289255 -0.0006082952 0.14278439 -0.10789749 0.20405892 -0.13470513
-0.21465322 0.21105468 0.08795464 -0.06535581 0.033817112 -0.1874828 -0.12426102 -0.17585218
-0.0091587305 0.053289264 -0.24437547 -0.21451297 -0.14147988 0.037900925 -0.13559517 -0.14665583
0.049285233 0.04955873 -0.11453211 0.24356759 0.08242583 0.11272749 -0.01809901 0.20119351
-0.2379627 0.16444585 0.10300991 -0.06675264 0.043020308 -0.17735758 -0.22020948 0.0609923
-0.02770418 0.16202012 -0.17559999 -0.17091143 -0.07700074 0.22399369 0.05269581 0.19455275
-0.10474479 0.013073415 -0.18444046 0.11055818 0.07806203 -0.23425102 0.05808738 -0.029369026
0.24094313 -0.113643706 -0.09633726 0.030554414 0.23701915 0.10573435 0.13323092 0.058562785
-0.24344599 0.20248875 0.14702955 -0.21902171 -0.12869585 -0.14310208 0.1877189 0.20901385
-0.030972958 0.19533935 -0.17719549 0.12839237 0.04600373 -0.1717236 0.09899333 0.047360033
-0.09672758 0.10554424 0.18273869 0.1225045 -0.16581681 -0.12238404 -0.05888021 -0.19806734
-0.20137995 -0.08927971 0.14943695 0.08667818 -0.18780595 0.13309175 0.050426006 -0.010982543
0.17707685 0.11156881 -0.07165462 0.13111857 -0.1384528 0.12307212 0.081308156 -0.15556338
0.08654767 -0.008614808 -0.14092779 -0.1138736 -0.012980193 -0.117105275 0.23729229 0.068886995
-0.08350867 -0.18645656 -0.08914623 -0.19212309 0.05263564 -0.0023111105 -0.1308749 -0.012429267
0.13665232 0.029696494 0.0074534416 -0.02947563 -0.097562104 0.16952199 0.20358339 0.22777295
-0.15734717 -0.053834558 -0.24767467 0.051531583 -0.116951734 -0.037904143 0.00056892633 -0.17046207
0.18383694 -0.17711565 0.12422651 -0.14826453 -0.07090348 0.19255745 -0.027925134 0.065746754
00000000: a8c0 4ebe bcd9 b43d 641a 693e 004d 68be
00000010: 3ccb 603e 406c a5bc c0a0 f53d 8820 f6bd
00000020: 3465 7d3e 4e5a 7f3e b837 03be c868 163d
00000030: 00e8 723c e649 7a3e 1850 18be 5c5c 25be
00000040: b8e3 3fbd e8b1 55bd 1667 133e 687f 253d
00000050: 0866 67be c0f9 cebb 1c8d 8ebd 8ee4 233e
00000060: 6ace 643e d001 22be 1898 22bd d450 023e
00000070: 4049 813c d8e2 2dbd 286d 493d 5caa 953d
00000080: d602 01be da8d 04be 10f2 073e 805c 843b
00000090: 1cf2 a73d 0cba cabd 2867 91bd e822 d53d
000000a0: fed9 7e3e 8229 03be e68c 663e 80f6 1b3d
000000b0: 621a 4cbe 30b2 ad3c c459 ca3d ca07 113e
000000c0: 6e21 0cbe 2c18 eabd 4cc4 4b3e 4c46 203e
000000d0: ca3e 3ebe 103f 9c3d 30a4 e63c 301c 723d
000000e0: 9687 403e 7807 1dbd dc57 e0bd 00d5 a13b
000000f0: d057 37bd 20f4 c43d 9003 fdbd 208a 813d
00000100: d070 bf3d 84d8 bcbd c0f3 933b 9202 2d3e
00000110: 1869 73bd 90fd 70be acdc 723e a856 513d
00000120: 4018 b0bb 2022 31bc f04a 8ebc 3891 213d
00000130: 548f d4bd a82f 33be e0a9 ecbd 8c21 a4bd
00000140: a272 7e3e 00a6 3e3e d83d 273e 48ff 833d
00000150: 0806 e83d 04d4 c43d 0ec1 083e b85a 09bd
00000160: b413 d03d 1086 62bd 2cf2 953d 2444 f7bd
00000170: e66e 3fbe 18e7 19be 20a5 923c 5e99 7ebe
00000180: 309b be3d a219 65be e006 15bc 0887 103e
00000190: 2093 763e d850 ff3d 120d 6ebe 1eb9 663e
000001a0: 4cfa e5bd 983d 5d3d d679 07be 60a3 383e
000001b0: c875 bfbd 701f b23c 5a32 6f3e f48a 923d
000001c0: f4aa 903d 585d adbd a085 45be 0076 1fba
000001d0: 1236 123e 5cf9 dcbd d2f4 503e 24f0 09be
000001e0: 0ece 5bbe b81e 583e 9021 b43d 44d9 85bd
000001f0: d083 0a3d 7efb 3fbe 907c febd 9812 34be
00000200: 800e 16bc d845 5a3d 903d 7abe 4aa9 5bbe
00000210: 1ae0 10be 003e 1b3d 76d9 0abe f22c 16be
00000220: 50df 493d 18fe 4a3d d08f eabd c869 793e
00000230: e0ce a83d acdd e63d 6044 94bc ac05 4e3e
00000240: 7eac 73be 7e64 283e dcf6 d23d 9cb5 88bd
00000250: 1036 303d 3a9d 35be 987e 61be 10d3 793d
00000260: e0f3 e2bc 9ae8 253e 7cd0 33be 6803 2fbe
00000270: 90b2 9dbd 9a5e 653e 90d7 573d d638 473e
00000280: 7084 d6bd e031 563c f6dd 3cbe 546c e23d
00000290: fcde 9f3d 80df 6fbe 08ed 6d3d 5097 f0bc
000002a0: ccb9 763e 08be e8bd 784c c5bd 404d fa3c
000002b0: 26b5 723e 408b d83d b06d 083e 88df 6f3d
000002c0: e849 79be 3659 4f3e ea8e 163e 3a47 60be
000002d0: d8c8 03be 5a89 12be 6239 403e ba07 563e
000002e0: 00bb fdbc 0a07 483e bc72 35be 4a79 033e
000002f0: 686e 3c3d 50d8 2fbe 04bd ca3d 98fc 413d
00000300: 1c19 c6bd 9427 d83d da1f 3b3e a4e3 fa3d
00000310: e2cb 29be 7ca4 fabd 602c 71bd 2ad2 4abe
00000320: 8c36 4ebe 48d8 b6bd 0006 193e 5484 b13d
00000330: 3450 40be 3449 083e 808b 4e3d 20f0 33bc
00000340: a253 353e 307e e43d a8bf 92bd f243 063e
00000350: 92c6 0dbe 3c0d fc3d e484 a63d 024c 1fbe
00000360: e83f b13d 2025 0dbc 604f 10be 9036 e9bd
00000370: e0aa 54bc e4d4 efbd c0fc 723e a014 8d3d
00000380: 9806 abbd 78ee 3ebe 4c92 b6bd eabb 44be
00000390: 7898 573d 0076 17bb 1204 06be 20a4 4bbc
000003a0: 96ee 0b3e 1046 f33c 003c f43b e076 f1bc
000003b0: a4ce c7bd 2c97 2d3e 2a78 503e 503d 693e
000003c0: 9e1f 21be a081 5cbd 6e9e 7dbe c812 533d
000003d0: 6484 efbd 6041 1bbd 0024 153a 9c8d 2ebe
000003e0: c03f 3c3e ce5d 35be 786a fe3d a8d2 17be
000003f0: d835 91bd c82d 453e 40c3 e4bc 3ca6 863d

bias_ih_l0 f4 [64]
0.1256019 -0.13690786 0.22064137 -0.07900318 0.3951934 -0.026377961 -0.021503255 -0.105413675
0.33600497 0.46107996 0.013742357 -0.00018114326 0.4128516 0.31835082 0.2576141 -0.148317
0.010364264 0.22451878 0.12292066 -0.18797815 -0.065034926 -0.041607082 0.022361696 0.119318426
-0.1323272 -0.23192683 -0.028478652 -0.044717908 -0.033177316 -0.048969775 -0.01222676 -0.13043582
0.43306166 0.27091354 0.16613227 0.17523408 -0.1628491 -0.10878851 -0.0771898 0.08644848
-0.01591169 -0.07297929 0.10482043 -0.24467787 0.026183955 -0.16534533 0.25571215 0.23703209
0.28829023 0.08014476 0.254085 0.09318969 0.27389044 0.09382236 0.3114764 0.29640624
0.02570256 0.4595344 -0.041421775 -0.14621052 -0.013918256 0.14694569 0.027720798 0.055743508
00000000: c99d 003e 9331 0cbe d0ef 613e 6bcc a1bd
00000010: ca56 ca3e 9816 d8bc 9827 b0bc 20e3 d7bd
00000020: d808 ac3e ac12 ec3e 9f27 613c 46f1 3db9
00000030: 4961 d33e e1fe a23e ffe5 833e 69e0 17be
00000040: e0ce 293c 40e8 653e d4bd fb3d 587d 40be
00000050: 0831 85bd 306c 2abd e02f b73c 385d f43d
00000060: c880 07be 3a7e 6dbe 104c e9bc 202a 37bd
00000070: f0e4 07bd 8894 48bd c052 48bc f890 05be
00000080: 42ba dd3e 2eb5 8a3e 941e 2a3e 9070 333e
00000090: eac1 26be 83cc debd b015 9ebd e70b b13d
000000a0: 3c59 82bc 2a76 95bd 18ac d63d d68c 7abe
000000b0: bc7f d63c 4950 29be b4ec 823e 8ab8 723e
000000c0: c79a 933e f022 a43d 6e17 823e 3cda be3d
000000d0: 5e3b 8c3e f025 c03d d679 9f3e 8fc2 973e
000000e0: 2d8e d23c 1848 eb3e e1a9 29bd 36b8 15be
000000f0: 6609 64bc ee78 163e ba16 e33c 4e53 643d

bias_hh_l0 f4 [64]
0.47094497 0.22079425 0.260836 -0.058023974 0.31788796 0.05439024 0.14028156 0.21874978
0.035194725 0.2519484 -0.0014682482 0.056055047 0.22672106 0.3019838 0.21785668 0.21922512
-0.10598725 0.17743763 0.17549026 -0.1158503 0.22187921 0.105152756 0.11906695 -0.20953283
-0.15385768 -0.1291329 -0.025558531 -0.13205594 -0.019634336 0.09670204 0.14282838 -0.2409809
0.36009896 -0.14050728 -0.13805231 -0.13091591 -0.105642654 0.15379436 0.0052812207 -0.10190637
-0.013180578 0.032715138 -0.15204135 0.1303668 0.13778722 0.12667146 0.14939663 -0.106103666
0.10431459 0.251954 0.12529042 0.33483413 0.39924198 0.0031033778 -0.064296864 0.19487557
0.16729446 0.37060404 -0.104411915 -0.2429448 0.27916986 0.360004 0.1509697 -0.04135429
00000000: b31f f13e e317 623e 4c8c 853e 8caa 6dbd
00000010: 36c2 a23e 4dc8 5e3d f8a5 0f3e f1ff 5f3e
00000020: 5828 103d 61ff 803e 3c72 c0ba fa99 653d
00000030: 9129 683e 9f9d 9a3e d215 5f3e 8d7c 603e
00000040: d80f d9bd 36b2 353e b8b3 333e ec42 edbd
00000050: 4e34 633e 545a d73d 60d9 f33d c68f 56be
00000060: de8c 1dbe 6a3b 04be 2060 d1bc ac39 07be
00000070: 30d8 a0bc b80b c63d 9a41 123e b2c3 76be
00000080: e45e b83e 24e1 0fbe 965d 0dbe d20e 06be
00000090: 2d5b d8bd 457c 1d3e 170e ad3b 49b4 d0bd
000000a0: 5af3 57bc 4f00 063d bab0 1bbe e07e 053e
000000b0: 1818 0d3e 2ab6 013e 6efb 183e e14c d9bd
000000c0: e3a2 d53d 1d00 813e 224c 003e 616f ab3e
000000d0: 7269 cc3e 0a62 4b3b 13ae 83bd 768d 473e
000000e0: 3d4f 2b3e d0bf bd3e ead5 d5bd 86c6 78be
000000f0: 5aef 8e3e 7252 b83e cd97 1a3e 1e63 29bd

weight_ih_l1 f4 [64, 16]
0.077458106 -0.31670403 0.04375701 -0.11745759 -0.1185951 -0.11601954 -0.2151447 0.0038350895
0.049993113 -0.06700795 -0.09086097 0.032544225 -0.07844348 -0.11655002 -0.039881494 -0.022204086
0.09693593 0.1484748 -0.2529142 -0.28863493 0.0074353465 -0.1870113 0.20204191 0.22594021
-0.27989927 -0.037164703 -0.0100021865 -0.15738496 0.1011098 0.2219741 -0.021906769 0.1352227
-0.046093646 0.24882454 0.04640461 -0.29333976 0.16651432 -0.0674924 -0.077601686 -0.041411743
-0.10874632 0.17041141 -0.1544402 0.088635035 -0.25984672 0.027029982 -0.10583517 0.14730118
0.02807178 0.1865093 -0.1232477 -0.28391257 0.044461906 -0.028684948 0.1483456 -0.06276279
0.036600303 0.15537195 0.30208632 0.028231533 -0.085683264 0.13573778 0.21832815 0.07246712
-0.07717708 -0.25964573 0.033653047 0.09425343 -0.085357435 -0.15276188 0.2158499 0.32620767
0.2730066 -0.19899489 0.2275419 -0.12024501 0.28609 0.14402156 0.24591428 0.10131471
-0.10491108 0.12254217 0.31340662 -0.16586003 -0.017732099 0.07450888 -0.20805612 0.19994041
0.016865691 -0.14634031 -0.0436064 0.1333107 0.24262194 -0.07287482 0.24526559 0.15535754
0.15683784 -0.08210271 0.4651036 0.08484319 -0.0840454 0.16881627 -0.40846837 0.02180181
-0.09160391 -0.1867983 0.23291638 0.20784569 0.47579926 -0.05340188 -0.08968103 -0.025888314
-0.05164586 0.020262565 0.1324256 -0.18557692 0.13012806 -0.27037618 0.35272107 -0.2830284
-0.22695538 0.41827807 0.114827454 0.13537335 -0.12793751 -0.077397004 -0.033617016 0.01002376
0.6353275 -0.024861788 0.3025046 0.0124245845 0.22349477 0.01081916 0.10447358 0.25256816
-0.06191598 -0.27425826 0.2855077 -0.3999689 -0.03568858 -0.06761274 0.37328535 0.22477245
0.028203135 -0.02327564 -0.23422629 -0.2152573 0.23326302 -0.11405656 0.15359548 0.20438206
-0.17345887 0.12510568 0.3303304 -0.25676963 -0.11734013 -0.008388275 0.35314536 0.33137608
0.015604693 0.36848494 -0.00824603 -0.41807342 0.26973456 -0.15408741 0.3008718 0.19287382
-0.15086715 0.11112803 -0.016178565 -0.2626855 -0.07491026 0.40923232 0.18699665 0.2976028
0.33832037 0.18329425 -0.41981632 -0.08123738 0.10635082 -0.28103417 0.113937885 -0.16182207
-0.028131511 0.46849748 -0.14213046 -0.31706655 -0.23093319 0.29254165 0.36828813 0.026925903
0.23003341 0.15222247 -0.098240174 -0.21385206 0.18623567 -0.15258192 0.18080169 0.11968673
-0.2249561 0.39795962 -0.20781551 -0.31718692 -0.16855408 0.32700196 -0.065804996 0.03157992
0.14569312 0.3588617 -0.1858998 -0.3581137 -0.0285314 -0.25362906 0.03279325 0.09063292
-0.25342938 0.24304952 -0.116641894 -0.12691948 -0.20916224 0.32165918 0.293807 0.44738653
0.26881358 0.3441937 -0.33588672 -0.2544397 0.068491735 -0.40513274 0.24541159 0.1795516
-0.39794803 0.20078166 -0.1629031 0.059821215 -0.2967272 0.18110354 0.28400615 0.3375327
0.3474883 0.22662108 -0.12300588 -0.04036211 0.22232193 -0.11199696 0.30121505 0.02071568
-0.16003524 0.29200125 -0.1546469 -0.2698367 -0.23683493 -0.0773517 0.32144928 0.13886662
00000000: 5ba2 9e3d 0827 a2be 8d3a 333d 9b8d f0bd
00000010: fde1 f2bd a79b edbd e44e 5cbe 2056 7b3b
00000020: 94c5 4c3d 773b 89bd 5115 babd 184d 053d
00000030: faa6 a0bd c7b1 eebd c75a 23bd 58e5 b5bc
00000040: 5886 c63d c709 183e f87d 81be f5c7 93be
00000050: 35a4 f33b e47f 3fbe 13e4 4e3e df5c 673e
00000060: f54e 8fbe 043a 18bd 36e0 23bc 8629 21be
00000070: a812 cf3d 2e4d 633e d375 b3bc d277 0a3e
00000080: b1cc 3cbd dccb 7e3e c312 3e3d a130 96be
00000090: bb82 2a3e 7539 8abd a2ed 9ebd 5c9f 29bd
000000a0: 64b6 debd 5480 2e3e 9225 1ebe 4986 b53d
000000b0: a10a 85be fb6d dd3c 1cc0 d8bd 1fd6 163e
000000c0: caf6 e53c 4bfc 3e3e 4a69 fcbd fd5c 91be
000000d0: b01d 363d b2fc eabc e9e7 173e c789 80bd
000000e0: 33ea 153d d319 1f3e 0fab 9a3e d145 e73c
000000f0: b57a afbd d8fe 0a3e 6a91 5f3e a469 943d
00000100: 040f 9ebd 49f0 84be c7d7 093d f107 c13d
00000110: e1cf aebd 9c6d 1cbe c207 5d3e b104 a73e
00000120: 85c7 8b3e 51c5 4bbe be00 693e 0443 f6bd
00000130: 637a 923e 637a 133e f4d0 7b3e 167e cf3d
00000140: 9fdb d6bd 64f7 fa3d d576 a03e 36d7 29be
00000150: e842 91bc 1d98 983d aa0c 55be 2ebd 4c3e
00000160: eb29 8a3c 3cda 15be a09c 32bd 9a82 083e
00000170: e371 783e 653f 95bd e726 7b3e 0c16 1f3e
00000180: 199a 203e 7725 a8bd 0f22 ee3e 44c2 ad3d
00000190: ff1f acbd 2cde 2c3e c422 d1be b699 b23c
000001a0: d59a bbbd 0e48 3fbe a281 6e3e 80d5 543e
000001b0: f69b f33e eebb 5abd b0aa b7bd bb13 d4bc
000001c0: 9c8a 53bd aefd a53c 949a 073e e007 3ebe
000001d0: 4a40 053e bf6e 8abe db97 b43e 19e9 90be
000001e0: fe66 68be 8b28 d63e a82a eb3d 509f 0a3e
000001f0: 0d02 03be 5282 9ebd ffb1 09bd b23a 243c
00000200: d3a4 223f f3aa cbbc e2e1 9a3e 7c90 4b3c
00000210: d0db 643e d942 313c 3ff6 d53d 9d50 813e
00000220: 9c9b 7dbd 946b 8cbe 112e 923e b9c8 ccbe
00000230: 302e 12bd 8c78 8abd 421f bf3e c02a 663e
00000240: 430a e73c 8eac bebc 04d9 6fbe 696c 5cbe
00000250: 80dc 6e3e 7c96 e9bd 2248 1d3e 8849 513e
00000260: 349f 31be b41b 003e 1121 a93e 4f77 83be
00000270: 0650 f0bd fa6e 09bc 78cf b43e 20aa a93e
00000280: d4aa 7f3c 0faa bc3e 5b1a 07bc b80d d6be
00000290: a61a 8a3e 17c9 1dbe de0b 9a3e b780 453e
000002a0: eb7c 1abe 1897 e33d e988 84bc b77e 86be
000002b0: 8d6a 99bd e686 d13e 0d7c 3f3e 655f 983e
000002c0: 5438 ad3e 7db1 3b3e 2af2 d6be c95f a6bd
000002d0: 75ce d93d b6e3 8fbe 4458 e93d afb4 25be
000002e0: 0e74 e6bc e7de ef3e a68a 11be 8c56 a2be
000002f0: c079 6cbe 05c8 953e 4390 bc3e b693 dc3c
00000300: e18d 6b3e 35e0 1b3e 2532 c9bd 09fc 5abe
00000310: 90b4 3e3e 6f3e 1cbe 1424 393e 511e f53d
00000320: e45a 66be 5dc1 cb3e 97cd 54be 5366 a2be
00000330: 7199 2cbe cd6c a73e c5c4 86bd f259 013d
00000340: 9430 153e b9bc b73e 845c 3ebe ae5a b7be
00000350: afba e9bc abdb 81be 3752 063d c19d b93d
00000360: 7fc1 81be f9e1 783e f2e1 eebd 2ef7 01be
00000370: a02e 56be 83b0 a43e df6d 963e d90f e53e
00000380: efa1 893e 283a b03e 58f9 abbe ec45 82be
00000390: 6545 8c3d 8f6d cfbe 2d4d 7b3e 60dc 373e
000003a0: d8bf cbbe b599 4d3e 12d0 26be 1707 753d
000003b0: a1ec 97be 3573 393e 4169 913e 16d1 ac3e
000003c0: fde9 b13e 5b0f 683e 82ea fbbd bd52 25bd
000003d0: 5ca8 633e aa5e e5bd dc38 9a3e eeb3 a93c
000003e0: 47e0 23be 3081 953e c25b 1ebe 0928 8abe
000003f0: db84 72be 916a 9ebd 0095 a43e 0d33 0e3e

weight_hh_l1 f4 [64, 16]
0.14009857 -0.026204288 0.17371121 -0.08948457 0.0055568814 -0.15856147 0.043456465 0.06735185
0.04077348 -0.06520772 -0.07964373 0.09289968 -0.18397671 -0.12436965 0.04590702 -0.17538512
0.23392344 -0.05419621 0.13101557 0.09970051 0.24503633 0.039441496 -0.03501278 -0.0030581355
0.08256799 0.029003054 0.22601423 0.23826396 -0.050717384 -0.020387352 -0.12435305 0.22237608
0.1435175 -0.19111338 -0.2012484 -0.223609 0.2312775 -0.10882014 -0.0068608522 -0.2028192
-0.0759629 0.24642062 -0.2121653 -0.07507315 0.1750386 0.21139127 0.1993134 0.02207002
0.047908485 -0.117468566 -0.05375412 0.23060048 0.23113519 0.18016478 0.069892496 0.20690906
-0.2188547 -0.05386296 -0.22940552 -0.1391877 -0.21643525 -0.22380295 0.08300865 -0.078657806
0.102369815 0.14550373 -0.24146417 0.22374615 0.034006625 0.23817745 0.1356993 -0.07298607
0.05223027 -0.016582102 0.07193008 -0.1448834 -0.0014854372 0.07676819 -0.08676666 -0.060086608
0.20159751 0.24350297 0.071442515 -0.050000787 -0.15094995 -0.10112372 -0.13586268 -0.09433344
0.024795085 0.1880368 -0.13230252 -0.10268721 -0.08775076 0.12212396 -0.10693836 0.18235284
0.0080501735 -0.20844322 -0.12411919 -0.1136058 -0.071963966 0.15311942 0.100682914 -0.16819349
-0.048156083 0.055021524 0.032678097 -0.21465349 0.017063856 -0.032984853 0.05989793 -0.20167348
0.2020998 0.21902126 0.24960107 -0.055134386 -0.112440675 0.16238543 0.17774516 0.04637128
-0.19400558 0.01613304 -0.13553798 -0.19795445 0.068293095 -0.24505806 0.121255696 -0.089710206
0.0062212944 0.092618704 -0.048240125 0.024576187 -0.14747047 0.076204926 0.15513685 0.23591092
-0.17326301 -0.15206549 0.2055054 -0.13391766 -0.022213459 0.11968455 -0.061466545 0.18972307
0.24940032 0.23199615 0.08575687 0.2446658 0.019631863 0.10801932 0.08041561 0.21334511
-0.062639415 -0.1301558 0.18784547 0.065689415 0.035874873 0.056200475 -0.14996698 -0.07232812
-0.17330045 -0.13972431 -0.17670444 -0.18042815 -0.021188319 0.0046131313 -0.021351576 -0.12759736
-0.15533644 0.0632633 0.21647725 0.033041388 -0.16372105 0.2320145 -0.1723902 0.12269169
-0.06007126 -0.061673075 0.02829492 -0.02526161 0.20876262 -0.13381827 -0.17335221 -0.08758718
-0.10260239 -0.021726489 0.07773188 -0.17094156 -0.10735759 -0.008152753 -0.22140867 -0.055214167
-0.09243959 0.2428599 0.12174255 0.22748768 -0.124877155 0.06810483 -0.13735566 -0.090043664
-0.16553822 -0.008529365 -0.045220852 -0.027693242 0.20157453 0.012426853 0.08905992 -0.21832442
0.082443565 0.1373992 -0.116717964 0.12648198 -0.0734804 0.11553201 -0.0812937 -0.09964967
0.15824476 0.20556614 0.23101667 -0.038626432 0.083337694 0.060342878 0.010906786 -0.033461124
0.22999641 -0.19217777 -0.072823405 -0.21339503 -0.107631356 -0.2154412 0.16584483 -0.19719729
0.18175218 -0.026376218 -0.10783574 0.22466719 -0.1577461 -0.22508526 0.20223245 -0.17729801
-0.24503383 0.124896675 -0.00965333 0.07735902 0.21000189 0.1776782 0.0038794875 -0.03726983
0.11033225 0.050006777 -0.24193498 0.113046974 0.07542348 0.08424589 0.17596304 0.058047354
00000000: 0076 0f3e 60aa d6bc 5ae1 313e b043 b7bd
00000010: 8016 b63b f05d 22be 68ff 313d c4ef 893d
00000020: 1802 273d a08b 85bd 401c a3bd 3042 be3d
00000030: 6464 3cbe 84b5 febd 0009 3c3d 2898 33be
00000040: a089 6f3e d8fc 5dbd f228 063e c82f cc3d
00000050: ceea 7a3e 688d 213d 9069 0fbd 006b 48bb
00000060: 6819 a93d d097 ed3c 4670 673e 78fb 733e
00000070: 08bd 4fbd 6003 a7bc d0ac febd 8eb6 633e
00000080: 40f6 123e 3ab3 43be 1014 4ebe c2f9 64be
00000090: 02d4 6c3e 18dd debd 00d1 e0bb d6af 4fbe
000000a0: 7092 9bbd b055 7c3e dc41 59be f4bf 99bd
000000b0: 523d 333e f476 583e d018 4c3e 30cc b43c
000000c0: b03b 443d 5c93 f0bd 482d 5cbd 8822 6c3e
000000d0: b4ae 6c3e 1e7d 383e cc23 8f3d f8df 533e
000000e0: 721b 60be 689f 5cbd 48e9 6abe 3887 0ebe
000000f0: 34a1 5dbe 9a2c 65be 7000 aa3d 5817 a1bd
00000100: 44a7 d13d eefe 143e 6242 77be b61d 653e
00000110: 884a 0b3d cae4 733e c2f4 0a3e b879 95bd
00000120: 68ef 553d 30d7 87bc 1450 933d 505c 14be
00000130: 00b3 c2ba a438 9d3d b8b2 b1bd 601d 76bd
00000140: 946f 4e3e d858 793e 7450 923d a0cd 4cbd
00000150: a092 1abe f419 cfbd 961f 0bbe e431 c1bd
00000160: 101f cb3c b88c 403e 507a 07be ac4d d2bd
00000170: acb6 b3bd 201c fa3d 8002 dbbd b4ba 3a3e
00000180: e0e4 033c 2472 55be 3432 febd 28aa e8bd
00000190: d861 93bd 56cb 1c3e d832 ce3d ea3a 2cbe
000001a0: 503f 45bd 405e 613d 78d9 053d 20ce 5bbe
000001b0: 80c9 8b3c 201b 07bd 8857 753d 7e83 4ebe
000001c0: 40f3 4e3e 1c47 603e 6c97 7f3e 98d4 61bd
000001d0: 4c47 e6bd 5e48 263e d402 363e d0ef 3d3d
000001e0: 66a9 46be 7029 843c 78ca 0abe 92b4 4abe
000001f0: 40dd 8b3d 80f0 7abe e854 f83d fcb9 b7bd
00000200: 00dc cb3b e0ae bd3d 7097 45bd 0054 c93c
00000210: 8002 17be 5411 9c3d 32dc 1e3e a292 713e
00000220: dc6b 31be 0eb7 1bbe 0270 523e b621 09be
00000230: 00f9 b5bc 2c1d f53d 58c4 7bbd c446 423e
00000240: cc62 7f3e 6690 6d3e 4ca1 af3d ac89 7a3e
00000250: 00d3 a03c 3c39 dd3d f0b0 a43d 2477 5a3e
00000260: 1849 80bd 9047 05be 905a 403e 2c88 863d
00000270: 88f1 123d 7832 663d f290 19be c420 94bd
00000280: ac75 31be e413 0fbe 02f2 34be 28c2 38be
00000290: 2093 adbc c029 973b 80e9 aebc e2a8 02be
000002a0: 8410 1fbe 3090 813d 36ac 5d3e 6856 073d
000002b0: 7ea6 27be 3695 6d3e 0e87 30be c845 fb3d
000002c0: 480d 76bd e89c 7cbd c0ca e73c 70f1 cebc
000002d0: dec5 553e a807 09be 3e83 31be e860 b3bd
000002e0: 3421 d2bd c0fb b1bc e431 9f3d 4e0b 2fbe
000002f0: 4cde dbbd 2093 05bc f4b8 62be 4028 62bd
00000300: f850 bdbd 44b0 783e 2854 f93d 88f2 683e
00000310: 98bf ffbd 8c7a 8b3d f6a6 0cbe d068 b8bd
00000320: da82 29be c0be 0bbc 8039 39bd f0dc e2bc
00000330: 8e69 4e3e 009a 4b3c 0c65 b63d 7090 5fbe
00000340: 2cd8 a83d 60b2 0c3e d409 efbd 7e84 013e
00000350: e47c 96bd 0c9c ec3d 507d a6bd 2015 ccbd
00000360: ea0a 223e ee7f 523e a28f 6c3e c036 1ebd
00000370: f4ac aa3d 182a 773d 60b2 323c 880e 09bd
00000380: 2e84 6b3e 40ca 44be 7024 95bd 3a84 5abe
00000390: d46d dcbd 9e9c 5cbe 3ad3 293e 16ee 49be
000003a0: 3e1d 3a3e f012 d8bc fcd8 dcbd 280f 663e
000003b0: 3288 21be c07c 66be 0616 4f3e 9c8d 35be
000003c0: 26ea 7abe d4c9 ff3d 0029 1ebc 686e 9e3d
000003d0: bc0a 573e 46f1 353e 003f 7e3b 40a8 18bd
000003e0: e0f5 e13d e8d3 4c3d cebd 77be 2c85 e73d
000003f0: a077 9a3d 1c89 ac3d a82f 343e 10c3 6d3d

bias_ih_l1 f4 [64]
0.07302093 0.21997689 -0.13430303 0.066193305 -0.11489524 0.14432469 0.114496514 0.35256073
0.5327124 0.10686693 0.4458722 -0.014981353 0.09563784 -0.058345854 -0.048055023 -0.111430466
0.102550566 -0.12296048 0.03247249 0.16174054 0.23757365 -0.18298653 0.2046746 -0.18517932
0.11775294 -0.0020893514 0.05228159 0.093610555 -0.2310647 -0.1197969 0.031818658 0.05005133
-0.20126517 -0.02779538 -0.037645392 -0.1577752 0.27699313 0.022631947 -0.26018438 0.25239754
-0.08819606 -0.0902823 0.12489923 0.10259247 -0.16779988 0.0144818425 -0.1355893 -0.019934675
0.070931055 -0.14022201 0.10729974 -0.13966794 0.15666142 -0.04636932 0.22249982 0.336037
0.72102773 0.20271093 0.3475055 0.18988748 0.1240454 0.2378126 -0.010407614 -0.11719804
00000000: ff8b 953d 9f41 613e bc86 09be 5b90 873d
00000010: 324e ebbd dac9 133e 267d ea3d d782 b43e
00000020: d75f 083f 0ddd da3d 5c49 e43e 5974 75bc
00000030: c6dd c33d 10fc 6ebd 58d5 44bd a835 e4bd
00000040: 0806 d23d b4d2 fbbd e001 053d 509f 253e
00000050: 8246 733e d260 3bbe 3896 513e a69f 3dbe
00000060: 7428 f13d 80ed 08bb 3825 563d e4b6 bf3d
00000070: 3a9c 6cbe 1458 f5bd 4854 023d a002 4d3d
00000080: 7518 4ebe 23b3 e3bc 0e32 1abd d28f 21be
00000090: 0bd2 8d3e a266 b93c e336 85be 403a 813e
000000a0: 23a0 b4bd ede5 b8bd 2bcb ff3d 001c d23d
000000b0: bbd3 2bbe 4045 6d3c ecd7 0abe 0b4e a3bc
000000c0: 4d44 913d 5c96 0fbe f7bf db3d 1d05 0fbe
000000d0: da6b 203e c2ed 3dbd fed6 633e 0b0d ac3e
000000e0: 4695 383f 7493 4f3e 3eec b13e dd71 423e
000000f0: 840b fe3d 2585 733e b284 2abc 8705 f0bd

bias_hh_l1 f4 [64]
-0.15372209 0.12907463 0.2068032 -0.04870574 -0.09927666 0.040963076 0.27595845 0.2361606
0.4317499 0.43005452 0.27465588 0.3061547 0.061400115 0.3136977 0.07847867 0.17452654
-0.21596 -0.24949002 -0.19804016 0.14792362 0.027223319 -0.11003876 -0.020777225 0.092974156
-0.22211733 -0.11424574 -0.16005728 0.008446962 0.2009649 -0.21584588 -0.15303749 0.031173706
-0.073423 -0.069079064 -0.28217041 -0.22769207 0.13031794 0.21319413 -0.4075403 0.28158677
0.05163908 0.068582304 -0.13262762 0.21120949 -0.3312596 0.2461177 -0.17044765 -0.17096956
0.15150665 0.27205178 -0.060539633 0.2920185 0.33353516 0.30650127 0.21078464 0.020736443
0.75465184 0.05297447 0.45371723 0.28452867 0.33741963 0.009240173 0.34724957 -0.053952903
00000000: 5369 1dbe 242c 043e 38c4 533e ac7f 47bd
00000010: 9051 cbbd e6c8 273d 6d4a 8d3e 16d4 713e
00000020: 530e dd3e 1b30 dc3e b29f 8c3e 4fc0 9c3e
00000030: b07e 7b3d fc9c a03e 6db9 a03d 16b7 323e
00000040: 9e24 5dbe 507a 7fbe 0acb 4abe 4a79 173e
00000050: 7003 df3c 005c e1bd 0035 aabc 3c69 be3d
00000060: ba72 63be acf9 e9bd 0ee6 23be 2065 0a3c
00000070: bec9 4d3e b406 5dbe dcb5 1cbe 0060 ff3c
00000080: cc5e 96bd 5379 8dbd a478 90be 1c28 69be
00000090: 1172 053e 904f 5a3e 1fa9 d0be 242c 903e
000000a0: 8083 533d e174 8c3d 89cf 07be 4d47 583e
000000b0: dc9a a9be 4706 7c3e d489 2ebe a512 2fbe
000000c0: 8f24 1b3e 5f4a 8b3e 68f8 77bd 7383 953e
000000d0: 1fc5 aa3e bced 9c3e eed7 573e 79df a93c
000000e0: dd30 413f c2fb 583d a04d e83e bead 913e
000000f0: 44c2 ac3e 1864 173c b2ca b13e b8fd 5cbd

weight f4 [8, 1, 5]
-0.14565249 0.6966637 0.56518877 -0.4329198 0.5143334 0.6330441 -0.36927682 0.14925236
-0.07213737 0.18981686 0.5927513 0.2686995 0.060497653 0.602557 0.6927679 0.70184195
-0.8228643 -0.15366028 -0.63612574 -0.2165193 0.66239923 0.16029839 -0.5963125 0.38833693
-0.4013903 0.20877472 0.2168937 0.3188734 0.1803029 0.5442846 0.7210325 0.5958567
-0.2314429 0.52713174 -0.577918 -0.039998066 -0.14729723 0.5180966 0.48154828 -0.23875414
00000000: ed25 15be 8d58 323f 36b0 103f aaa7 ddbe
00000010: 5bab 033f 2e0f 223f da11 bdbe 9cd5 183e
00000020: c2bc 93bd 5a5f 423e 8dbe 173f fb92 893e
00000030: 63cc 773d 2d41 1a3f 3d59 313f eaab 333f
00000040: 3ca7 52bf 1f59 1dbe 23d9 22bf 3cb7 5dbe
00000050: ff92 293f 4325 243e f0a7 18bf 19d4 c63e
00000060: 0883 cdbe 0ac9 553e 6219 5e3e 6043 a33e
00000070: 53a1 383e 3c56 0b3f 9695 383f 118a 183f
00000080: 5eff 6cbe 1bf2 063f 6ff2 13bf 03d5 23bd
00000090: 16d5 16be fba1 043f 7f8d f63e f77b 74be

bias f4 [8]
0.10897907 0.24091095 0.17144196 0.17311738 0.32872224 -0.09778669 0.02957778 0.183052
00000000: 6b30 df3d 5cb1 763e 7b8e 2f3e af45 313e
00000010: 484e a83e 6344 c8bd 1a4d f23c fc71 3b3e

weight f4 [32, 1120]
0.02443108 -0.082252815 -0.054159753 0.05526221 -0.010350941 -0.045832753 -0.03999182 0.015403628
-0.036877606 -0.0048272368 0.0321396 -0.021946741 -0.03488994 0.06956269 -0.04127667 -0.05250829
0.044306763 -0.029561013 0.025432462 0.0089011965 0.027631754 0.0016219334 0.006438284 0.02732615
0.048918966 -0.0020988605 -0.015436393 -0.049005557 -0.007657858 0.030955164 0.032393083 0.020705344
-0.0071585164 0.01972001 0.005277861 0.038645733 -0.007574871 0.034771442 -0.018647637 0.034929886
-0.014071312 -0.016058631 -0.016890349 -0.022729212 0.021106875 0.037097637 0.016719252 -0.029095836
-0.0055928538 0.02143746 -0.0008937836 -0.011591753 -0.004427844 -0.02394307 0.022976732 0.007187383
-0.0102178985 0.027072499 -0.027709045 0.010263317 -0.02948642 0.0019376669 -0.022378387 -0.018648049
-0.003912517 -0.015412958 -0.023844952 -0.021149175 -0.014831917 0.010946246 0.023918368 -0.014499976
0.007310643 0.0123281535 0.012976722 -0.022183497 0.0042366837 -0.024293039 0.027581383 -0.023090387
-0.016789947 0.014386178 0.0020401883 -0.024257908 0.021270992 0.027699187 -0.017466862 -0.01278388
0.026362602 -0.013187113 -0.009473174 -0.010827881 0.0044399495 0.014402241 -0.0075079394 -0.011941818
-0.003973625 -0.02226276 -0.026148438 -0.0019376383 -0.024436414 0.009168003 0.009378526 -0.015731579
-0.00032787476 0.019607117 -0.01415829 -0.007960586 -0.0065229707 -0.0007525964 -0.009290215 0.013173874
-0.0039017238 0.0032090868 0.010141137 0.015511144 -0.028781332 -0.015058874 -0.018950528 0.030787837
-0.0092154555 -0.017248042 -0.013550764 -0.022172969 -0.017185003 0.01459373 -0.017938873 -0.008756521
-0.015330337 -0.027345007 -0.020552758 0.016110037 -0.018081158 -0.0027501564 0.0023111466 0.0155667495
-0.0027464232 -0.02264559 0.0071270284 -0.0036268495 0.008044631 0.032741107 -0.06608239 -0.023094686
0.016039098 0.0061741713 0.005294911 -0.012826468 -0.012621136 -0.04545588 -0.002663846 0.026280072
0.011828032 -0.0020957012 0.021456065 -0.0124208005 -0.002014203 0.0012421104 0.015914561 -0.013404769
0.0007381053 0.022808583 0.018137056 -0.010189689 -0.0030791364 -0.0072448174 0.028138617 -0.01967654
-0.042741142 -0.031525213 0.020056333 -0.0035821537 0.02652357 0.032916736 0.004752169 0.007951218
0.027890239 0.038115546 -0.0052203867 -0.013464551 -0.015353547 0.021157034 0.0032709409 0.028418465
-0.008757718 0.010591515 0.006142724 -0.00066338206 -0.022771996 0.009613463 -0.0097342795 0.013703055
0.024071896 0.02611338 0.007206541 0.007555157 0.022072531 -0.00933638 -0.010649587 -0.007294585
0.019684583 0.008104748 0.028740305 0.023921976 -0.011538933 -0.0043557244 0.020237591 0.011867461
-0.01237758 0.022808833 -0.017153144 0.025876125 0.017407604 -0.0013418475 0.010247403 -0.015340114
0.010600165 -0.012333467 -0.008151966 -0.018259281 -0.004093047 -0.016182194 -0.00130247 0.009709663
0.018355561 -0.029187817 0.024725277 0.008168259 -0.010116044 0.00013027403 0.004385927 0.008265019
-0.026234442 0.008235606 0.018923972 -0.019354755 0.027563872 0.0029827312 0.005376124 -0.011201878
-0.020859247 -0.014831833 -0.015436378 0.0147618335 -0.008525994 -0.011368241 0.030970072 0.030080799
-0.01333008 -0.027533647 0.0066115838 -0.016045159 0.005434095 0.010804532 -0.0022822523 0.025286656
00000000: b023 c83c 2a74 a8bd 9ed6 5dbd a15a 623d
00000010: fe96 29bc 20bb 3bbd 76ce 23bd 805f 7c3c
00000020: f90c 17bd cc2d 9ebb d0a4 033d a7c9 b3bc
00000030: c1e8 0ebd e276 8e3d ba11 29bd ef12 57bd
00000040: 027b 353d f029 f2bc bd57 d03c 53d6 113c
00000050: fd5b e23c 0e97 d43a 3ef8 d23b 17db df3c
00000060: 415f 483d 098d 09bb ede8 7cbc 0dba 48bd
00000070: c5ee fabb af95 fd3c 9cae 043d 419e a93c
00000080: fd91 eabb dc8b a13c e8f1 ac3b fd4a 1e3d
00000090: a036 f8bb 806c 0e3d eec2 98bc a412 0f3d
000000a0: 5c8b 66bc 648d 83bc a15d 8abc 9d32 babc
000000b0: 53e8 ac3c b1f3 173d d0f6 883c 645a eebc
000000c0: 4244 b7bb 9d9d af3c cd4c 6aba 56eb 3dbc
000000d0: 7317 91bb 4224 c4bc b339 bc3c 2384 eb3b
000000e0: f968 27bc 25c7 dd3c 14fe e2bc 7927 283c
000000f0: 818d f1bc 50f9 fd3a e152 b7bc cbc3 98bc
00000100: 9234 80bb a286 7cbc 7d56 c3bc 0941 adbc
00000110: 9201 73bc e257 333c 74f0 c33c 4f91 6dbc
00000120: 1e8e ef3b 06fc 493c 519c 543c 2aba b5bc
00000130: e1d3 8a3b 3202 c7bc 5af2 e13c 0d28 bdbc
00000140: 128b 89bc 01b4 6b3c aeb4 053b 85b8 c6bc
00000150: 8140 ae3c 68e9 e23c aa16 8fbc 7b73 51bc
00000160: 62f6 d73c c30e 58bc 5f35 1bbc 6d67 31bc
00000170: ff7c 913b 61f7 6b3c 2905 f6bb 9da7 43bc
00000180: 2f35 82bb 6460 b6bc 4035 d6bc 5af8 fdba
00000190: e02e c8bc 6435 163c 64a8 193c 83df 80bc
000001a0: 9be6 abb9 1b9f a03c 2cf8 67bc 1e6d 02bc
000001b0: a5be d5bb e449 45ba fc35 18bc 3bd7 573c
000001c0: 10b4 7fbb 8b4f 523b 0327 263c 7422 7e3c
000001d0: d4c6 ebbc 7fb9 76bc 233e 9bbc c636 fc3c
000001e0: 6cfc 16bc c44b 8dbc 0604 5ebc 16a4 b5bc
000001f0: 90c7 8cbc 8a1a 6f3c 8bf4 92bc 8377 0fbc
00000200: 182c 7bbc a302 e0bc 425e a8bc 32f9 833c
00000210: f01e 94bc f83b 34bb 9b76 173b ae0b 7f3c
00000220: 56fd 33bb 3f83 b9bc d989 e93b 70b0 6dbb
00000230: a1cd 033c 8a1b 063d 3456 87bd 1131 bdbc
00000240: 6d64 833c b450 ca3b ef80 ad3b 1b26 52bc
00000250: e2c8 4ebc f22f 3abd eb93 2ebb 4e49 d73c
00000260: 5dca 413c 0858 09bb a1c4 af3c 9d80 4bbc
00000270: b800 04bb 4fce a23a 415f 823c ad9f 5bbc
00000280: 687d 413a 11d9 ba3c 2a94 943c a7f2 26bc
00000290: 56cb 49bb ef65 edbb f582 e63c b230 a1bc
000002a0: 5611 2fbd 9520 01bd 2e4d a43c 91c2 6abb
000002b0: f547 d93c b3d3 063d 15b8 9b3b d345 023c
000002c0: 127a e43c 0c1f 1c3d c70f abbb 6c9a 5cbc
000002d0: 728d 7bbc 8451 ad3c 485d 563b d7cd e83c
000002e0: 887c 0fbc 0988 2d3c e748 c93b d1e6 2dba
000002f0: 568c babc c981 1d3c 877c 1fbc c782 603c
00000300: 6d32 c53c baeb d53c d924 ec3b 4091 f73b
00000310: 74d1 b43c 9ef7 18bc 9b7b 2ebc 6a07 efbb
00000320: 9041 a13c c7c9 043c ca70 eb3c 05f8 c33c
00000330: cb0d 3dbc 77ba 8ebb 4ec9 a53c bd6f 423c
00000340: 55cb 4abc 97d9 ba3c c084 8cbc 2bfa d33c
00000350: 649a 8e3c eee0 afba b9e4 273c 1a55 7bbc
00000360: 51ac 2d3c 4f12 4abc d38f 05bc 7d94 95bc
00000370: f81e 86bb 8590 84bc a4b7 aaba 4715 1f3c
00000380: 675e 963c 4a1b efbc aa8c ca3c 29d4 053c
00000390: c4bd 25bc 2b9a 0839 d3b7 8f3b 016a 073c
000003a0: 9de9 d6bc a3ee 063c 7206 9b3c dd8d 9ebc
000003b0: a1cd e13c ed79 433b 322a b03b 1588 37bc
000003c0: 03e1 aabc 3701 73bc dde8 7cbc 9edb 713c
000003d0: 9cb0 0bbc dc41 3abc f3b4 fd3c 026c f63c
000003e0: 6866 5abc 3e8e e1bc fca5 d83b 2371 83bc
000003f0: 7e10 b23b 7e05 313c d791 15bb f625 cf3c

bias f4 [32]
-0.01772868 0.027613292 0.0189312 0.014409702 0.024191258 -0.0036773407 -0.007524764 -0.014738471
-0.00020206552 0.023102283 -0.028521009 0.025153277 0.009509014 0.024538456 -0.026605505 0.017070577
-0.029547358 -0.0020210426 0.027403299 0.010681517 -0.023486845 -0.028672066 -0.020118097 -0.0230108
-0.0050108326 0.0028671147 -0.007178254 0.014108463 0.015578247 -0.01668389 0.029516289 0.012596451
00000000: bd3b 91bc 4535 e23c 9b15 9b3c ac16 6c3c
00000010: bf2c c63c 8aff 70bb 4c92 f6bb a179 71bc
00000020: 8de1 53b9 0041 bd3c e4a4 e9bc 3f0e ce3c
00000030: b2cb 1b3c df04 c93c caf3 d9bc 98d7 8b3c
00000040: 4d0d f2bc 7873 04bb e27c e03c 8801 2f3c
00000050: 7c67 c0bc aee1 eabc b5ce a4bc 2581 bcbc
00000060: e931 a4bb 34e6 3b3b 8f37 ebbb 2f27 673c
00000070: e73b 7f3c a7ac 88bc 25cc f13c 5861 4e3c
