saved_models/rnn.pth (torch_old, 319828 bytes, 15 tensors)

weight f4 [4927, 10]
0	0xbf7a8df8	-0.9787288
1	0xbe539205	-0.20661171
2	0x3ec5946e	0.38589805
3	0xbd1706c7	-0.036871698
4	0xbe3df533	-0.18550567
5	0xbef3bcf7	-0.47605106
6	0xbe17440c	-0.14772052
7	0x3dcd0284	0.100102454
8	0xbf1fe22d	-0.6245449
9	0x3dd6b5ef	0.1048392
10	0xbfa99412	-1.3248312
11	0xbeccaa9d	-0.39973918
12	0x3e3879ad	0.18015166
13	0xbe31d36c	-0.17365807
14	0xbe8558ce	-0.26044315
15	0xbf64f657	-0.89438385
16	0xbf615545	-0.88020736
17	0x3f079b58	0.5297141
18	0xbf331987	-0.69960827
19	0x3f0f3c3e	0.559513
20	0xbeb28216	-0.34864873
21	0x3e45e06d	0.19323893
22	0x3f2dc51e	0.678789
23	0x3ec85169	0.3912461
24	0x3e8ecf6d	0.27892628
25	0x3e230dc6	0.15923223
26	0xbe777720	-0.24166536
27	0x3e17a46f	0.1480882
28	0x3eec809f	0.4619188
29	0xbd88adc8	-0.06673771
30	0xbf5d03fb	-0.863342
31	0xbec40b09	-0.3828967
32	0xbe037dc3	-0.12840943
33	0x3e53acc7	0.20671378
34	0x3f571e3a	0.840305
35	0x3e6ac4d8	0.22926652
36	0xbe8beb2c	-0.2732786
37	0x3e4ee498	0.20204389
38	0xbf0256da	-0.50913775
39	0xbd8b8f3f	-0.068144314
40	0xbf045f44	-0.51707864
41	0xbdfa6172	-0.122256175
42	0x3f2cb868	0.6746888
43	0x3ebd547b	0.36978516
44	0xbdacc180	-0.08435345
45	0xbe10e3a2	-0.14149335
46	0xbef1eace	-0.47249454
47	0xbdb14268	-0.08655244
48	0x3f355d27	0.70845264
49	0x3d2c1799	0.042014692
50	0xbe78ebc4	-0.24308687
51	0xbe01091c	-0.12601131
52	0xbd9311ac	-0.07181105
53	0x3f099100	0.5373688
54	0x3ed9663c	0.4246081
55	0xbe543b79	-0.20725812
56	0xbed783b5	-0.42092672
57	0xbe58c53d	-0.2116899
58	0x3f1899cc	0.59609675
59	0x3d65f801	0.056144718
60	0xbef62d04	-0.4808122
61	0x3f85e4aa	1.0460408
62	0x3daf5226	0.085605904
63	0x3f7423f7	0.9536738
64	0x3ee801ee	0.45313972
65	0xbf494f91	-0.78637034
66	0x3eb3af58	0.35094714
67	0xbf49f7fb	-0.78894013
68	0xbe8036f7	-0.25041935
69	0x3eb31293	0.34975109
70	0xbf0d376c	-0.5516269
71	0x3eb102da	0.34572488
72	0x3e3e1ed5	0.18566449
73	0xbd0f04f6	-0.03491684
74	0x3e9dd2e4	0.3082496
75	0x3e62feb5	0.22167476
76	0xbdc71477	-0.097207
77	0xbf19211d	-0.5981615
78	0x3ea27314	0.31728423
79	0xbf21ceca	-0.6320616
80	0xbe4870d8	-0.19574296
81	0x3db82562	0.08991505
82	0x3d54d3ea	0.05195991
83	0x3f60cbfe	0.8781127
84	0x3ef4cbd7	0.47811767
85	0xbf0c5ef3	-0.5483238
86	0xbe01085a	-0.12600842
87	0xbf906cc7	-1.1283196
88	0xbdd05a09	-0.10173423
89	0x3e38a841	0.18032934
90	0xbe9a79a4	-0.3017093
91	0xbea4c017	-0.32177803
92	0x3ed209b5	0.4102303
93	0x3e9a9636	0.30192727
94	0x3f368290	0.7129297
95	0xbe0f363d	-0.13985534
96	0x3e38c1ad	0.18042631
97	0xbf26caa8	-0.6515298
98	0x3e59c304	0.21265799
99	0x3e461479	0.19343747
100	0xbf8b177d	-1.0866543
101	0x3f3cd03e	0.7375525
102	0xbefd4114	-0.49463713
103	0x3f86f23c	1.0542674
104	0x3e2af509	0.16695036
105	0xbf01ff0a	-0.50779784
106	0x3eb3814d	0.35059586
107	0xbdca4d9b	-0.09878083
108	0xbdc92d48	-0.0982309
109	0x3f0a405a	0.5400444
110	0xbe3e763b	-0.18599789
111	0x3f836bdf	1.0267295
112	0x3f058b69	0.5216585
113	0x3f5309da	0.8243691
114	0x3f826b93	1.0189079
115	0x3f1eac41	0.6198159
116	0x3f3dd083	0.7414629
117	0x3d9ae85c	0.0756385
118	0x3f221210	0.6330881
119	0xbf12730d	-0.57206804
120	0xbed6cb32	-0.419519
121	0x3e5354bd	0.20637794
122	0x3ee11037	0.43957683
123	0x3eba66bf	0.36406514
124	0x3e8901a4	0.26759064
125	0x3db2f8f1	0.08738888
126	0xbe979bf7	-0.2961118
127	0x3d280b20	0.041026235
128	0xbe5549d3	-0.20828943
129	0xbe16e59f	-0.14736031
130	0xbf890294	-1.0703912
131	0xbf134f9f	-0.5754337
132	0x3c993e06	0.018706333
133	0x3e187617	0.14888798
134	0x3cf0be4a	0.029387612
135	0xbe8defd5	-0.2772204
136	0xbe752d47	-0.23943053
137	0x3ea6a532	0.3254791
138	0xbebb1443	-0.36538896
139	0xbc12e587	-0.008965856
140	0x3c04a582	0.008096101
141	0xbd3baea3	-0.045820843
142	0x3e97b1d5	0.29627863
143	0x3f5c5cbc	0.86079
144	0x3e8ea5c8	0.27860856
145	0xbecdfa87	-0.402302
146	0xbea79100	-0.32727814
147	0xbf512aa9	-0.8170572
148	0x3ec1cef7	0.37853214
149	0xbec0b4e8	-0.3763802
150	0xbf822221	-1.0166665
151	0xbe593bc4	-0.21214205
152	0xbea96563	-0.33085164
153	0x3eb01912	0.34394127
154	0xbd353056	-0.04423555
155	0xbf7324cf	-0.9497804
156	0xbefa1f47	-0.48851988
157	0xbe3146d5	-0.17312177
158	0x3f036971	0.51332766
159	0x3f152307	0.5825657
160	0xbf19ee59	-0.60129315
161	0x3f2e55bf	0.6809959
162	0xbcb41ae5	-0.02198548
163	0xbd13cb79	-0.03608272
164	0x3f57fbf3	0.8436882
165	0x3d62e0aa	0.055390038
166	0x3dba092a	0.09083779
167	0x3e0b28c6	0.13589773
168	0x3ea30ccb	0.31845698
169	0xbda21089	-0.0791331
170	0xbeb034bd	-0.34415236
171	0x3f1a3b08	0.60246325
172	0xbf0ab772	-0.54186165
173	0x3f777cf4	0.9667504
174	0x3f47f076	0.7810129
175	0xbf4bb600	-0.79574585
176	0xbe689c76	-0.22715935
177	0xbd9cb324	-0.07651356
178	0x3fc5bd57	1.5448407
179	0x3e14850d	0.1450388
180	0xbf7bd499	-0.98371273
181	0x3f117f1d	0.56834584
182	0x3e7ccaa2	0.24686673
183	0xbf0116ba	-0.50425303
184	0x3e9f8b33	0.31160888
185	0xbe7d657f	-0.24745749
186	0xbe6c71d8	-0.23090303
187	0xbdd37051	-0.10324157
188	0xbd6db9ba	-0.05803845
189	0xbcd8770a	-0.02642395
190	0x3df5dbc0	0.120048046
191	0xbe8bddba	-0.273176
192	0x3ee0e776	0.4392659
193	0x3f77a418	0.9673476
194	0x3faa8b57	1.3323773
195	0xbf9ac626	-1.209172
196	0x3e227b2c	0.15867299
197	0xbf612dfe	-0.87960804
198	0x3eaad383	0.33364496
199	0xbc089734	-0.008336831
200	0xbfbf9d72	-1.4969923
201	0xbe9cb1ac	-0.30604303
202	0xbef6485c	-0.4810208
203	0x3f8b5438	1.0885077
204	0x3e4c2d1a	0.1993908
205	0x3e81c6f4	0.25347102
206	0x3e574db1	0.2102573
207	0xbe214786	-0.1574994
208	0xbf280eef	-0.65647787
209	0xbded412a	-0.11584695
210	0x3d351ca1	0.044216756
211	0xbe847b1f	-0.25875184
212	0x397b735e	0.00023980203
213	0x3f866298	1.0498838
214	0x3f50ebd6	0.8160986
215	0xbf76e99b	-0.96450204
216	0xbed58f77	-0.41711017
217	0xbf2d4edb	-0.6769845
218	0x3e4522ac	0.19251508
219	0xbdaf94cf	-0.08573305
220	0xbf54a528	-0.8306451
221	0xbe6d7dc3	-0.23192506
222	0x3f42983c	0.7601354
223	0xbe578209	-0.21045698
224	0x3e15241b	0.14564554
225	0xbeaa7c2c	-0.3329786
226	0xbf9b4b8a	-1.2132428
227	0xbf43245f	-0.7622737
228	0xbf0287d0	-0.50988483
229	0x3c65183b	0.013982828
230	0xbf754163	-0.958029
231	0x3f2daff9	0.6784664
232	0x3c94a7f5	0.018146494
233	0x3d1f73e5	0.038928885
234	0x3e21aaa9	0.15787758
235	0xbc9878ec	-0.018612348
236	0xbe45b1fa	-0.19306174
237	0xbee89f0a	-0.45433837
238	0x3e99bcd6	0.30026883
239	0x3e9592d9	0.29213598
240	0xbf414d8c	-0.7550895
241	0x3e38a287	0.1803075
242	0xbedb9f68	-0.42895055
243	0x3f44ce93	0.7687771
244	0x3f2139d1	0.62978846
245	0x3f3dd917	0.7415938
246	0xbf5b3d1e	-0.8564013
247	0xbd8db2b9	-0.06918854
248	0x3e8cef2d	0.27526227
249	0xbf289c97	-0.6586394
250	0xbf4cf8bc	-0.8006704
251	0xbf4c2dad	-0.79757196
252	0x3d3e0652	0.046392746
253	0x3f67ce4a	0.9054915
254	0x3f294c7b	0.66132325
255	0x3e6fd794	0.2342208

weight_ih_l0 f4 [48, 10]
0	0xbe8d7360	-0.27627087
1	0x3dc13916	0.094347164
2	0xbd9f0ec5	-0.07766489
3	0x3e478416	0.1948398
4	0xbe894486	-0.26810092
5	0x3d12911a	0.03578291
6	0xbe1430c4	-0.14471728
7	0x3e6b6326	0.22987041
8	0xbe7ee356	-0.2489141
9	0xbe19f264	-0.15033871
10	0xbde4de6c	-0.11175236
11	0xbc30f6fd	-0.010801074
12	0x3d8d5f38	0.06902927
13	0x3e740557	0.23830162
14	0x3e80ee5e	0.2518186
15	0xbd05d980	-0.032678127
16	0xbe79437a	-0.24342147
17	0x3e4a07fc	0.19729608
18	0xbeaf06b5	-0.34184805
19	0x3e1346f5	0.14382537
20	0xbe8257d9	-0.25457647
21	0x3e00c2d4	0.12574321
22	0x3db24f40	0.08706522
23	0xbe2729fa	-0.16324607
24	0x3e6db260	0.23212576
25	0x3e85ed20	0.26157475
26	0x3d89bdba	0.067256406
27	0x3d470ae8	0.048594385
28	0x3d9cc988	0.076556265
29	0xbbd6cadb	-0.006554944
30	0xbe2f6d06	-0.17131433
31	0x3c8824ff	0.016619204
32	0xbdc2d537	-0.09513324
33	0xbe6bfd09	-0.23045744
34	0xbcb8a301	-0.022538664
35	0xbe5bf015	-0.21478303
36	0x3bdbaa88	0.0067036785
37	0x3d971d9c	0.073786944
38	0xbde7eb8d	-0.113242246
39	0x3ddd7c91	0.10814775
40	0x3c67e334	0.014153291
41	0xbddacdd6	-0.10683791
42	0xbe127de9	-0.14305843
43	0xbe371b13	-0.17881422
44	0xbe7aca0a	-0.24491134
45	0x3e0ad076	0.13556084
46	0xbe3310b4	-0.1748684
47	0x3e91412a	0.2837003
48	0x3dc3b7e4	0.09556559
49	0x3e60a61c	0.21938366
50	0x3e582016	0.2110599
51	0x3c9942c6	0.018708598
52	0x3e161861	0.14657737
53	0x3e55b65a	0.20870343
54	0x3e34d57f	0.17659567
55	0xbe2af0cb	-0.16693418
56	0x3d5ab4ef	0.053395208
57	0xbe48af7a	-0.19598189
58	0x3e11d088	0.14239705
59	0x3dbd40f4	0.092409045
60	0xbd971c1a	-0.07378407
61	0xbdeedce3	-0.116632245
62	0x3e459642	0.192956
63	0x3e13c8a7	0.14432012
64	0x3df53be0	0.11974311
65	0x3e4be7d1	0.1991265
66	0xbe5841d9	-0.21118869
67	0x3e5ba510	0.21449685
68	0x3ca16c89	0.019705074
69	0x3e2056b7	0.15658079
70	0x3e902007	0.28149435
71	0xbd1aaed5	-0.03776439
72	0x3c78a096	0.015175005
73	0xbe5d02c1	-0.21583082
74	0xbdb064fa	-0.0861301
75	0xbe108bfc	-0.141159
76	0x3ea7a630	0.32743979
77	0xbdbb9b01	-0.09160424
78	0x3e55c7fe	0.20877072
79	0x3dd1b009	0.10238654
80	0x3e42d0f9	0.19025029
81	0xbe44d975	-0.19223578
82	0xbe4cd0d0	-0.2000153
83	0x3df2ed5a	0.118616775
84	0x3ca887e7	0.020572616
85	0x3d04844b	0.032352727
86	0xbeafbb61	-0.34322646
87	0x3e1a02be	0.15040109
88	0x3c264e59	0.0101505155
89	0x3e96ac44	0.29428303
90	0xbe1b929e	-0.15192649
91	0xbe351ee2	-0.17687562
92	0x3e951de3	0.29124364
93	0x3e824984	0.25446713
94	0xbd194853	-0.03742249
95	0xbcb0ee49	-0.021597998
96	0x3e209ade	0.15684077
97	0x3c25b81a	0.010114694
98	0xbe289fe6	-0.16467246
99	0x3e02401b	0.12719767
100	0xbde1b09b	-0.11020013
101	0xbe51dac3	-0.20493607
102	0x3e4609c0	0.19339657
103	0xbcb4ac37	-0.022054775
104	0xbacca766	-0.0015613853
105	0x3d9bcf96	0.07607953
106	0xbdc4d474	-0.09610835
107	0x3da57b93	0.080802105
108	0xbe299890	-0.16562104
109	0x3e0b4111	0.1359904
110	0x3e5d5566	0.21614608
111	0xbd259621	-0.040426377
112	0xbddf71e5	-0.109103955
113	0x3e7dd9bd	0.24790092
114	0x3c347a0a	0.0110154245
115	0x3e9203cd	0.28518525
116	0x3eb8bcb1	0.3608146
117	0xbcae8b6c	-0.021306716
118	0x3eace146	0.3376562
119	0xbe26b8fc	-0.16281503
120	0x3e62bf6b	0.22143333
121	0x3cb36928	0.021900728
122	0xbe835859	-0.2565334
123	0x3d3206f0	0.043463647
124	0xbdc009ae	-0.09376846
125	0xbe1c97a0	-0.15292215
126	0xbd036a06	-0.032083534
127	0x3dd0a21f	0.10187172
128	0x3d138743	0.036017668
129	0xbe88594f	-0.26630637
130	0x3e100667	0.14064942
131	0xbe02c151	-0.12769057
132	0xbe32b0e7	-0.17450295
133	0x3dc4e6ae	0.09614311
134	0x3e126f80	0.14300346
135	0x3e9c194d	0.30488053
136	0xbdba96ab	-0.09110769
137	0xbe6c7cea	-0.23094526
138	0xbd7aa2f2	-0.061190553
139	0x3d817b1c	0.063223094
140	0xbe42e62c	-0.19033116
141	0xbdbb005a	-0.091309264
142	0x3e191be2	0.14952043
143	0xbdd581ea	-0.1042517
144	0xbe11834f	-0.14210247
145	0xbe92ac24	-0.28646958
146	0xbd3f2889	-0.046669517
147	0xbe32e7c8	-0.1747123
148	0xbdda7c20	-0.10668206
149	0x3e8242bf	0.25441548
150	0x3e1fc8cd	0.15603943
151	0x3e1032a4	0.14081818
152	0x3e1899b9	0.1490239
153	0xbdfbaa61	-0.122883566
154	0xbe6f09fb	-0.23343651
155	0x3d2c48ec	0.04206173
156	0xba6441d4	-0.0008707319
157	0xbe7b739c	-0.2455582
158	0x3d944935	0.07240526
159	0xbe0bd666	-0.13656005
160	0x3e87a1ed	0.26490727
161	0xbd72f6cd	-0.0593174
162	0x3d16bb81	0.03679991
163	0xbd8fe46f	-0.07025992
164	0xbe5cdd75	-0.21568854
165	0xbe666b07	-0.22501765
166	0xbd851690	-0.06498444
167	0x3d6f590a	0.058434524
168	0xbe6e8399	-0.23292388
169	0x3ceedde5	0.029158542
170	0xbe2ac970	-0.16678405
171	0xbd61cd88	-0.05512765
172	0x3e64a0ea	0.22327009
173	0x3d7bb01e	0.061447255
174	0x3dcefec4	0.101071864
175	0x3ea99126	0.33118552
176	0xbcee50e8	-0.029091313
177	0x3e1e67bf	0.15469263
178	0x3dec86d8	0.11549157
179	0xbe9e810f	-0.3095784
180	0x3d462d65	0.048383135
181	0xbe43321b	-0.19062082
182	0xbdd57db6	-0.10424368
183	0xbe664e8b	-0.224909
184	0xbd9172a1	-0.07101942
185	0x3df8a082	0.121399894
186	0xbe978043	-0.29590043
187	0x3e5c691f	0.21524476
188	0xbe7959ea	-0.24350706
189	0x3e6651cb	0.22492139
190	0xbd6834e1	-0.056691054
191	0x3dee3b8d	0.11632452
192	0x3d79407d	0.060852516
193	0x3dabb8d5	0.08384863
194	0x3d9d71d7	0.07687729
195	0x3d8c94d2	0.06864323
196	0xbdd1c845	-0.102432765
197	0x3c19cfb1	0.009387896
198	0x3d5a3ce4	0.053280726
199	0x3c1abacf	0.009443953
200	0x3cbb3089	0.022850292
201	0x3e14fdbd	0.14549918
202	0xbd18ed68	-0.037335783
203	0x3e18c232	0.1491783
204	0xbe935333	-0.28774413
205	0x3e5f5931	0.21811368
206	0x3d725fae	0.05917328
207	0x3d03d28d	0.03218322
208	0x3cde6314	0.027146854
209	0x3cd27f0a	0.025695343
210	0x3e9eaa19	0.3098915
211	0xbe1859ae	-0.1487796
212	0xbedac8d7	-0.42731354
213	0xbda191ff	-0.07889175
214	0xbe7e7cf5	-0.24852355
215	0x3d32629f	0.043551084
216	0x3e07b925	0.13254221
217	0xbe2b1f48	-0.16711152
218	0x3dee6a33	0.1164135
219	0x3e5b9862	0.21444848
220	0xbe42b50b	-0.19014375
221	0xbe770608	-0.24123394
222	0x3daf65f1	0.08564366
223	0x3d893f15	0.06701485
224	0x3e353fa3	0.17700057
225	0xbb7eb034	-0.003886235
226	0xbe077ad2	-0.13230446
227	0x3e13e53a	0.14442912
228	0x3e38b614	0.18038207
229	0x3e5581f5	0.20850356
230	0xbe19ddae	-0.1502597
231	0x3e3066ab	0.17226665
232	0x3e72fd70	0.23729491
233	0xbeac8751	-0.33696988
234	0xbe0555c5	-0.13021
235	0xbe81d371	-0.2535663
236	0xbe82d8df	-0.25556085
237	0x3c4e9c65	0.01261053
238	0x3e12a3db	0.14320318
239	0x3dfc60f6	0.12323181
240	0xbda9838e	-0.08277045
241	0x3dad2396	0.08454053
242	0xbe46ac31	-0.19401623
243	0x3e73e9eb	0.23819701
244	0x3e9e3104	0.3089677
245	0x3d4f79f5	0.050653417
246	0x3dafef27	0.085905366
247	0x3d9631f2	0.07333745
248	0x3d8eb5dd	0.069682814
249	0xbda916fc	-0.08256337
250	0x3dc0c23c	0.09412047
251	0x3d31223b	0.043245535
252	0xbe9350f5	-0.28772703
253	0xbe3db267	-0.18525086
254	0xbe92ec41	-0.28695872
255	0x3e3b6e51	0.18303801

weight_hh_l0 f4 [48, 16]
0	0x3e39d898	0.1814903
1	0x3d86aa20	0.065754175
2	0xbe5f8744	-0.21828943
3	0x3c3550c0	0.011066616
4	0x3e4bea62	0.19913629
5	0x3e53be20	0.20677996
6	0xbe0b1fc4	-0.13586336
7	0x3cd66f60	0.026176155
8	0xbe23bf9c	-0.15991062
9	0x3e73af22	0.23797277
10	0xbe7b946c	-0.24568337
11	0xbcad1ee0	-0.021132886
12	0xbe400fb0	-0.18755984
13	0x3dba8f1c	0.09109327
14	0x3d44f380	0.048083782
15	0xbe6af268	-0.22944033
16	0xbe261d0a	-0.16222015
17	0x3da62c28	0.08113891
18	0xbe60cdc8	-0.219535
19	0xbb8aff40	-0.004241854
20	0xbd613dc8	-0.05499056
21	0xbe14152c	-0.14461201
22	0x3e62d332	0.22150877
23	0x3da902a0	0.08252454
24	0xbe12ebc8	-0.14347756
25	0x3e407dae	0.18797943
26	0xbd657498	-0.056019396
27	0x3d646918	0.055764288
28	0xbe7d9b48	-0.24766266
29	0xbd4d5d38	-0.05013773
30	0x3dcdb93c	0.10045096
31	0x3e27df5c	0.16393799
32	0xbe30b898	-0.17257917
33	0xbcd13ac0	-0.02554071
34	0xbe7978b4	-0.24362451
35	0x3df86770	0.12129104
36	0xbe170bf6	-0.14750656
37	0x3e25b9fc	0.16184229
38	0x3e286ebe	0.16448495
39	0x3cc0e620	0.023547232
40	0x3e50d504	0.20393759
41	0x3e0847f0	0.13308692
42	0xbdd5cef0	-0.10439861
43	0xbe1026e8	-0.14077342
44	0x3da4fbe8	0.0805586
45	0xbb19cd80	-0.0023468435
46	0xbdcfd048	-0.10147148
47	0x3daac018	0.0833742
48	0x3d66de68	0.056364447
49	0x3c288bc0	0.010287225
50	0xbe1a1310	-0.15046334
51	0x3d466930	0.04844016
52	0x3e49dcfa	0.19713202
53	0xbe32f2dc	-0.17475456
54	0x3d8a413c	0.06750724
55	0x3e010b34	0.1260193
56	0x3d40d028	0.047073513
57	0x3cb31710	0.021861583
58	0x3e07c4d6	0.1325868
59	0xbe7120a4	-0.23547608
60	0x3e5cfd22	0.21580938
61	0xbd508ed0	-0.050917447
62	0xbe5a99de	-0.21347758
63	0x3dc904b4	0.0981535
64	0xbda5a1ac	-0.08087477
65	0x3d2ffc88	0.042965442
66	0xbe64eb9c	-0.22355503
67	0xbdb31680	-0.08744526
68	0x3d327120	0.043564916
69	0x3e195f90	0.1497786
70	0xbe5fcb40	-0.21854877
71	0x3e5930f2	0.21210077
72	0x3e3890be	0.18023965
73	0x3e23967e	0.15975377
74	0xbe368b5e	-0.17826602
75	0xbe1ae236	-0.15125355
76	0xbe2233e8	-0.15840113
77	0xbd2c2cd8	-0.042034954
78	0xbd328340	-0.0435822
79	0xbe704f76	-0.23467812
80	0x3d759e28	0.059965283
81	0x3e1580ec	0.14599961
82	0x3e559e0c	0.20861071
83	0xbd13fdc8	-0.036130697
84	0xbe567654	-0.20943576
85	0x3da5073c	0.080580205
86	0x3e34b5a0	0.1764741
87	0x3e0dd036	0.13848957
88	0x3d94d698	0.07267493
89	0x3e6d3a2e	0.23166725
90	0x3e477bfe	0.19480893
91	0x3e03be58	0.12865579
92	0xbe346a18	-0.17618597
93	0xbe1725b2	-0.14760473
94	0x3decfc7c	0.11571595
95	0xbd90b1e8	-0.07065183
96	0x3e252a8e	0.16129515
97	0xbe742a08	-0.23844159
98	0xbe0413ce	-0.1289818
99	0xbca2e2b0	-0.019883484
100	0x3d838f40	0.06423807
101	0x3ddcb980	0.10777569
102	0xbe23bc0a	-0.159897
103	0x3d7605f0	0.060064256
104	0x3d2a7c18	0.04162225
105	0x3deba0c4	0.11505273
106	0xbd99a748	-0.075026095
107	0xbe3cd9e4	-0.18442494
108	0x3d068be8	0.03284827
109	0x3e564d14	0.2092784
110	0xbe7ac686	-0.24489793
111	0x3e12d97e	0.14340779
112	0xbdf8fc10	-0.12157452
113	0xbe1d22aa	-0.15345255
114	0xbe38022e	-0.17969581
115	0x3e4e384c	0.20138663
116	0xbe421e26	-0.18956813
117	0xbd025050	-0.031814873
118	0x3e229ae4	0.15879399
119	0xbe53afc6	-0.20672521
120	0x3e1f2b88	0.1554395
121	0x3d6416f0	0.055685937
122	0xbe5f7ff8	-0.2182616
123	0xbdfd1d00	-0.12359047
124	0x3e44146e	0.19148418
125	0x3df440e0	0.119264364
126	0x3e5fbd00	0.21849442
127	0xbe38ddfc	-0.1805343
128	0x3e4b9afa	0.19883338
129	0x3e2b8470	0.1674974
130	0x3cae43c0	0.02127254
131	0x3d05b138	0.032639712
132	0xbe04c6b4	-0.12966424
133	0xbdfc74dc	-0.12326977
134	0xbd18a958	-0.037270874
135	0xbdf6b9d8	-0.12047166
136	0xbe599390	-0.21247697
137	0xbe701578	-0.2344569
138	0xbcfccbb0	-0.030858845
139	0xbd73ec30	-0.059551418
140	0xbe4b42f8	-0.19849765
141	0xbe36903c	-0.17828459
142	0xbccc8960	-0.02496785
143	0x3dbaa9f4	0.09114447
144	0xbe615d2c	-0.22008198
145	0xbc933aa0	-0.01797229
146	0xbd6021c0	-0.054719687
147	0xbc9c0410	-0.019044906
148	0x3e11adbc	0.1422643
149	0xbe588882	-0.21145824
150	0x3e3d0ec0	0.18462658
151	0x3e773900	0.24142838
152	0x3e60b5b2	0.21944311
153	0xbe2b8506	-0.16749963
154	0xbe4b4bbc	-0.19853109
155	0x3e2712d8	0.16315782
156	0xbe3522aa	-0.17689005
157	0x3dafd5e4	0.08585718
158	0xbe23e7e4	-0.16006428
159	0xbd4e45e8	-0.050359637
160	0x3e7567d2	0.23965386
161	0x3e672c9a	0.22575608
162	0xbe1d60a0	-0.15368891
163	0xbe479466	-0.19490203
164	0xbe1e7300	-0.15473557
165	0xbd359d98	-0.044339746
166	0x3e50c0ae	0.20386001
167	0xbe307afc	-0.17234415
168	0xbd865658	-0.065594375
169	0x3dd34e94	0.10317722
170	0xbe77469c	-0.24148029
171	0x3e34920e	0.1763384
172	0x3ddf2684	0.10896018
173	0x3ded250c	0.11579332
174	0xbd7ef340	-0.0622437
175	0x3de23418	0.11045092
176	0x3d4de118	0.050263494
177	0x3e149a56	0.14512
178	0xbc37e500	-0.011224031
179	0x3e2abc0e	0.166733
180	0xbe381824	-0.17977959
181	0xbd96b488	-0.07358652
182	0x3e52bd7c	0.20580095
183	0x3e44ca1a	0.1921772
184	0x3ca47da0	0.020079434
185	0xbd1c9148	-0.03822449
186	0xbe3be738	-0.18349922
187	0x3e0a87be	0.13528344
188	0x3ddaef3c	0.106901616
189	0x3e669b98	0.22520292
190	0xbd617050	-0.05503875
191	0xbd801308	-0.0625363
192	0xbe50c2a8	-0.20386755
193	0x3e3c01aa	0.1836001
194	0xbdb4fc54	-0.0883719
195	0x3b5ee880	0.0034013093
196	0x3dd2652c	0.10273203
197	0x3e6c2c04	0.23063666
198	0x3e7e24f6	0.24818787
199	0x3e5e3bf4	0.21702558
200	0x3e12a89a	0.14322129
201	0xbdd1a3e4	-0.10236338
202	0xbe3eedc0	-0.18645382
203	0xbe7f110a	-0.24908844
204	0xbc8fa7c0	-0.017536044
205	0xbdff7fac	-0.12475523
206	0xbe70a080	-0.23498726
207	0xbc4307a0	-0.011903673
208	0xbe2a1892	-0.16610935
209	0x3e4c01cc	0.1992256
210	0xbe1340dc	-0.1438021
211	0x3d72e510	0.059300482
212	0x3e519794	0.20467979
213	0xbdf01f38	-0.117247045
214	0xbe1f1944	-0.15536982
215	0x3e33c1be	0.17554376
216	0xbd107430	-0.035267055
217	0x3d6005b8	0.054692954
218	0xbe0cc92c	-0.13748616
219	0x3dacdd54	0.084406525
220	0xbe65f166	-0.22455367
221	0xbe68b5aa	-0.2272555
222	0x3d59d1d8	0.05317864
223	0x3dfa3a88	0.12218195
224	0x3e14b36a	0.14521566
225	0xbb60bf80	-0.003429383
226	0x3cba2aa0	0.022725403
227	0xbe74599c	-0.23862308
228	0xbe361b56	-0.17783865
229	0x3e5faef0	0.21844077
230	0xbe3f38f4	-0.1867407
231	0xbe30e8ec	-0.17276353
232	0xbd463b98	-0.048396677
233	0x3e445028	0.19171202
234	0x3e6cee36	0.23137745
235	0xbe3bfb1a	-0.18357506
236	0x3d874028	0.06604034
237	0xbc34b0e0	-0.011028498
238	0x3e7cc2f2	0.2468374
239	0x3e0d07ea	0.1377255
240	0xbe3c521a	-0.18390694
241	0x3cce6990	0.02519682
242	0x3e3cfd64	0.18456036
243	0xbdb5150c	-0.08841905
244	0x3d4229b0	0.047403038
245	0x3b2f8500	0.0026782155
246	0xbe10214c	-0.14075202
247	0xbd812b3c	-0.063070744
248	0xbe436a80	-0.19083595
249	0xbd1073c8	-0.035266668
250	0x3e26cc52	0.1628888
251	0xbddced8c	-0.10787496
252	0x3d25b150	0.0404523
253	0x3e1cc082	0.15307811
254	0xbe45cd66	-0.19316635
255	0x3bbd7800	0.0057821274

bias_ih_l0 f4 [48]
0	0x3e94f168	0.29090428
1	0xbcff6486	-0.031175863
2	0x3dc6eb61	0.09712864
3	0xbce73dbb	-0.028227678
4	0xbe4771fd	-0.19477077
5	0xbe6ee6dd	-0.23330255
6	0x3e16058e	0.14650556
7	0xbd52d6b6	-0.051474296
8	0xbc8700bb	-0.01647984
9	0x3e1bdfba	0.15222064
10	0x3e6c98f9	0.2310523
11	0xbe2196ae	-0.15780136
12	0x3e369185	0.17828949
13	0x3e007b67	0.12547074
14	0x3d0a7bae	0.033809356
15	0x3e419985	0.1890622
16	0xbe68de7d	-0.22741123
17	0xbe6e91a5	-0.23297746
18	0xbe152d56	-0.14568076
19	0x3d934a82	0.071919456
20	0xbddb58be	-0.107102856
21	0xbe4ace18	-0.19805181
22	0xbd722062	-0.059112914
23	0xbdad3f62	-0.08459355
24	0x3e0fa0c7	0.14026175
25	0xbd9af964	-0.07567099
26	0x3d331490	0.04372078
27	0xbdc3f45b	-0.095680915
28	0xbe897c9d	-0.26852885
29	0xbdfb5a51	-0.12273086
30	0xbe67f789	-0.22653021
31	0xbe1622b9	-0.14661683
32	0x3e200bf0	0.15629554
33	0x3e451909	0.19247831
34	0xbdd0fa85	-0.10204033
35	0x3e24565e	0.16048571
36	0xbd329fce	-0.043609433
37	0x3bba239b	0.005680514
38	0xbd85a8a4	-0.06526306
39	0xbe0f33e3	-0.13984637
40	0xbda7c35b	-0.08191558
41	0x3d9df16d	0.07712064
42	0x3e1c52d5	0.15265973
43	0xbe739243	-0.23786263
44	0x3d40e9fd	0.04709815
45	0xbe0daf81	-0.1383648
46	0x3e7077a2	0.23483136
47	0x3dfead88	0.12435442

bias_hh_l0 f4 [48]
0	0xbd6e9d07	-0.05825522
1	0xbe157590	-0.14595628
2	0xbe5a44da	-0.21315327
3	0x3d8fe6bb	0.0702643
4	0xbdaa90ab	-0.083283745
5	0xbe8d3134	-0.27576602
6	0x3e4b5c12	0.19859341
7	0xbdfae918	-0.1225149
8	0x3e0bb3e7	0.13642846
9	0x3d65c790	0.05609852
10	0x3e5be41b	0.21473734
11	0x3d9cbb7d	0.07652948
12	0xbdacf850	-0.08445799
13	0xbd2a7edf	-0.0416249
14	0x3d4bb306	0.049731277
15	0x3e413dc3	0.18871216
16	0xbe85b5b1	-0.26115182
17	0x3da60886	0.081070945
18	0x3dd3a66e	0.10334478
19	0xbe8d6b7a	-0.2762106
20	0x3c08eda9	0.008357444
21	0xbea5692c	-0.32306802
22	0x3dc61ef2	0.09673871
23	0x3d9985ae	0.074962005
24	0x3dee2a77	0.11629193
25	0xbe390590	-0.18068528
26	0xbe074019	-0.13208045
27	0xbe292f96	-0.16522059
28	0x3e5b4238	0.21411979
29	0xbe9a47d9	-0.3013294
30	0x3d90d714	0.07072273
31	0xbe74e22b	-0.23914401
32	0xbe64407b	-0.22290222
33	0x3dab0202	0.08349992
34	0xbc03c07c	-0.008041497
35	0xbdf1b4d5	-0.11802069
36	0xbe7af49b	-0.24507372
37	0xbcbb3924	-0.022854395
38	0x3dad9442	0.084755436
39	0x39a4281b	0.00031310398
40	0xbdff742e	-0.124733314
41	0x3dc9a730	0.098463416
42	0xbe15efa8	-0.14642203
43	0x3e809fd6	0.25121945
44	0xbdcafc11	-0.09911359
45	0x3d5929b5	0.05301829
46	0x3e251427	0.16120969
47	0xbc4597d3	-0.0120601235

weight_ih_l1 f4 [48, 16]
0	0xbe2e4f7c	-0.17022508
1	0x3e000132	0.12500456
2	0xbd68badf	-0.05681884
3	0xbd1cc9a1	-0.038278226
4	0x3e3f779e	0.18697974
5	0x3ddfbf3a	0.109251454
6	0xbd74977c	-0.05971478
7	0xbe75054d	-0.23927803
8	0x3e83a787	0.2571375
9	0xbccb11bb	-0.024788728
10	0x3b0add4a	0.0021189027
11	0x3e83cd1b	0.2574242
12	0xbd893f00	-0.067014694
13	0xbde8462f	-0.113415115
14	0xbe8f52c6	-0.2799284
15	0x3df69d12	0.120416775
16	0x3e429a55	0.19004185
17	0xbe698ef6	-0.22808442
18	0x3d85a98c	0.06526479
19	0x3e854fc7	0.26037428
20	0x3d903115	0.07040612
21	0x3e2cfba6	0.16892871
22	0x3e89a6af	0.26884982
23	0x3e59a792	0.21255329
24	0xbe1c7098	-0.15277326
25	0xbe9b2ab0	-0.30306005
26	0xbddf3fd7	-0.10900848
27	0x3da51199	0.08059997
28	0x3dcb547f	0.09928226
29	0x3de19826	0.11015348
30	0xbc04ee01	-0.008113385
31	0xbe2e9a8e	-0.17051145
32	0xbe611561	-0.21980812
33	0x3e777dc0	0.24169064
34	0x3e3bdb13	0.18345289
35	0xbce765dc	-0.028246813
36	0xbe8ddee5	-0.27709118
37	0x3ea3e12e	0.32007736
38	0xbe3a4529	-0.18190445
39	0xbe476400	-0.1947174
40	0x3dfb0e44	0.1225858
41	0x3dc88f20	0.09792924
42	0x3e1c83f2	0.15284708
43	0xbc8de109	-0.01731922
44	0xbd5bf236	-0.053697787
45	0x3e3c5426	0.18391475
46	0x3e80b6a7	0.25139353
47	0xbda56ba5	-0.08077172
48	0x3e58ae0f	0.21160148
49	0x3e3feddc	0.1874308
50	0x3d9db47b	0.077004395
51	0x3e96864f	0.29399344
52	0xbd1083c5	-0.035281915
53	0xbdfdea86	-0.123982474
54	0x3e15a91d	0.14615293
55	0xbc9af790	-0.018916875
56	0x3d2ef27d	0.042711724
57	0xbe4dab93	-0.20084982
58	0xbebbbcd8	-0.36667514
59	0xbe0409a6	-0.12894306
60	0x3dc9c85c	0.09852669
61	0xbe0e21b7	-0.13880049
62	0xbe38e1be	-0.18054864
63	0xbe49b88a	-0.19699302
64	0xbb060eb0	-0.0020455532
65	0x3d19da5a	0.037561752
66	0x3e098123	0.13428168
67	0xbe0cf7c5	-0.13766392
68	0xbde4fb0a	-0.111806944
69	0x3e442130	0.19153285
70	0x3e50ed3c	0.20402998
71	0x3e558ae5	0.20853765
72	0xbe763d7c	-0.24046892
73	0x3dd6bb43	0.10484936
74	0x3e96e948	0.29474854
75	0x3ca50528	0.02014406
76	0xbae3d08d	-0.0017380879
77	0xbe6a79dc	-0.22898048
78	0x3d4c8574	0.04993196
79	0x3e352a99	0.17692031
80	0xbdf28958	-0.118426025
81	0x3d298312	0.041384764
82	0x3e4f7082	0.20257762
83	0xbc4c9768	-0.01248727
84	0x3e30d197	0.17267452
85	0x3e047b45	0.12937649
86	0x3c24a944	0.010050122
87	0xbe20a19d	-0.1568665
88	0x3e974fd1	0.29553083
89	0x3e2223c7	0.1583396
90	0xbe628c45	-0.22123821
91	0x3cde49df	0.027134834
92	0x3db92d92	0.09041895
93	0xbe2ee650	-0.17080045
94	0xbe329b23	-0.17441992
95	0x3e495a7d	0.19663425
96	0xbd90c57b	-0.070689164
97	0xbe10d21e	-0.14142653
98	0x3d379b0e	0.044825606
99	0x3ccc9fcb	0.024978539
100	0xbea011ed	-0.31263676
101	0x3e4fb969	0.20285572
102	0x3e38e7e9	0.18057217
103	0x3e845f27	0.25853845
104	0x3c50852d	0.012727064
105	0x3e234e7d	0.1594791
106	0xbd2649aa	-0.040597595
107	0xbe9b7f53	-0.30370578
108	0xbdff516e	-0.12466703
109	0x3d4ea3b8	0.050449103
110	0xbdfbb516	-0.12290399
111	0x3e4d8956	0.20071921
112	0xbe6b34db	-0.22969382
113	0x3da7a26c	0.081852764
114	0x3e66c6aa	0.22536722
115	0x3d597b2b	0.053095978
116	0x3d5948cd	0.053047944
117	0x3d55d9d7	0.0522097
118	0xbe91e233	-0.2849289
119	0xbe86dbba	-0.26339513
120	0x3df41e8f	0.11919891
121	0xbe2c53eb	-0.16828887
122	0xbea7fa22	-0.32808024
123	0xbda9e696	-0.08295934
124	0xbdad2e9c	-0.08456156
125	0x3d640141	0.05566526
126	0x3dfa2af0	0.12215221
127	0xbc97f303	-0.018548494
128	0xbda4f631	-0.0805477
129	0xbc0b8268	-0.008514978
130	0x3e2aef66	0.16692886
131	0xbda2f2e6	-0.079564855
132	0xbcc08049	-0.023498671
133	0xbd280d05	-0.04102804
134	0xbe8cbe55	-0.27488962
135	0xbd2d5c5f	-0.04232442
136	0x3ea7f2f2	0.3280254
137	0x3c7c591a	0.015402103
138	0x3e298360	0.16554022
139	0x3defb292	0.117039815
140	0x3de697c4	0.11259416
141	0xbd79d7bf	-0.060996767
142	0xbe1789b9	-0.14798631
143	0x3e1acbf6	0.15116867
144	0xbe663fa0	-0.22485209
145	0xbe37ab4c	-0.17936438
146	0xbdfd6733	-0.12373199
147	0xbd20370a	-0.03911499
148	0x3e83550b	0.2565082
149	0xbe1291d7	-0.14313446
150	0xbe827995	-0.25483385
151	0x3e05041a	0.12989846
152	0xbd6a7504	-0.0572405
153	0x3e34e357	0.17664848
154	0xbeb9aac0	-0.36263084
155	0x3e63f94a	0.22263065
156	0xbdcc3ed0	-0.09972918
157	0x3d21b62c	0.039480373
158	0xbd09d3e0	-0.033649325
159	0x3e5628ef	0.20914052
160	0x3e695900	0.22787857
161	0xbdfce4e0	-0.12348342
162	0xbcd81181	-0.026375534
163	0xbd00e896	-0.03147181
164	0x3eb02f90	0.34411287
165	0xbdae8064	-0.08520582
166	0xbe847d94	-0.25877059
167	0xbd2be21b	-0.041963678
168	0xbd454d74	-0.04816957
169	0xbe347cfc	-0.17625803
170	0x3db4a646	0.08820777
171	0xbd224982	-0.039620884
172	0x3e25c3e2	0.16188005
173	0xbe00c71c	-0.12575954
174	0xbe7e50a8	-0.24835455
175	0x3cdac12d	0.026703442
176	0xbd793bc0	-0.060847998
177	0xbd55908f	-0.052139815
178	0x3d53876d	0.051642824
179	0x3e261ba0	0.16221476
180	0x3ea7f69f	0.32805344
181	0xbdbe67dd	-0.09297154
182	0xbe186c1b	-0.14884989
183	0xbda60083	-0.08105566
184	0xbda90ceb	-0.08254417
185	0x3d475684	0.048666492
186	0x3d948b62	0.07253148
187	0x3e84e137	0.25953075
188	0x3d96646d	0.073433734
189	0x3e77dfc0	0.24206448
190	0xbe991a94	-0.2990309
191	0x3e5e02d2	0.21680763
192	0x3d965b9a	0.0734169
193	0xbdcd3cdb	-0.10021373
194	0x3e144073	0.1447771
195	0x3dfc0928	0.12306434
196	0x3bfa9204	0.007646801
197	0x3e8fed28	0.28110623
198	0x3e07e2c8	0.13270104
199	0x3db72b8d	0.089438535
200	0xbe011834	-0.12606889
201	0x3e3eac53	0.18620424
202	0xbd40f234	-0.047105983
203	0xbe8445ef	-0.25834605
204	0x3d3625ac	0.04446952
205	0x3d5be509	0.05368522
206	0x3e1c46a8	0.15261328
207	0x3df5d2e5	0.120031156
208	0xbd8ce07b	-0.06878754
209	0xbe12b345	-0.14326198
210	0xbc01a3c4	-0.00791258
211	0xbe52eca1	-0.2059808
212	0xbdba2847	-0.090897135
213	0x3d5d5273	0.054033708
214	0x3e4acaf4	0.19803983
215	0xbdcff1c0	-0.10153532
216	0xbd93d2c3	-0.07217934
217	0x3e220bba	0.15824786
218	0x3e431cdb	0.19053976
219	0xbe731940	-0.23740101
220	0xbe36202f	-0.17785715
221	0x3e27b08c	0.16375941
222	0xbdd97423	-0.106178544
223	0x3e213254	0.15741855
224	0x3ac57227	0.0015063927
225	0xbd2ef379	-0.042712662
226	0xbe602ac3	-0.21891312
227	0xbe70363a	-0.23458186
228	0xbe703133	-0.23456268
229	0x3e8ad81b	0.27118
230	0xbdc0813a	-0.09399648
231	0xbe25aa4f	-0.16178249
232	0xbe55e737	-0.20888983
233	0x3e0d0d35	0.1377457
234	0xbd5feffb	-0.054672223
235	0x3c58de7c	0.013236638
236	0xbd9c8335	-0.07642213
237	0xbdd9bd5d	-0.10631821
238	0x3e012e4d	0.12615319
239	0xbe30b847	-0.17257796
240	0x3df12c74	0.11776057
241	0xbd404500	-0.046940804
242	0xbd881783	-0.066451095
243	0x3d8ea89f	0.06965756
244	0x3df5a5f0	0.11994541
245	0xbdceae84	-0.1009188
246	0xbd2a250d	-0.04153924
247	0x3e4b06b4	0.19826776
248	0xbe663fb5	-0.2248524
249	0xbcfbff62	-0.030761424
250	0x3e697985	0.22800262
251	0xbe7d65eb	-0.2474591
252	0x3e50d3a0	0.20393229
253	0x3c8934e6	0.016748857
254	0xbe7d24ef	-0.2472112
255	0x3e0b5ebb	0.13610356

weight_hh_l1 f4 [48, 16]
0	0x3e0fdb1c	0.14048427
1	0xbe340752	-0.17580917
2	0xbe0f1f8a	-0.13976875
3	0x3d9cc930	0.07655561
4	0xbc86d4b0	-0.01645884
5	0x3e49d9aa	0.19711939
6	0xbe0a048c	-0.13478297
7	0xbdf89004	-0.12136844
8	0xbe026fd8	-0.12737978
9	0xbe1d0d6a	-0.15337148
10	0xbe07e2d8	-0.13270128
11	0x3e3b2b84	0.18278319
12	0xbd5aa8e0	-0.053383708
13	0x3de861fc	0.11346814
14	0xbe6f8300	-0.23389816
15	0x3da57048	0.080780566
16	0x3e1cbde0	0.15306807
17	0x3e617562	0.22017434
18	0x3e53f2a0	0.20698023
19	0xbcb5b270	-0.022179812
20	0xbe3cb1d0	-0.18427205
21	0x3e7cef1e	0.24700591
22	0xbdce4c28	-0.100731194
23	0xbe3bda2a	-0.18344942
24	0x3e08eca6	0.13371524
25	0xbdb6d0c8	-0.089265406
26	0xbdfca8b0	-0.12336862
27	0x3db70f5c	0.089384764
28	0x3dc1f06c	0.09469685
29	0xbe255f9e	-0.16149756
30	0x3d180f08	0.03712371
31	0x3df778c0	0.12083578
32	0x3e009a68	0.12558901
33	0xbbda5b40	-0.00666371
34	0x3d7f3c48	0.062313348
35	0xbda051ac	-0.07828078
36	0x3e59bafc	0.21262735
37	0xbdc43974	-0.09581271
38	0xbd893660	-0.06699824
39	0xbdbadbe8	-0.09123975
40	0x3d850960	0.06495929
41	0x3c9eeaf0	0.019399136
42	0x3d3af6c8	0.045645505
43	0xbd10ead8	-0.035380214
44	0x3e095850	0.13412595
45	0xbe08287a	-0.1329669
46	0xbe06d188	-0.13165867
47	0xbe428600	-0.1899643
48	0xbd951718	-0.072797954
49	0x3e45fe06	0.19335184
50	0x3e3bbc68	0.1833359
51	0x3e72c806	0.23709115
52	0x3e60c19c	0.21948856
53	0xbe51ee4e	-0.20501062
54	0xbc3e3640	-0.011609614
55	0xbe08347e	-0.13301274
56	0xbe459dda	-0.19298497
57	0xbe3823c6	-0.17982396
58	0xbe034efa	-0.12823096
59	0x3e516ba2	0.20451215
60	0x3dbcfa08	0.09227377
61	0xbe5f4ff2	-0.2180784
62	0x3e2cdf7c	0.16882128
63	0xbc3b5560	-0.011433929
64	0xbe4a8fba	-0.1978139
65	0xbdd2fb9c	-0.10301897
66	0x3d85c100	0.065309525
67	0xbe6f697c	-0.23380083
68	0x3e3cde30	0.18444133
69	0x3c864ab0	0.016393036
70	0x3d89b3a0	0.06723714
71	0x3e7436dc	0.23849052
72	0xbe61e890	-0.22061372
73	0x3de52c34	0.11190072
74	0x3df97a18	0.12181491
75	0x3e083ba2	0.13303998
76	0xbde84c14	-0.11342636
77	0x3d6a2cb0	0.057171524
78	0x3dccf358	0.10007352
79	0xbe588e5e	-0.21148059
80	0xbe0df67c	-0.13863558
81	0x3e163172	0.146673
82	0x3da76e20	0.081753016
83	0xbdc2a388	-0.09503847
84	0xbe31bb82	-0.17356685
85	0xbdab626c	-0.08368382
86	0x3c01a4c0	0.007912815
87	0x3c9a5300	0.018838406
88	0x3e04c748	0.12966645
89	0xbdad141c	-0.08451101
90	0xbe6fb64c	-0.23409384
91	0xbe4b9a92	-0.19883183
92	0x3c33c5e0	0.01097247
93	0xbe2f4130	-0.17114711
94	0x3e19b310	0.15009713
95	0x3df8049c	0.12110254
96	0x3d478988	0.048715144
97	0xba9c7900	-0.0011937916
98	0x3e738acc	0.23783416
99	0x3ccc6810	0.024951965
100	0x3e2bc270	0.16773391
101	0x3deba690	0.11506379
102	0x3e4ce8c8	0.20010674
103	0xbd746b68	-0.059672743
104	0xbe06c2f4	-0.13160306
105	0xbe1cd1aa	-0.15314355
106	0xbdfddc14	-0.12395492
107	0x3cf13550	0.029444367
108	0xbe435dc0	-0.19078732
109	0xbd01eca0	-0.031719804
110	0xbe28c2f8	-0.16480625
111	0xbe1c51b0	-0.15265536
112	0xbe53cafa	-0.20682898
113	0xbe32485c	-0.17410415
114	0xbdb7098c	-0.08937368
115	0xbb5d7a80	-0.003379494
116	0xbe7c9230	-0.24665141
117	0xbd312260	-0.043245673
118	0xbe0977b6	-0.13424572
119	0xbda2a508	-0.079416335
120	0xbe439fa4	-0.19103867
121	0xbc7f58c0	-0.0155851245
122	0x3d08aa10	0.03336531
123	0x3ddf2d9c	0.10897371
124	0x3cb55310	0.022134334
125	0xbc271d80	-0.010199904
126	0x3d038138	0.032105654
127	0xbc9ce100	-0.019150257
128	0xbe316d78	-0.17326915
129	0x3da921a4	0.082583696
130	0xbe65332a	-0.22382799
131	0xbdaa7868	-0.08323747
132	0xbe6761e8	-0.22595942
133	0xbdc86860	-0.09785533
134	0x3d12c770	0.03583473
135	0x3e4666c0	0.19375134
136	0x3e77e014	0.24206573
137	0xbe4c3eea	-0.19945875
138	0x3afca900	0.001927644
139	0x3cc3ebb0	0.023916095
140	0x3e02699a	0.12735596
141	0x3d793998	0.06084594
142	0x3dbeff4c	0.09326038
143	0x3e0d53f2	0.13801554
144	0x3e679afe	0.22617719
145	0xbe789dda	-0.24278966
146	0x3e1e0750	0.15432477
147	0x3b5c6300	0.0033628345
148	0x3e7201e4	0.23633534
149	0xbe18b138	-0.14911354
150	0xbe17032a	-0.147473
151	0xbc464700	-0.012101889
152	0xbe01e7ec	-0.12686127
153	0xbe6e2b5e	-0.23258731
154	0xbdd97110	-0.10617268
155	0xbd9ac9d0	-0.07558024
156	0xbe0595ac	-0.13045377
157	0xbe5ab2ce	-0.21357271
158	0x3dac3294	0.084080845
159	0x3e6bc6f0	0.23025107
160	0x3e165e56	0.14684424
161	0x3e5fe8f2	0.21866205
162	0x3e30fff0	0.17285132
163	0x3e7c5a88	0.2464391
164	0x3e615d1a	0.22008172
165	0xbe3ffb74	-0.18748266
166	0x3e5b3414	0.21406585
167	0xbe6f11d2	-0.23346642
168	0x3de4cc78	0.11171812
169	0x3e1223ba	0.14271441
170	0x3cf3cc50	0.02976051
171	0xbe2152ee	-0.15754291
172	0xbe559762	-0.20858529
173	0xbe74a160	-0.23889685
174	0x3e49fe1c	0.19725841
175	0x3e14ae5c	0.14519638
176	0xbd806670	-0.062695384
177	0x3d267d58	0.04064688
178	0xbe1a2548	-0.15053284
179	0x3e4872ee	0.19575092
180	0x3e61ff60	0.22070074
181	0x3da6cdc0	0.081447124
182	0x3dcc9528	0.09989387
183	0xbe68072c	-0.22658986
184	0xbe2b4e0c	-0.16728991
185	0xbdf4ba50	-0.11949599
186	0x3e0d8d0e	0.1382334
187	0xbcb3d9c0	-0.021954417
188	0xbddc7568	-0.10764581
189	0x3e02991c	0.12753719
190	0x3de3ebc4	0.11128953
191	0x3d095488	0.03352788
192	0xbdab56fc	-0.083662
193	0xbdd6127c	-0.10452744
194	0x3e611fea	0.2198483
195	0x3d273e78	0.04083106
196	0x3e398826	0.18118343
197	0xbd4d6338	-0.05014345
198	0x3e42da8c	0.19028682
199	0xbe14c20c	-0.14527148
200	0x3df26c28	0.118370354
201	0xbe770cb8	-0.24125946
202	0x3e00795a	0.12546292
203	0xbc5192e0	-0.012791365
204	0x3d924320	0.07141709
205	0x3e5c32be	0.21503732
206	0x3c84ea60	0.01622504
207	0x3e0279e2	0.12741807
208	0x3cf8ac80	0.030355692
209	0xba444e00	-0.00074884295
210	0xbd9d20d4	-0.07672277
211	0xbdf66f08	-0.12032896
212	0x3c13a660	0.009011835
213	0xbd0aeae8	-0.03391543
214	0x3e0405c2	0.12892821
215	0xbe1cc134	-0.15308076
216	0x3e5632d8	0.20917833
217	0xbcf2b030	-0.029625028
218	0xbe15668a	-0.14589897
219	0x3e19ec5c	0.1503157
220	0xbe387b24	-0.18015724
221	0x3e248026	0.1606451
222	0x3e53078e	0.2060835
223	0xbe4441c8	-0.19165719
224	0xbe60b5ce	-0.21944353
225	0xbb2c2180	-0.0026265085
226	0x3e4979c2	0.19675353
227	0xbda6a630	-0.081371665
228	0xbe248aaa	-0.16068521
229	0xbd883d64	-0.06652334
230	0xbcad4220	-0.021149695
231	0xbe70edb0	-0.2352817
232	0x3d407b48	0.04699257
233	0x3e2e0678	0.16994655
234	0x3e571624	0.2100454
235	0xbe39312a	-0.18085161
236	0x3e05bbc0	0.13059902
237	0xbbf104c0	-0.0073553026
238	0xbd85ba84	-0.06529716
239	0xbc3dff60	-0.011596531
240	0x3ce6b210	0.028161079
241	0x3e17382e	0.14767525
242	0x3c2fba60	0.010725588
243	0xbd9e7a3c	-0.07738158
244	0x3dc1b6c0	0.09458685
245	0x3d557ff8	0.052123994
246	0xbdf5ed58	-0.1200816
247	0xbe0c9c9e	-0.1373162
248	0x3e10063c	0.14064878
249	0xbdf86260	-0.121281385
250	0x3e70d702	0.23519519
251	0xbe322ff8	-0.17401111
252	0x3d1a6a70	0.037699163
253	0xbe14e98c	-0.14542216
254	0x3e50c8b2	0.20389059
255	0x3dc34a50	0.09535658

bias_ih_l1 f4 [48]
0	0x3d14e819	0.036354158
1	0xbe16eade	-0.14738032
2	0xbe549ee6	-0.2076374
3	0xbe442420	-0.19154406
4	0x3e105940	0.14096546
5	0xbdefc40d	-0.117073156
6	0x3cb98b52	0.02264944
7	0x3d9327ba	0.071853116
8	0x3d6d56a7	0.057943966
9	0x3dc047ec	0.09388718
10	0x3e621df2	0.22081736
11	0x3d1b38e5	0.037896056
12	0xbe5b9d48	-0.21446717
13	0x3d7c1241	0.061540846
14	0xbe4fc38c	-0.20289439
15	0x3d123f13	0.035704684
16	0x3e02a3a7	0.12757741
17	0xbec05b04	-0.3756944
18	0xbe8e274b	-0.27764353
19	0x3e064c5c	0.13115066
20	0xbe7e1308	-0.24811947
21	0x3cf713c3	0.03016079
22	0xbea5082c	-0.32232797
23	0x3e13e5e6	0.14443168
24	0x3d0297bb	0.031882983
25	0xbc37b5be	-0.011212764
26	0xbe217643	-0.1576777
27	0xbea4f84b	-0.32220683
28	0xbe2a8b4b	-0.16654699
29	0xbdac71f8	-0.08420175
30	0xbe9d583f	-0.3073139
31	0xbe9e5b98	-0.30929255
32	0x3c38a7b7	0.011270455
33	0xbd686574	-0.05673738
34	0x3e20fd4f	0.1572163
35	0x3d576ccd	0.052593995
36	0xbd6e8155	-0.05822881
37	0x3e21d9bb	0.15805714
38	0x3d5495e0	0.051900744
39	0x3d359f90	0.044341624
40	0xbe28da79	-0.1648959
41	0xbd11e702	-0.035620697
42	0xbe1710f4	-0.14752561
43	0xbd12c98d	-0.035836745
44	0xbe28a019	-0.16467322
45	0x3dc9a84e	0.09846555
46	0x3d8f51c1	0.06998015
47	0xbe727782	-0.23678401

bias_hh_l1 f4 [48]
0	0x3e4519d8	0.1924814
1	0xbe4192c2	-0.1890364
2	0x3e2a6d30	0.16643214
3	0xbcab9393	-0.020944392
4	0x3e3ac3e6	0.18238792
5	0xbd9dd7f9	-0.07707209
6	0xbe019d87	-0.12657748
7	0xbe69053d	-0.22755904
8	0x3dfa8431	0.12232245
9	0x3e0c2bed	0.13688631
10	0xbe30fa6a	-0.17283025
11	0xbde1436b	-0.10999187
12	0xbdc7f42c	-0.09763369
13	0x3e4d86c6	0.20070943
14	0xbe26bc1c	-0.16282696
15	0xbe0d324d	-0.1378872
16	0xbd2f8992	-0.042855807
17	0xbd8b4155	-0.067995705
18	0xbe412a1a	-0.18863717
19	0xbcdc4856	-0.026889961
20	0xbe7048f1	-0.23465325
21	0x3e5a7623	0.21334128
22	0xbdf3534f	-0.11881124
23	0xbe52aee6	-0.20574531
24	0xbe5243be	-0.20533654
25	0xbdf6c7c8	-0.12049824
26	0x3d9bc0e9	0.07605154
27	0xbe551f8e	-0.20812818
28	0xbe1b9c95	-0.1519645
29	0xbc555631	-0.013021038
30	0xbeb052ad	-0.34438077
31	0x3dc66ed6	0.09689109
32	0x3e6ef745	0.23336513
33	0xbdb7c021	-0.089721926
34	0xbd00e13c	-0.0314648
35	0x3badfff1	0.0053100516
36	0xbe379ca9	-0.17930855
37	0x3e3168f6	0.17325196
38	0x3e7256e9	0.23665966
39	0x3cdc53cc	0.026895426
40	0x3db270e6	0.0871294
41	0xbe2db092	-0.16961887
42	0x3e6701a7	0.22559224
43	0xbda96ee7	-0.08273106
44	0x3de6454d	0.11243687
45	0xbe0e0860	-0.13870382
46	0xbe68912e	-0.22711632
47	0x3dfd9a9f	0.12383007

weight f4 [32, 704]
0	0x3e040c77	0.1289538
1	0x3db5f031	0.088837035
2	0x3d9476c5	0.07249216
3	0x3d18d34f	0.037310895
4	0x3dcd8439	0.10034985
5	0x3d47a0b4	0.048737243
6	0xbe0a339d	-0.13496251
7	0x3dc19583	0.09452345
8	0x3dabb8ab	0.08384832
9	0xbd03b171	-0.032151643
10	0x3e126f32	0.1430023
11	0xbe1b0482	-0.15138438
12	0xbd272712	-0.040808745
13	0xbd243e9c	-0.04009877
14	0x3caa47ad	0.02078613
15	0xbcfdb33d	-0.030969257
16	0x3c19d0a0	0.009388119
17	0x3cc6d413	0.024271047
18	0x3bbf29ee	0.005833856
19	0x3da34b88	0.07973391
20	0x3dccb9e2	0.09996392
21	0xbacf8927	-0.0015833721
22	0xbda0b65b	-0.078472815
23	0x3d7ab74b	0.061209958
24	0xbbec8652	-0.0072181607
25	0xbccc2a85	-0.024922619
26	0x3d5f9a7b	0.054590683
27	0xbd32d837	-0.04366323
28	0xbb83a5c2	-0.0040175626
29	0x3cd3232e	0.02577361
30	0x3d9da9ce	0.07698403
31	0x3d093a19	0.033502672
32	0x3d6ca0a5	0.05777039
33	0x3cb894f8	0.022531971
34	0x3d9561f8	0.07294077
35	0x3dd04490	0.10169327
36	0x3d393ae0	0.045222163
37	0xbc840d85	-0.016119728
38	0xbd6dc29f	-0.058046933
39	0x3da7267b	0.081616364
40	0xbcb51719	-0.02210574
41	0xbc9c29ed	-0.01906296
42	0x3d9d8fc6	0.07693438
43	0xbd813da6	-0.06310587
44	0x3c4d9254	0.012547094
45	0x3d8239d3	0.06358685
46	0x3db4c826	0.08827238
47	0x3ce93120	0.028465807
48	0x3ca1375a	0.019679714
49	0x3dcf7824	0.10130337
50	0x3dc94329	0.09827263
51	0x3db98b2e	0.090597495
52	0x3e132d5b	0.1437277
53	0xbd00f9bf	-0.031488176
54	0xbdce2ffb	-0.10067745
55	0x3c6ed1f9	0.014576429
56	0xbd378e15	-0.044813234
57	0xbd087d2b	-0.033322494
58	0x3e06fdb1	0.13182713
59	0xbc8d8b6a	-0.017278392
60	0x3c599d5b	0.013282145
61	0xbb1c65e9	-0.0023864454
62	0x3c0fe229	0.008781948
63	0x3ce1fff0	0.02758786
64	0x3a0e3a24	0.0005425534
65	0x3be3cd68	0.0069519766
66	0x3d581da6	0.05276265
67	0xbc49d86e	-0.012319667
68	0x3de3d4a6	0.11124544
69	0x3d24df51	0.040252034
70	0xbdd21d96	-0.10259549
71	0x3cf10a0d	0.029423738
72	0x3d6686cc	0.056280896
73	0x3d4e9202	0.050432213
74	0x3d86f873	0.06590357
75	0xbc186bd9	-0.009303057
76	0x3cc3b654	0.023890652
77	0x3a55db1a	0.0008157954
78	0x3de51410	0.11185467
79	0x3d010ac3	0.031504404
80	0x3e0a6207	0.13513957
81	0x3cd83872	0.026394103
82	0x3d884f18	0.06655711
83	0x3d2077df	0.039176818
84	0x3d45e14e	0.04831057
85	0xbc1180b0	-0.008880779
86	0xbc534038	-0.012893729
87	0x3d8d154a	0.06888826
88	0xbce17987	-0.027523769
89	0xbda81fa0	-0.08209157
90	0x3d80a25a	0.06280966
91	0xbcc643de	-0.024202283
92	0x3d13dcee	0.036099367
93	0x3d353cab	0.04424731
94	0x3da0ddff	0.078548424
95	0xbd7365ac	-0.059423134
96	0x3d2da247	0.042391088
97	0x3cd1e921	0.02562386
98	0xbb14f60e	-0.0022729668
99	0xbd652fd2	-0.055953808
100	0x3bb084e2	0.0053869346
101	0x3c8c1179	0.017098175
102	0x3ad84786	0.0016500808
103	0x3d942410	0.07233441
104	0x3ce4664d	0.027880812
105	0xbb43d4e0	-0.0029881522
106	0x3d42252b	0.047398727
107	0xbb5c6554	-0.0033629732
108	0xbc1e2b96	-0.009653946
109	0xbd518f54	-0.05116208
110	0x3d354909	0.044259105
111	0x3d9617cb	0.07328757
112	0xbd8317a6	-0.06400995
113	0x3e09ae56	0.1344541
114	0x3c004d6c	0.007830959
115	0xbd8adcf9	-0.067804284
116	0x3d2534f6	0.04033371
117	0x3cc0693e	0.023487683
118	0x3d03ca6d	0.03217547
119	0xbb93f5bc	-0.004515378
120	0x3d62bfaa	0.055358566
121	0x3d096bc2	0.03355003
122	0xbbe7e578	-0.0070769154
123	0x3adc30f9	0.0016799263
124	0x3c58859a	0.013215447
125	0x3d18d48f	0.037312087
126	0xbdfae03f	-0.12249803
127	0x3d85d066	0.065338895
128	0x3d45d146	0.04829528
129	0x3e38ab98	0.18034208
130	0x3cc3002e	0.023803797
131	0x3d5cd09f	0.053909894
132	0x3d94fd82	0.07274915
133	0xbcc2f437	-0.023798091
134	0x3d179e97	0.037016477
135	0x3d65a2b4	0.05606337
136	0x3dfe7b1e	0.124258265
137	0xbd64cfb3	-0.05586214
138	0x3d87da00	0.06633377
139	0xbd5e4184	-0.0542617
140	0x3d6789b4	0.05652781
141	0x3d4a211c	0.04934798
142	0xbd5c9367	-0.05385151
143	0x3d3b877c	0.045783505
144	0x3dbf6785	0.09345917
145	0x3de6a003	0.112609886
146	0x3d161390	0.03663975
147	0x3bfd87ff	0.0077371593
148	0xbc97c085	-0.018524418
149	0x3c239bb9	0.009985858
150	0xbd8ce313	-0.068792485
151	0x3da8770b	0.08225831
152	0x3c274572	0.010209428
153	0x3c829170	0.01593849
154	0x3d51f753	0.051261257
155	0xbcd3edd6	-0.025870245
156	0x3b77342d	0.0037720308
157	0x3c64930c	0.013951074
158	0xbab2e423	-0.0013648312
159	0x3cf6b841	0.030117156
160	0x3d8eed1e	0.0697882
161	0x3e065d1a	0.13121453
162	0xbd6cb255	-0.05778726
163	0xbc49a9e8	-0.012308575
164	0x3c48fd98	0.012267493
165	0xbd127161	-0.035752658
166	0xbaf032cd	-0.0018325687
167	0xbd254649	-0.040350232
168	0x3d8290c1	0.06375266
169	0x3d98243c	0.07428786
170	0xbc8b505a	-0.017006088
171	0x3d00b22b	0.031419914
172	0x3d4d35ff	0.050100323
173	0xbcc9eb31	-0.02464828
174	0xbdae17da	-0.08500643
175	0xbc4c26ba	-0.012460405
176	0x3b74262d	0.00372542
177	0x3d715afa	0.058924653
178	0xbd0ac659	-0.033880565
179	0xbd2d56dc	-0.042319164
180	0x3d45d953	0.04830296
181	0xbd6b7fc0	-0.05749488
182	0xbda2dd41	-0.07952357
183	0xbc4ef1fe	-0.012630938
184	0x3d1b6c09	0.037944827
185	0x3d96dce2	0.07366349
186	0x3d724dcc	0.059156224
187	0x3bd5dc6e	0.0065265214
188	0x3d6e3a26	0.058160923
189	0xbc8b7045	-0.017021308
190	0x3cf6018b	0.030030033
191	0x3df54bb7	0.11977332
192	0xbc1d57a8	-0.009603418
193	0x3deabac1	0.11461402
194	0x3d75cbba	0.060008742
195	0x3d7a7be0	0.061153293
196	0x3d921d10	0.071344495
197	0xbd4d9dc8	-0.0501993
198	0xbc43a6ae	-0.011941595
199	0xbba4e605	-0.0050323033
200	0x3d7e606d	0.062103678
201	0x3bdea0d4	0.0067940746
202	0x3d47114a	0.048600473
203	0x3ca1aeda	0.019736696
204	0x3db970d1	0.09054721
205	0x3c504278	0.01271116
206	0xbcd4ca10	-0.025975257
207	0x3d877e3d	0.06615875
208	0xbac2fdd9	-0.0014876678
209	0x3d33e4c8	0.043919355
210	0x3d55a411	0.05215842
211	0xbcfc57c0	-0.030803561
212	0xba632da4	-0.0008666164
213	0xbcdfa0c4	-0.027298339
214	0x38a905eb	8.05965e-05
215	0xbc33bec4	-0.010970775
216	0x3b4fc9e1	0.0031706023
217	0xbcb6ddaa	-0.022322495
218	0x3caac9d8	0.0208482
219	0xbd37264f	-0.04471427
220	0x3c618ca2	0.01376644
221	0x3c907cd4	0.017637648
222	0xbafab12d	-0.0019126289
223	0x3cd07b39	0.025449382
224	0xbc0e78d0	-0.008695796
225	0x3d51c92a	0.051217236
226	0x3d12cf37	0.035842147
227	0x3bbabb45	0.005698594
228	0x3cfb1334	0.030648805
229	0xbdbc12b4	-0.09183255
230	0x3c832a03	0.016011244
231	0xbd991067	-0.074738316
232	0xbc7c13b8	-0.015385561
233	0xbcec4e65	-0.028845975
234	0x3b0d66b8	0.0021576118
235	0x3d27cd37	0.040967193
236	0x3da5a90f	0.08088886
237	0x3d1a3ad9	0.037653778
238	0xbcf4fae8	-0.029904798
239	0x3dc137fd	0.09434507
240	0xbc20952a	-0.0098011885
241	0x3ca02954	0.019550957
242	0x3c275828	0.010213889
243	0x3df27626	0.11838941
244	0x3d6df82b	0.058098
245	0xbd6e1127	-0.058121826
246	0xbcbea6e2	-0.023272935
247	0x3d230a2b	0.03980462
248	0x3cca6c43	0.024709826
249	0xbcb15667	-0.021647645
250	0x3ad2dfd0	0.001608843
251	0xbc93ce85	-0.018042812
252	0x3d85a643	0.065258525
253	0x3d1a3f62	0.037658103
254	0x3b08097a	0.0020757602
255	0xbcae7fda	-0.021301199

bias f4 [32]
0	0xbc68ba90	-0.014204636
1	0x3cee6261	0.029099645
2	0xbb60b8e3	-0.0034289889
3	0x3cef4d96	0.0292118
4	0x3d0cd9ba	0.034387328
5	0x3ce59a79	0.02802776
6	0xbcec13e2	-0.028818075
7	0x3c74b67d	0.014936087
8	0x3c88e8c9	0.016712563
9	0x3cd278d1	0.025692375
10	0xbd2ab72a	-0.041678585
11	0x3b361b41	0.002778724
12	0xbce6eb78	-0.028188452
13	0x3d0146b1	0.031561557
14	0x3c6dea93	0.014521259
15	0xbcca4fb9	-0.024696218
16	0x3afc9d65	0.0019272981
17	0x3c5d6ada	0.013514245
18	0x3d1725f3	0.036901426
19	0x3ce27e21	0.027648034
20	0x3c1b5386	0.009480363
21	0x3c81a5e4	0.015826173
22	0xbc8a444f	-0.016878275
23	0xbcb4536c	-0.022012435
24	0xbc843bbe	-0.016141769
25	0xbcc6d2b9	-0.024270402
26	0x3b37289f	0.0027947796
27	0x3cfcade4	0.030844636
28	0xbca6cebe	-0.020362254
29	0xbcd86bb5	-0.026418546
30	0xbbbf5cc3	-0.0058399155
31	0x3cbb4ad6	0.022862833
