saved_models/rnn_lstm.pth (torch_old, 324680 bytes, 15 tensors)

weight f4 [4927, 10]
0	0xbef31202	-0.47474676
1	0xbf009ec2	-0.50242245
2	0x3e8fd79c	0.28094184
3	0x3f016344	0.5054209
4	0xbe9ff8d5	-0.3124453
5	0xbf055cd8	-0.52094793
6	0xbf0ee156	-0.55812585
7	0xbef5b16b	-0.47986922
8	0xbe14deb8	-0.14538085
9	0x3e970087	0.2949259
10	0xbef1ed48	-0.47251344
11	0xbf32c736	-0.6983522
12	0x3ed6c58e	0.41947597
13	0x3eec949e	0.46207136
14	0x3e2c3b0d	0.16819401
15	0xbf9e3da1	-1.2362558
16	0xbf2e7224	-0.68142915
17	0xbf90cec8	-1.1313105
18	0xbd3a8774	-0.045539334
19	0x3f52dd78	0.82369184
20	0xbcf2b122	-0.02962548
21	0x3f12c3bc	0.57329917
22	0x3f45f5e4	0.77328324
23	0x3c5e40f0	0.013565287
24	0xbeb45b35	-0.35225835
25	0x3e00d46f	0.12581037
26	0x3e0ac195	0.13550408
27	0x3d5707ce	0.052497678
28	0x3ebcf631	0.3690658
29	0x3da22cf6	0.07918732
30	0xbe36b1da	-0.17841282
31	0x3eab706c	0.3348421
32	0xbdb07d1b	-0.08617612
33	0xbd860b4d	-0.06545124
34	0xbf677409	-0.9041143
35	0xbf725193	-0.9465572
36	0x3d810755	0.063002266
37	0xbebe84fb	-0.3721083
38	0xbeba7834	-0.36419833
39	0xbd66ce18	-0.05634889
40	0x3ce2ea1c	0.027699523
41	0x3e1cb4a2	0.15303281
42	0x3f3338c8	0.70008516
43	0xbe9040fe	-0.28174585
44	0xbe80369f	-0.25041673
45	0x3e8c1c79	0.27365473
46	0x3d276341	0.04086614
47	0xbf13ef31	-0.5778685
48	0x3f327828	0.69714594
49	0x3d1e5bef	0.038661893
50	0x3eccce50	0.40001154
51	0x3d185af6	0.037196122
52	0x3ec2054b	0.37894663
53	0xbe7b712e	-0.24554893
54	0xbec5761c	-0.38566673
55	0x3d8f73bd	0.07004497
56	0x3dd72917	0.10505884
57	0xbf21a3b2	-0.63140404
58	0x3dc0bb83	0.09410765
59	0xbe3a22fd	-0.1817741
60	0x3f4c5e6c	0.79831576
61	0xbf5f697f	-0.8727035
62	0x3f5be906	0.8590244
63	0x3f0a4b38	0.54021025
64	0xbf6254f3	-0.8841087
65	0xbf00235b	-0.5005395
66	0xbf2132a1	-0.6296788
67	0x3eb94d14	0.36191618
68	0x3e972611	0.2952123
69	0x3d83c616	0.06434266
70	0xbe7a1567	-0.24422227
71	0x3e81085a	0.25201684
72	0x3ecffcea	0.40622646
73	0x3e5514b8	0.20808685
74	0xbf51abd1	-0.81902796
75	0x3ed62ead	0.41832486
76	0x3d59901c	0.05311595
77	0x3d4a3fb1	0.049377147
78	0x3dcc765f	0.09983515
79	0xbc5c0147	-0.013428039
80	0x3f6786a8	0.90439844
81	0xbf01a6af	-0.50644964
82	0x3eaff178	0.34363914
83	0x3f28f0d3	0.6599247
84	0xbf79bad2	-0.9755069
85	0xbd76974b	-0.060202878
86	0xbe56cb32	-0.2097595
87	0xbe965a0d	-0.29365578
88	0x3eb06363	0.34450826
89	0xbf012abf	-0.5045585
90	0x3f2f5776	0.6849283
91	0x3e0fd0fb	0.14044563
92	0x3d6cd45e	0.057819717
93	0x3ec22b8d	0.37923852
94	0xbf612c2d	-0.8795803
95	0x3d9075bf	0.07053708
96	0xbdbe8fab	-0.09304746
97	0xbe2e9bf2	-0.17051676
98	0x3dddeb91	0.10835946
99	0x3c89110b	0.01673176
100	0x3f1ac142	0.6045114
101	0xbf5021c9	-0.8130155
102	0x3f79ad7a	0.9753033
103	0xbdbce7c3	-0.092238925
104	0xbf3cbebe	-0.7372855
105	0xbf9cadb1	-1.2240506
106	0xbe11b2b8	-0.14228332
107	0x3e90b7e6	0.28265303
108	0x3efac18c	0.4897579
109	0x3eaa39c6	0.33247203
110	0x3e37a1e6	0.17932853
111	0x3f436377	0.76323646
112	0x3f81e23a	1.0147164
113	0xbef25b46	-0.4733526
114	0xbfa604f2	-1.2970259
115	0x3e34f42e	0.17671272
116	0x3da64b3e	0.0811982
117	0x3f8d8394	1.105578
118	0x3f4467f7	0.7672114
119	0xbec58e2e	-0.38585037
120	0xbea6b62c	-0.3256086
121	0x3daa41c6	0.083133265
122	0x3e709df8	0.2349776
123	0x3e85ffcb	0.26171717
124	0xbef93a8a	-0.48677474
125	0xbe8b708a	-0.27234298
126	0xbeab98b1	-0.33514932
127	0xbe230c8a	-0.15922752
128	0x3e8b3c42	0.2719441
129	0xbe1e2f0d	-0.15447636
130	0xbeee6dbd	-0.465681
131	0xbe1313dd	-0.14363046
132	0x3e96f06c	0.29480302
133	0xbeaadccb	-0.33371577
134	0xbee52009	-0.44751003
135	0xbec90cb9	-0.3926752
136	0xbe9813fd	-0.2970275
137	0xbf8b8e7d	-1.0902859
138	0xbebe5dc4	-0.37180912
139	0xbd3b0206	-0.045656227
140	0x3ef332b3	0.47499618
141	0x3ea2a22a	0.31764346
142	0x3f240399	0.6406799
143	0x3de0e200	0.10980606
144	0xbe8d3762	-0.27581316
145	0xbe7095a7	-0.23494588
146	0xbf052dcb	-0.52023
147	0xbf32156b	-0.6956393
148	0x3ebe73a4	0.37197602
149	0xbf63aca2	-0.8893529
150	0x3ebaa091	0.36450627
151	0xbf721cdf	-0.94575304
152	0x3f284c13	0.6574108
153	0x3e1124d0	0.14174199
154	0xbe81bd31	-0.25339654
155	0xbe8ae962	-0.27131182
156	0xbd9fe6ff	-0.07807731
157	0xbf734495	-0.9502652
158	0xbed14c6a	-0.40878612
159	0x3d8a904e	0.06765805
160	0x3e17021c	0.14746898
161	0x3ea8fd98	0.33005977
162	0x3e929cbc	0.28635204
163	0xbe7a0354	-0.24415332
164	0xbf9078e6	-1.1286895
165	0xbe6c6f90	-0.23089433
166	0xbe361cc5	-0.17784412
167	0x3f23b78b	0.6395194
168	0x3df0f160	0.11764789
169	0x3f19697e	0.59926593
170	0x3fb1b7e1	1.388424
171	0x3ec41564	0.3829757
172	0x3fbc5cbe	1.4715803
173	0xbf0daa5d	-0.5533808
174	0xbe9a45fa	-0.30131513
175	0xbe6c26ae	-0.2306163
176	0x3eb35fca	0.3503402
177	0xbdde8e15	-0.10866944
178	0x3e4bb4d1	0.19893195
179	0xbecc625d	-0.39918795
180	0xbe93cb41	-0.28866008
181	0x3d96598e	0.073413
182	0x3ecd9b47	0.4015753
183	0xbee57196	-0.44813222
184	0xbf38c11d	-0.7216967
185	0xbc44857f	-0.011994719
186	0xbf3bcb74	-0.7335732
187	0xbe9b342b	-0.30313239
188	0xbeb1a2d1	-0.34694532
189	0x3e8960af	0.26831576
190	0x3ffa3300	1.9546814
191	0x3f3ecd40	0.74531937
192	0x3ebb7f2c	0.36620462
193	0x3f4abba3	0.7919256
194	0xbf96b41e	-1.1773717
195	0xbce7e3fa	-0.02830695
196	0xbf2e0d6f	-0.6798925
197	0xbe0cddc2	-0.13756469
198	0x3e956518	0.2917869
199	0xbe37c5c6	-0.17946538
200	0xbe34bd07	-0.17650233
201	0xbf0b4ef9	-0.5441738
202	0x3eef5988	0.46747994
203	0x3eb57be5	0.35446087
204	0xbfa03b84	-1.2518163
205	0xbfbd752a	-1.4801381
206	0x3f41b792	0.7567073
207	0xbe5effa3	-0.21777205
208	0x3eabb23d	0.33534423
209	0xbef1c844	-0.47223103
210	0x3fac145d	1.3443714
211	0x3eda936b	0.42690596
212	0x3ec55427	0.38540766
213	0x3f40765d	0.7518061
214	0xbf02ad98	-0.51046133
215	0xbf62b045	-0.88550216
216	0xbf1750a6	-0.59107435
217	0xbee89ef8	-0.45433784
218	0x3ed8aa33	0.42317352
219	0xbef451c6	-0.47718638
220	0xbef97874	-0.4872471
221	0xbe9d009c	-0.30664527
222	0x3f02e7db	0.51135033
223	0x3f978b67	1.1839417
224	0xbe82342d	-0.25430432
225	0xbe19e0e8	-0.15027201
226	0xbdd4fb28	-0.10399467
227	0xbf9e4d26	-1.2367294
228	0xbe04c5e8	-0.1296612
229	0x3cc5f896	0.024166387
230	0xbcb150a0	-0.02164489
231	0xbf16022c	-0.58597064
232	0x3efa8a01	0.48933414
233	0xbeaac557	-0.33353683
234	0xbf827446	-1.0191734
235	0x3e3927b7	0.18081556
236	0x3de3b62e	0.111187324
237	0xbdf4e850	-0.119583726
238	0x3e8c3037	0.27380535
239	0x3ef319a3	0.47480497
240	0xbf3307a4	-0.69933534
241	0x3f1a62ea	0.6030718
242	0x3ee1718a	0.44031936
243	0xbf6a2557	-0.91463226
244	0xbf9be8c4	-1.218041
245	0xbf13fa1b	-0.57803506
246	0xbd1e86d0	-0.038702786
247	0xbf4b6b12	-0.7946025
248	0x3effe9c7	0.49983045
249	0xbf8a1bee	-1.0789773
250	0x3e8c3a50	0.2738824
251	0x3d4fc3c2	0.0507238
252	0xbd4ce28d	-0.050020743
253	0x3f0c9bbd	0.5492514
254	0xbf8ed783	-1.1159519
255	0xbf391cfd	-0.7230986

weight_ih_l0 f4 [64, 10]
0	0x3e161559	0.14656581
1	0xbcde6d82	-0.027151827
2	0xbe8f683f	-0.2800922
3	0x3dc70d24	0.09719303
4	0xbd0e4455	-0.034733135
5	0xbe54a06e	-0.20764324
6	0x3dfb514c	0.122713655
7	0xbe34a44e	-0.17640802
8	0xbde6804c	-0.112549394
9	0x3e69fe9c	0.22851032
10	0xbcb8b806	-0.022548687
11	0x3e54bb20	0.20774508
12	0xbe0b5ed7	-0.13610397
13	0x3e8346c3	0.25639924
14	0x3e031d87	0.12804233
15	0xbe459ad7	-0.19297348
16	0x3d8119bc	0.063037366
17	0xbcc3d8dc	-0.023907118
18	0x3d2822b1	0.04104871
19	0x3e0c01e0	0.1367259
20	0x3c49a083	0.012306335
21	0x3d3b8355	0.045779545
22	0x3dc04547	0.093882136
23	0xbe00e130	-0.12585902
24	0x3c0b1bf6	0.008490553
25	0x3db82a4a	0.08992441
26	0xbdb00ab7	-0.08595794
27	0x3e0fbd2e	0.1403701
28	0x3ceefe0c	0.029173873
29	0xbeadfea6	-0.33983344
30	0xbe2621a5	-0.16223772
31	0xbdffb811	-0.1248628
32	0x3c8f6fe0	0.0175094
33	0x3eb6806f	0.35644862
34	0xbdb356c6	-0.08756785
35	0xbd1bb5a2	-0.038015015
36	0x3e595b80	0.2122631
37	0xbbc90b35	-0.006135369
38	0xbe47c8cf	-0.19510196
39	0xbe4a8f24	-0.19781166
40	0xbda4b37a	-0.08042045
41	0x3d3352a3	0.04377998
42	0xbd286bd1	-0.041118447
43	0xbea517f2	-0.3224483
44	0xbe9852ac	-0.29750574
45	0x3d7aa8f7	0.061196294
46	0xbdf337bc	-0.11875865
47	0x3e1ba794	0.15200645
48	0xbe093f09	-0.13402952
49	0xbea1fd92	-0.3163877
50	0xbe0d2855	-0.13784917
51	0xbe440e9b	-0.19146197
52	0x3caa4529	0.020784931
53	0xbe7ddf97	-0.24792324
54	0x3b3ed84e	0.0029120627
55	0x3e1fa0db	0.15588705
56	0x3e03746c	0.1283738
57	0xbe2efc43	-0.17088418
58	0x3e85b18a	0.26112014
59	0xbd5f506a	-0.05452005
60	0xbc982b08	-0.018575206
61	0x3d4889fa	0.04895971
62	0x3e7d9723	0.24764685
63	0x3e7fde8d	0.2498724
64	0xbcc48010	-0.023986846
65	0xbe49b089	-0.19696249
66	0x3e14da51	0.14536406
67	0xbc920b37	-0.017827613
68	0x3d09b292	0.033617564
69	0x3e305b06	0.17222223
70	0xbe59c2d4	-0.21265727
71	0xbe156111	-0.14587809
72	0x3e439e47	0.19103347
73	0x3da0e569	0.078562565
74	0xbe792238	-0.2432946
75	0xbd2a38bd	-0.041558016
76	0x3e810e11	0.25206044
77	0x3d85eedb	0.06539699
78	0x3e80cb39	0.25155047
79	0xbe4e7529	-0.2016188
80	0xbea24749	-0.3169501
81	0x3e1be13e	0.15222642
82	0x3e7f69ab	0.24942653
83	0xbe7b6771	-0.24551179
84	0xbd92bd64	-0.0716503
85	0xbd93db0c	-0.07219514
86	0x3e091499	0.13386764
87	0xbe68606d	-0.22693034
88	0x3ddec9f8	0.10878366
89	0xbe78be2a	-0.24291292
90	0x3e93065d	0.28715792
91	0x3d5e71b2	0.054307647
92	0xbe265b29	-0.16245712
93	0x3e0456f2	0.12923792
94	0x3d22abfb	0.039714795
95	0x3e1da56a	0.15395132
96	0xbe6691ef	-0.22516607
97	0xbdf0f645	-0.11765722
98	0xbe436ef0	-0.19085288
99	0x3ce03308	0.027368084
100	0x3c8bb19e	0.017052468
101	0xbcdef043	-0.027214175
102	0x3e520274	0.20508748
103	0xbe8f4593	-0.27982768
104	0xbd80f556	-0.06296794
105	0x3e9917f8	0.299011
106	0x3e80b151	0.25135282
107	0x3e653ba6	0.22386035
108	0xbde93e5c	-0.11388847
109	0xbda34d8f	-0.079737775
110	0xbdedc9b0	-0.116107345
111	0x3d5c5e43	0.053800832
112	0xbe4d4e3a	-0.20049372
113	0xbe14b8f1	-0.14523675
114	0x3d8afead	0.06786857
115	0xba21e74d	-0.0006176129
116	0xbd91df88	-0.07122713
117	0xbe48b452	-0.19600037
118	0xbe413c41	-0.18870641
119	0xbd1084ba	-0.035282828
120	0xbe2ca5fa	-0.1686019
121	0x3d99cf83	0.07510283
122	0x3c17b785	0.009260063
123	0xbe622529	-0.22084488
124	0x3e5147d7	0.20437561
125	0x3e18e349	0.14930452
126	0x3d938056	0.072022125
127	0x3e31c1de	0.1735911
128	0x3e8a7f09	0.27050045
129	0xbe3dcc3e	-0.18534943
130	0x3e60b92f	0.21945642
131	0x3e971639	0.29509142
132	0x3d0f49fb	0.034982663
133	0xbe5c71f4	-0.21527845
134	0xbdd2046c	-0.1025475
135	0x3deeabe1	0.11653877
136	0xbe43874f	-0.19094585
137	0xbe4b1642	-0.1983271
138	0x3dd7372f	0.10508572
139	0x3de3afbe	0.111175045
140	0x3cd311e2	0.025765363
141	0x3e00e4fc	0.1258735
142	0x3e90a2ae	0.28249115
143	0x3ea12203	0.3147126
144	0x3d9e0d23	0.077173494
145	0xbdf7045f	-0.120613806
146	0x3e3ac32d	0.18238516
147	0x3da6e8e6	0.081498906
148	0xbe4d1cb0	-0.20030475
149	0xbc9fc6bd	-0.019503945
150	0x3dd0e79a	0.102004245
151	0x3d43dc0a	0.047817267
152	0xbcdef838	-0.02721797
153	0x3e9b6f7b	0.3035849
154	0x3e0ac09c	0.13550037
155	0xbd1369ea	-0.03598968
156	0x3e1d25ca	0.15346447
157	0x3e1076a7	0.14107762
158	0x3e96a46b	0.29422316
159	0x3d22efc3	0.039779436
160	0xbb673480	-0.0035279095
161	0x3e7d5c8e	0.24742338
162	0x3deb36d8	0.1148507
163	0xbe196c4c	-0.14982718
164	0x3db0f4fc	0.08640477
165	0xbe7814cc	-0.24226683
166	0xbde46db8	-0.1115374
167	0xbe44eb18	-0.19230306
168	0xbd188678	-0.037237614
169	0x3e7d3fa8	0.24731314
170	0x3e7a6f6a	0.24456564
171	0xbb1e1b80	-0.0024125278
172	0xbdd1cce0	-0.10244155
173	0x3e329e12	0.17443112
174	0xbdf859e8	-0.12126523
175	0xbb9b6100	-0.004741788
176	0x3d8520c0	0.06500387
177	0xbe46cc5e	-0.19413897
178	0x3e389558	0.1802572
179	0xbdabee58	-0.0839507
180	0xbe33cb5a	-0.17558041
181	0xbcfba310	-0.030717403
182	0x3e4797c8	0.19491494
183	0x3dcdf5bc	0.10056636
184	0xbe6700ac	-0.2255885
185	0x3e5473e2	0.20747331
186	0x3c68ebc0	0.014216363
187	0x3e02938e	0.127516
188	0x3e22bb64	0.15891796
189	0xbe4d9f38	-0.20080268
190	0xbd2a3a00	-0.04155922
191	0x3de05eac	0.10955557
192	0x3d63c440	0.05560708
193	0xbe0dca2a	-0.1384665
194	0x3d6a1aa8	0.057154328
195	0xbe33b0c6	-0.17547902
196	0x3e141ce6	0.14464149
197	0x3e4bab18	0.19889486
198	0xbdf5328c	-0.11972532
199	0x3e6270f6	0.22113404
200	0xbd26ae60	-0.04069364
201	0xbe459fba	-0.19299212
202	0x3e3bd21c	0.18341869
203	0xbdea0b44	-0.1142793
204	0x3e21d09e	0.15802237
205	0x3e715736	0.23568425
206	0xbe29092a	-0.16507402
207	0x3d792138	0.060822695
208	0xbdb5fef4	-0.08886519
209	0x3e5487fa	0.20754996
210	0x3c9f9ba0	0.019483387
211	0xbd8eff28	-0.06982261
212	0xbe006ec8	-0.1254226
213	0x3e5ab9fa	0.21360007
214	0x3deafe58	0.114742935
215	0xbe26bf84	-0.16283995
216	0x3db95b20	0.09050584
217	0x3d4abb60	0.0494951
218	0x3db8518c	0.08999929
219	0x3e5fc954	0.21854144
220	0x3d1dbf50	0.038512528
221	0x3cffc2b0	0.031220764
222	0x3d01cf18	0.03169164
223	0xbe2e6a7c	-0.17032808
224	0xbd191708	-0.03737548
225	0xbe57d6e8	-0.21078074
226	0x3e2530be	0.16131875
227	0xbcd49df0	-0.025954217
228	0x3e4ab4a6	0.19795474
229	0x3e751754	0.2393468
230	0x3b70e800	0.0036759377
231	0xbd433118	-0.04765424
232	0xbd9eb81c	-0.0774996
233	0x3d8fe670	0.07026374
234	0xbe35aa22	-0.17740682
235	0x3e323292	0.17402104
236	0x3dc6e058	0.09710759
237	0x3d0f26e0	0.034949183
238	0xbdcf3204	-0.101169616
239	0x3d9c53cc	0.076331705
240	0x3e3010f4	0.17193967
241	0x3db222d4	0.08698049
242	0xbdab1158	-0.083529174
243	0xbd0576d8	-0.03258404
244	0xbe1687ee	-0.1470029
245	0xbe25cc46	-0.16191205
246	0xbdc7c45c	-0.097542495
247	0xbe113e92	-0.14184025
248	0x3e09e576	0.13466439
249	0x3e6b31a8	0.22968161
250	0xbda3cdd0	-0.0799824
251	0x3e7394ca	0.23787227
252	0xbe0123c8	-0.12611306
253	0xbddfff48	-0.10937363
254	0x3acc8600	0.00156039
255	0x3c759a20	0.01499036

weight_hh_l0 f4 [64, 16]
0	0x3df9d26c	0.12198338
1	0xbdf2f27c	-0.118626565
2	0x3e7d92ce	0.24763033
3	0xbdcaf5d4	-0.09910169
4	0x39c0a400	0.00036743283
5	0xbe2d5020	-0.16925097
6	0x3dbac328	0.09119254
7	0x3e116f60	0.14202642
8	0x3dc77754	0.09739557
9	0x3d4b02a8	0.04956308
10	0xbe0abe5c	-0.13549179
11	0xbe1beb1a	-0.15226403
12	0x3d3dec48	0.046367913
13	0x3e1e159a	0.15437928
14	0xbcf2c110	-0.029633075
15	0xbddb7348	-0.107153475
16	0xbd5602c0	-0.052248716
17	0xbe496eea	-0.19671217
18	0xbe60ff5e	-0.21972415
19	0xbe18a084	-0.14904982
20	0xbdc2bab4	-0.09508267
21	0x3dcfa958	0.10139722
22	0xbd668958	-0.056283325
23	0x3b366a80	0.0027834475
24	0x3e0743fa	0.13209525
25	0x3e3febac	0.18742245
26	0x3e3916f6	0.18075165
27	0x3dfb0860	0.12257457
28	0x3dd429c0	0.10359526
29	0xbd859840	-0.0652318
30	0x3df4cd44	0.11953214
31	0xbe2444c8	-0.16041863
32	0x3d2a13d0	0.0415228
33	0x3e19f2f8	0.15034091
34	0xbe176476	-0.14784417
35	0xbda361c0	-0.07977629
36	0x3e3da6e8	0.18520701
37	0x3d7305f0	0.059331834
38	0x3dd237c4	0.10264543
39	0xbe37268e	-0.17885801
40	0xbd4d5090	-0.05012566
41	0x3e1e5f9a	0.15466157
42	0x3be2ca40	0.0069210827
43	0x3d206ff0	0.039169252
44	0xbe14e2d8	-0.14539659
45	0x3de50ba0	0.11183858
46	0x3da4673c	0.08027503
47	0xbe00234c	-0.12513465
48	0x3e18d91a	0.14926568
49	0xbe53d926	-0.20688304
50	0xbe31eac6	-0.17374715
51	0x3e7dc764	0.24783093
52	0xbcb7e2e0	-0.02244705
53	0x3e621bd2	0.22080925
54	0x3b00e800	0.0019669533
55	0x3e261230	0.16217875
56	0xbd663840	-0.056205988
57	0x3de6fc98	0.11278647
58	0xbdc4de4c	-0.09612712
59	0xbd66e928	-0.0563747
60	0xbc004ca0	-0.007830769
61	0x3e304f54	0.17217761
62	0xbd9e1c10	-0.07720196
63	0x3db8e94c	0.09028873
64	0x3d2ba6a8	0.041906983
65	0xbe6dd992	-0.23227528
66	0xbe4c7d36	-0.19969639
67	0xbe58ae78	-0.21160305
68	0x3b155a00	0.002278924
69	0x3d05ed80	0.0326972
70	0x3e5aa748	0.21352875
71	0xbe0795e6	-0.13240775
72	0xbe411922	-0.18857244
73	0xbe39c09e	-0.18139884
74	0x3e5275b0	0.20552707
75	0xbd432be0	-0.047649264
76	0xbe485efc	-0.19567484
77	0x3dbf2338	0.09332889
78	0xbe5df8a0	-0.21676874
79	0x3db98ad4	0.090596825
80	0xbd9d05a0	-0.076670885
81	0xbe3cda70	-0.18442702
82	0xbdc89690	-0.097943425
83	0x3d803ae0	0.062612295
84	0xbd9aa870	-0.07551658
85	0xbe04dc08	-0.1297456
86	0x3e0b7eb8	0.13622558
87	0x3cc39260	0.023873508
88	0x3e45e746	0.19326505
89	0xbd958c2c	-0.07302126
90	0xbe363818	-0.17794836
91	0x3da8b650	0.08237898
92	0x3dbb5c5c	0.091484755
93	0xbda54854	-0.08070436
94	0xbdff3094	-0.124604374
95	0x3e780d02	0.24223712
96	0xbe09be50	-0.13451505
97	0x3d6080b8	0.054810256
98	0xbe15f046	-0.14642438
99	0x3e41f416	0.18940768
100	0xbe1a514c	-0.15070075
101	0xbc2b6c20	-0.010462791
102	0xbe112068	-0.14172518
103	0x3c74cee0	0.014941901
104	0x3e36bba0	0.17845011
105	0xbcf72f40	-0.030173898
106	0x3e1eab2e	0.15494987
107	0x3e21c454	0.1579755
108	0x3df95fd8	0.12176484
109	0x3e46adfa	0.19402304
110	0x3ddc94e4	0.10770586
111	0x3df41098	0.119172275
112	0x3e60fa16	0.219704
113	0x3e13229c	0.14368671
114	0xbe61de66	-0.22057495
115	0x3e22a334	0.1588257
116	0xbd484370	-0.04889244
117	0xbe589c72	-0.21153429
118	0x3e4f78e6	0.20260963
119	0x3e01b862	0.12667993
120	0x3e79431e	0.2434201
121	0x3e2de120	0.1698041
122	0x3e108554	0.1411336
123	0x3c3ed900	0.0116484165
124	0xbe4343ac	-0.19068784
125	0xbe7f8dbe	-0.24956414
126	0xbe348bd8	-0.17631471
127	0x3e69077a	0.22756758
128	0x3dccdb08	0.100027144
129	0x3d9f035c	0.077643126
130	0x3e4b7304	0.19868094
131	0x3e4c8004	0.19970709
132	0x3e0664b6	0.13124356
133	0xbe51fdd6	-0.20506987
134	0x3c746220	0.014915973
135	0xbd75c018	-0.059997648
136	0xbdfd395c	-0.12364456
137	0x3b057d00	0.0020368695
138	0x3de75450	0.11295378
139	0x3c435b20	0.011923581
140	0xbe0dd580	-0.13850975
141	0xbe5fa7ac	-0.21841305
142	0xbe0daf04	-0.13836294
143	0x3e2598fe	0.16171643
144	0x3cac42c0	0.021027923
145	0xbe0f985a	-0.14022961
146	0xbdc92a7c	-0.098225564
147	0x3ce50890	0.027958184
148	0x3c558400	0.0130319595
149	0xbe092602	-0.13393405
150	0x3d5ee160	0.054414153
151	0xbcb7a0b0	-0.022415489
152	0x3e669f22	0.22521642
153	0x3e368880	0.17825508
154	0xbddd8028	-0.108154595
155	0xbda469a4	-0.08027962
156	0xbbb287c0	-0.0054483116
157	0x3d838acc	0.06422958
158	0xbe08134a	-0.13288608
159	0xbd8276f8	-0.06370348
160	0x3e61927e	0.22028539
161	0x3e719cf8	0.23595035
162	0x3c4c7240	0.012478411
163	0xbcbe2490	-0.023210794
164	0x3e33b444	0.17549235
165	0x3de55788	0.11198336
166	0x3daffbec	0.08592972
167	0xbdc21544	-0.09476712
168	0xbe77505e	-0.24151751
169	0x3e3ecf7e	0.1863384
170	0xbe2ebb38	-0.17063606
171	0xbe40fc2e	-0.18846199
172	0x3e5732ee	0.21015522
173	0x3ce0ece0	0.0274567
174	0xbdfd377c	-0.123640984
175	0x3d9b0248	0.075687945
176	0x3dc59b80	0.096488
177	0xbe0405ba	-0.1289281
178	0xbbae0a40	-0.0053112805
179	0xbe5cc966	-0.21561202
180	0x3c016960	0.0078986585
181	0xbd938f84	-0.07205108
182	0x3de4f3a4	0.11179283
183	0xbe3e7f48	-0.18603241
184	0xbe5b60c2	-0.21423629
185	0x3c7ff460	0.015622228
186	0xbbf95a80	-0.0076096654
187	0xbe5c3d38	-0.21507728
188	0xbe225496	-0.1585258
189	0x3d994670	0.07484138
190	0x3e4c6380	0.19959831
191	0x3e70d800	0.23519897
192	0x3b395900	0.0028281808
193	0x3e6524ce	0.22377321
194	0x3d443310	0.04790026
195	0x3e50fd08	0.20409024
196	0xbe24f542	-0.16109183
197	0x3db337fc	0.087509125
198	0x3c211a20	0.009832889
199	0x3de3e0a0	0.11126828
200	0x3e306bf6	0.17228684
201	0xbe3b81b0	-0.1831119
202	0xbde3ce04	-0.11123279
203	0xbe02418a	-0.12720314
204	0xbe6599f6	-0.22422013
205	0x3e1a7d04	0.15086752
206	0x3e0a039e	0.13477942
207	0x3c1e45e0	0.009660214
208	0xbd6cd718	-0.057822317
209	0x3cff6730	0.031177133
210	0xbd8110c0	-0.06302023
211	0x3d8899bc	0.066699475
212	0x3e0127b4	0.12612802
213	0x3e0d0fb2	0.13775519
214	0xbdd939c4	-0.10606721
215	0xbe6ef37c	-0.2333507
216	0x3dafe908	0.08589369
217	0x3cc7b8a0	0.024380028
218	0xbd3b0fa0	-0.045669198
219	0xbe3dc428	-0.18531859
220	0xbdc61ff8	-0.09674066
221	0x3d7a5de8	0.061124712
222	0x3e175d98	0.14781797
223	0x3e3dea98	0.18546522
224	0x3e7f3b80	0.24925041
225	0xbe5b10e8	-0.21393168
226	0x3e59452c	0.21217793
227	0x3ddd506c	0.10806355
228	0xbe01f288	-0.12690175
229	0x3b917300	0.004438758
230	0xbe51bb6e	-0.20481655
231	0x3d88d990	0.06682122
232	0xbdce9730	-0.100874305
233	0x3d4beb58	0.04978499
234	0x3e6f71f6	0.23383316
235	0x3e404250	0.18775296
236	0x3d9ec7b4	0.07752934
237	0x3d701908	0.05861762
238	0x3e5f8c78	0.21830928
239	0xbdb585c0	-0.088634014
240	0x3e4ada34	0.198098
241	0xbe3f5e90	-0.18688416
242	0x3e56dc56	0.20982489
243	0x3d8ffabc	0.07030246
244	0x3e661e52	0.22472504
245	0xbd8f4060	-0.069947004
246	0x3e498f14	0.19683486
247	0x3e493894	0.19650489
248	0x3e1a785c	0.15084976
249	0x3d5232d0	0.05131799
250	0xbd8fdda0	-0.070246935
251	0x3e0a7650	0.13521695
252	0xbe0dda44	-0.13852793
253	0xbdc4302c	-0.095795006
254	0x3dc96bc0	0.09835005
255	0x3dc80aa0	0.097676516

bias_ih_l0 f4 [64]
0	0x3e69bf21	0.22826816
1	0x3e2fc384	0.17164427
2	0x3e80c898	0.2515304
3	0x3dae2863	0.08503797
4	0x3d3458e0	0.04403007
5	0xbd0df540	-0.034657717
6	0x3e1dc194	0.15405875
7	0x3eac8866	0.33697814
8	0xbd67299d	-0.05643617
9	0xbe0cddfb	-0.13756554
10	0x3ea049f9	0.31306437
11	0x3e590a8f	0.21195434
12	0x3c1dafba	0.009624416
13	0x3e8012be	0.250143
14	0x3ba804f7	0.005127545
15	0x3e83b3db	0.25723156
16	0x3ddc60f4	0.1076068
17	0xbdf614a0	-0.12015653
18	0xbe61d2a2	-0.22053006
19	0x3de93520	0.11387086
20	0xbdd1ca94	-0.10243717
21	0xbe0b491a	-0.13602105
22	0x3dc0a618	0.0940668
23	0x3e3cfb18	0.1845516
24	0x3d165fc0	0.036712408
25	0xbe08ec62	-0.13371423
26	0x3dea1314	0.1142942
27	0x3dbc8554	0.09205118
28	0x3d4ffa20	0.050775647
29	0x3e514578	0.20436656
30	0xbd8a0f34	-0.06741181
31	0x3e05320c	0.13007373
32	0x3dc610d8	0.096711814
33	0xbe4d3310	-0.2003901
34	0x3e798f6c	0.24371117
35	0xbdcb7d0f	-0.099359624
36	0x3e15af0c	0.14617556
37	0x3e1ca7e5	0.15298422
38	0xbd5fbe4d	-0.054624844
39	0xbde3be33	-0.11120262
40	0x3ea52e16	0.32261723
41	0x3e383c23	0.1799169
42	0x3ace0903	0.0015719238
43	0x3dab8c61	0.083763845
44	0x3ce85226	0.028359484
45	0xbda6dc22	-0.08147456
46	0x3e27770d	0.16354008
47	0xbe215122	-0.15753606
48	0x3cac2f54	0.021018662
49	0x3d2d5a96	0.042322718
50	0xbc2756a0	-0.010213524
51	0x3e872ecd	0.26402894
52	0x3e171ec2	0.14757827
53	0x3e9fc893	0.31207713
54	0x3e17731d	0.14790006
55	0xbdd5d630	-0.10441244
56	0x3d323fa0	0.04351771
57	0xbc36716a	-0.011135438
58	0xbd3c1027	-0.04591384
59	0x3b55da8c	0.0032631485
60	0x3ce90339	0.02844392
61	0x3e2039b7	0.15647016
62	0x3e8c39e4	0.27387917
63	0x3ea62168	0.32447362

bias_hh_l0 f4 [64]
0	0x3e3c074b	0.18362157
1	0x3e898b93	0.268643
2	0x3e4b1bad	0.19834776
3	0x3e97a80b	0.29620394
4	0xbdf24116	-0.118288204
5	0x3e8a0ff5	0.269653
6	0x3e90515d	0.28187075
7	0xbdf30c34	-0.11867562
8	0xbe137d69	-0.14403309
9	0xbd4112c9	-0.047137056
10	0x3d37112d	0.044694114
11	0x3ec0989b	0.3761643
12	0x3e376376	0.17909035
13	0xbb12c5c7	-0.0022395717
14	0x3e7e0a89	0.24808706
15	0x3eac4c57	0.33651993
16	0x3dbe6180	0.092959404
17	0x3da981c0	0.08276701
18	0x3e2d1d02	0.16905597
19	0x3d08e750	0.03342372
20	0x3d51bda8	0.05120626
21	0xbdb160f4	-0.086610705
22	0x3e6cf6ea	0.23141065
23	0x3e4825b0	0.19545627
24	0xbe0c309a	-0.13690415
25	0x3e6e13d0	0.23249745
26	0x3e6d3c50	0.23167539
27	0xbe2adc40	-0.16685581
28	0x3e6ceeaa	0.23137918
29	0x3d4d9b20	0.050196767
30	0x3c0334e0	0.008008212
31	0xbe0ab7c8	-0.1354667
32	0x3d0f7617	0.03502473
33	0x3de303e1	0.11084724
34	0xbc9922b1	-0.0186933
35	0x3e265919	0.16244926
36	0x3e8fbd6c	0.28074205
37	0xbd2502c0	-0.040285826
38	0x3d0c45a5	0.034246106
39	0xbe3b0bbe	-0.18266198
40	0xbbe26144	-0.0069085676
41	0xbe5fcc97	-0.21855389
42	0x3d09ac63	0.033611666
43	0x3da712b3	0.081578635
44	0xbb8681fa	-0.00410485
45	0x3d6f4f2e	0.05842512
46	0x3e4ab89b	0.19796984
47	0x3b7e2322	0.0038778265
48	0x3afa0799	0.0019075751
49	0xbd615b2e	-0.055018596
50	0xbdf52218	-0.119693935
51	0x3e7c5fb4	0.24645883
52	0x3ea10b3d	0.31453887
53	0x3e33d571	0.1756189
54	0x3e6635cd	0.22481461
55	0x3e76f0e7	0.24115334
56	0x3e1f73c0	0.15571499
57	0x3d021656	0.031759582
58	0xbddb6487	-0.107125334
59	0x3e3881e0	0.18018293
60	0x3ea40f3b	0.3204287
61	0x3e049a67	0.12949525
62	0x3eb86f32	0.36022335
63	0xbd93b01f	-0.07211327

weight_ih_l1 f4 [64, 16]
0	0x3e943018	0.28942943
1	0xbe671ec3	-0.22570328
2	0xbd5a62c0	-0.05331683
3	0xbe37f77d	-0.17965503
4	0x3e871ca8	0.2638905
5	0x3ea134c1	0.3148556
6	0xbccb14a7	-0.024790121
7	0xbdd8716d	-0.10568509
8	0x3e962e3d	0.29332152
9	0x3ea87061	0.32898238
10	0xbbfb5ea4	-0.007671194
11	0x3e8b830d	0.2724842
12	0xbda6817b	-0.08130165
13	0x3da9327a	0.08261581
14	0xbe3906cb	-0.18068998
15	0x3ceda968	0.029011443
16	0x3db8698f	0.09004509
17	0x3d8c3365	0.0684574
18	0xbe13ece8	-0.14445841
19	0xbcae0c43	-0.021246081
20	0x3e4e685e	0.20157
21	0xbd96de42	-0.07366611
22	0xbe31eb24	-0.17374855
23	0x3e03f80e	0.12887594
24	0x3e8fb770	0.2806964
25	0x3deb127d	0.11478136
26	0x3e00886d	0.12552042
27	0x3d4e6d21	0.050397042
28	0xbe00e23b	-0.125863
29	0xbe613cab	-0.21995799
30	0xbe70db51	-0.23521163
31	0x3e086fbc	0.13323873
32	0xbb471416	-0.0030376962
33	0x3d9f64fe	0.077829346
34	0xbe7a2a84	-0.24430281
35	0xbc65fc76	-0.014037242
36	0xbd356e08	-0.044294387
37	0xbe4327c5	-0.1905814
38	0xbe467891	-0.1938193
39	0x3e1be9b2	0.15225866
40	0x3daf9f0a	0.08575256
41	0xbe615a2d	-0.22007056
42	0xbdb84d5a	-0.08999129
43	0xbddf9d74	-0.10918704
44	0xbdb76280	-0.08954334
45	0xbe2367a6	-0.15957507
46	0xbe2cbaa7	-0.16868077
47	0xbe87e67c	-0.26543033
48	0xbe405cb7	-0.18785368
49	0xbcb4779a	-0.022029687
50	0xbe15d039	-0.14630212
51	0xbe0225f2	-0.12709787
52	0x3db68966	0.089129254
53	0xbdfa101d	-0.122101046
54	0xbd840749	-0.06446702
55	0x3e47157c	0.1944179
56	0xbdee0c99	-0.116234966
57	0xbe975181	-0.2955437
58	0xbcde1b7d	-0.027112717
59	0xbdbc84e4	-0.092050344
60	0xbe638213	-0.22217588
61	0xbd0330cd	-0.032028962
62	0xbe17460b	-0.14772813
63	0x3e276873	0.16348438
64	0x3e90fafa	0.2831648
65	0xbed93246	-0.42421168
66	0x3d289589	0.041158233
67	0x3d8f1ed1	0.069883
68	0xbcab9067	-0.02094288
69	0x3cbf9621	0.023387017
70	0x3cbe755f	0.023249326
71	0xbc1dae01	-0.009624005
72	0x3bed35ec	0.007239094
73	0x3ccb822e	0.024842348
74	0x3dfec977	0.1244077
75	0xbdc28e85	-0.0949984
76	0xbd88bb03	-0.06676295
77	0x3de9d9bb	0.11418482
78	0x3e6e5994	0.23276359
79	0xbea25cc0	-0.31711388
80	0xbe22eb8e	-0.1591017
81	0xbe8b2a5f	-0.27180764
82	0xbe0390b0	-0.12848163
83	0xbeaa6c84	-0.33285916
84	0x3e648878	0.22317684
85	0xbdbe19ec	-0.09282288
86	0xbe91fa25	-0.28511158
87	0xbde6e759	-0.11274595
88	0xbd65d002	-0.056106575
89	0x3e259ec7	0.1617385
90	0xbe4934d9	-0.19649066
91	0x3ea5fe34	0.32420504
92	0x3de80178	0.11328405
93	0xbd5a5a1c	-0.05330859
94	0x3e9daf2e	0.30797714
95	0xbe6708aa	-0.22561899
96	0x3d792ed6	0.06083568
97	0xbb91e692	-0.004452535
98	0x3d1ddfef	0.038543638
99	0x3d9c3b49	0.07628495
100	0x3e91f228	0.28505063
101	0x3e2cf4c6	0.16890249
102	0x3cf9f1f0	0.030510873
103	0x3c28917f	0.010288595
104	0x3e8e83d8	0.27834964
105	0x3ca5e93b	0.020252815
106	0x3e97b9f9	0.29634073
107	0xbd6bac8d	-0.057537604
108	0xbdc6d6c5	-0.09708933
109	0x3dc778c8	0.09739834
110	0xbdb3a541	-0.08771754
111	0x3d866c7f	0.06563663
112	0xbe7db65d	-0.24776597
113	0xbe28fc66	-0.16502532
114	0xbd646fbf	-0.055770632
115	0xbe5aaf61	-0.21355964
116	0x3e32a44f	0.17445491
117	0x3d1009f8	0.035165757
118	0x3abe829f	0.0014534778
119	0xbccd431c	-0.025056414
120	0xbd021788	-0.031760722
121	0xbd9cbb15	-0.076528706
122	0x3e1544ab	0.14576976
123	0xbd31f667	-0.04344788
124	0xbd9d461d	-0.07679389
125	0xbe1ed0a6	-0.1550928
126	0xbe4b601a	-0.19860879
127	0x3e1a6a81	0.1507969
128	0x3dc8922e	0.097935066
129	0xbe53c2a0	-0.20679712
130	0xbe40b1c1	-0.18817808
131	0x3d883d88	0.06652361
132	0x3dfde4d2	0.1239716
133	0xbe35dff2	-0.1776121
134	0x3e541dd1	0.20714499
135	0xbeb99459	-0.36245993
136	0x3ec1f693	0.37883434
137	0x3dda4c70	0.106591105
138	0x3e5c2b56	0.21500906
139	0x3df34561	0.11878467
140	0xba804484	-0.0009786044
141	0x3d35e4b0	0.044407547
142	0x3eafa336	0.34304208
143	0xbea9e931	-0.33185723
144	0x3eab6c24	0.33480942
145	0xbd14c048	-0.036316186
146	0xbe2ec81a	-0.1706852
147	0x3de08b41	0.109640606
148	0x3cea12c1	0.028573396
149	0x3e760bc6	0.24027929
150	0xbc05f5ae	-0.00817625
151	0xbe07b1dc	-0.13251442
152	0x3e5e4ed7	0.21709763
153	0xbc8265ad	-0.015917623
154	0x3e01fb4a	0.12693515
155	0x3eaee1f5	0.34156767
156	0x3c6e21fe	0.014534472
157	0xbe403d69	-0.18773426
158	0x3dd8459e	0.105601534
159	0xbea87087	-0.32898352
160	0x3e458208	0.19287884
161	0x3e0f3d95	0.13988335
162	0xbd9463bd	-0.07245586
163	0x3dac8f35	0.08425752
164	0x3e518da3	0.20464186
165	0xbce02644	-0.027361996
166	0xbe5bb66a	-0.21456304
167	0x3e5f8882	0.21829417
168	0x3e2899e6	0.16464958
169	0xbd112b2d	-0.035441566
170	0x3e27c504	0.16383749
171	0x3e169b6a	0.14707723
172	0x3d10026b	0.035158556
173	0xbe4d058c	-0.20021647
174	0x3bb8d46f	0.0056405584
175	0x3e51b43f	0.20478915
176	0xbcdd8521	-0.02704102
177	0xbdcadfda	-0.099059775
178	0xbd896b88	-0.06709963
179	0x3e22b2af	0.15888475
180	0x3cfb442a	0.030672152
181	0x3d9a7f3c	0.07543799
182	0x3deda6ca	0.11604078
183	0x3de915b2	0.11381091
184	0xbe0731d3	-0.132026
185	0x3e8d7f9f	0.2763643
186	0x3b36a5fc	0.002786993
187	0x3d0b5a70	0.034021795
188	0xbe3b0a61	-0.18265678
189	0x3dbaf193	0.09128108
190	0x3ed0d7d9	0.4078968
191	0x3d602a29	0.054727707
192	0x3edee118	0.43531108
193	0xbe8eae43	-0.27867326
194	0xb9c5d318	-0.00037732045
195	0xbea47eb5	-0.3212792
196	0x3eb6cda1	0.35703757
197	0x3d85c163	0.06531026
198	0x3e11001b	0.14160196
199	0xbde05056	-0.10952823
200	0x3ebc6c41	0.3680134
201	0xbe0b8d36	-0.13628086
202	0x3e2c717e	0.16840169
203	0x3dca2c11	0.09871686
204	0x3e03bba2	0.12864545
205	0x3e18e6eb	0.14931838
206	0x3dae8493	0.0852138
207	0xbdeb0c89	-0.11477
208	0xbdfb5561	-0.12272144
209	0x3eb2f0a6	0.34949225
210	0x3de9e1fd	0.11420057
211	0x3eaff460	0.3436613
212	0xbdb7ea53	-0.08980241
213	0x3ebe2f43	0.37145433
214	0x3e3aedb0	0.18254733
215	0xbebdebf6	-0.37094086
216	0x3e861e4b	0.26194987
217	0x3dcf5a96	0.101247
218	0x3e6b8a8c	0.2300207
219	0xbe15ae42	-0.14617255
220	0xbe73ecfd	-0.23820873
221	0xbe18497c	-0.14871782
222	0xbe2faa94	-0.17154914
223	0xbdce4248	-0.10071236
224	0x3e413bcd	0.18870468
225	0xbd55b5f0	-0.052175462
226	0x3e440ed2	0.19146279
227	0xbe016d12	-0.12639263
228	0xbded0c21	-0.11574579
229	0x3cc6b65a	0.024256874
230	0x3e5fa9d9	0.21842135
231	0x3e4dfa5d	0.20115037
232	0x3e82dd5d	0.25559512
233	0xbd7d3b92	-0.06182439
234	0x3e205e5b	0.15660994
235	0x3c9800e2	0.018555108
236	0x3e3c6d0c	0.18400973
237	0x3e446312	0.19178417
238	0x3bd4d4fe	0.006495117
239	0xbd821e1d	-0.063534
240	0x3eaa0271	0.33204988
241	0xbe327d15	-0.17430528
242	0xbd4f5045	-0.05061366
243	0x3e98cbe1	0.29843047
244	0x3e2c8755	0.168485
245	0x3e8e8c24	0.27841294
246	0xbe1ee2d1	-0.15516211
247	0xbc9070cd	-0.017631913
248	0x3dedb7e7	0.11607342
249	0xbe0e4597	-0.13893734
250	0x3dbc25e1	0.09186912
251	0x3dba0785	0.090834655
252	0x3cdbb802	0.02682114
253	0xbd545fae	-0.05184906
254	0xbe524f0c	-0.20537966
255	0xbe89520f	-0.26820418

weight_hh_l1 f4 [64, 16]
0	0xbc7dd680	-0.015493035
1	0xbe22634e	-0.15858194
2	0x3e2f8648	0.17141068
3	0x3cf68cc0	0.030096412
4	0xbe0e8940	-0.13919544
5	0x3e304364	0.17213207
6	0xbdcdf764	-0.10056952
7	0xbd1c1a48	-0.038111
8	0xbdf13570	-0.117777705
9	0xbe7ee95e	-0.2489371
10	0x3d167bb0	0.03673905
11	0x3dcda640	0.10041475
12	0xbe370d24	-0.17876107
13	0xbe09d17c	-0.13458818
14	0x3e630536	0.22169957
15	0xbdc0f900	-0.09422493
16	0x3d84e8a0	0.06489682
17	0x3dce6004	0.10076907
18	0xbd505838	-0.050865382
19	0xbd84c148	-0.06482178
20	0x3e3fae8e	0.18718931
21	0xbe63eb58	-0.22257745
22	0xbe5d0b36	-0.21586308
23	0x3d706f00	0.058699608
24	0xbde00fbc	-0.10940501
25	0xbdc1ff4c	-0.09472522
26	0x3e4cbd2a	0.19994035
27	0x3e7009ac	0.2344119
28	0xbd26b618	-0.040701002
29	0x3dcf0340	0.10108042
30	0x3de1562c	0.11002764
31	0xbe336a00	-0.17520905
32	0xbe12cd78	-0.14336193
33	0xbdb54ee4	-0.08852938
34	0xbe2d780e	-0.16940328
35	0x3e50ebcc	0.2040245
36	0xbe4826b0	-0.19546008
37	0x3c6138a0	0.013746411
38	0xbd7492b0	-0.059710205
39	0xbe201ab0	-0.1563518
40	0x3e0b5f08	0.1361047
41	0xbc8deea0	-0.0173257
42	0xbe53b9f2	-0.20676401
43	0xbdac942c	-0.08426699
44	0xbc85a9f0	-0.016316384
45	0x3ddf0d48	0.10891205
46	0xbe6c2a70	-0.23063064
47	0xbe4ecf84	-0.20196348
48	0x3da8b9cc	0.08238563
49	0x3ca0f0b0	0.019646019
50	0xbe6db4fc	-0.23213571
51	0xbe0b409a	-0.13598862
52	0x3e676c24	0.22599846
53	0xbe3e5684	-0.1858769
54	0x3ddc575c	0.1075885
55	0x3d83def8	0.06439012
56	0x3e3099c4	0.17246157
57	0xbe32d3f6	-0.17463669
58	0xbcb353a0	-0.021890461
59	0x3e66863e	0.22512147
60	0x3e0029ba	0.12515917
61	0x3d7b6d30	0.061383426
62	0x3d88f6c0	0.06687689
63	0xbc90c920	-0.017674029
64	0x3bc42300	0.0059856176
65	0xbdce5ec0	-0.10076666
66	0xbe716de4	-0.23577076
67	0xbe1e3264	-0.1544891
68	0x3d13d4a0	0.036091447
69	0x3e124602	0.14284518
70	0x3db9da40	0.09074831
71	0x3e5c6316	0.21522173
72	0xbe52ad98	-0.20574033
73	0xbdd324b4	-0.10309735
74	0x3e7c54c0	0.24641705
75	0xbe3800e8	-0.17969096
76	0xbcae6430	-0.021288007
77	0x3e6218c2	0.22079757
78	0xbe78c838	-0.24295127
79	0x3e642160	0.22278357
80	0xbe0798be	-0.1324186
81	0x3d8f7aa0	0.07005811
82	0x3e3ab478	0.18232906
83	0xbdf158f8	-0.117845476
84	0x3e70d92e	0.23520347
85	0xbe794036	-0.24340901
86	0x3e3862ce	0.18006441
87	0x3e5b75b4	0.21431619
88	0xbd9c8c38	-0.07643932
89	0x3e3e75b2	0.18599585
90	0xbd8dcdf4	-0.06924048
91	0xbddadb08	-0.10686308
92	0x3dd647a8	0.10462886
93	0xbdc75b04	-0.09734157
94	0xbe02545a	-0.1272749
95	0x3e0dced4	0.1384843
96	0xbe068ea2	-0.13140348
97	0x3e1ac1f4	0.1511305
98	0x3e66b258	0.2252897
99	0x3de5f458	0.112282455
100	0x3d9f15c8	0.07767826
101	0x3d93f1ac	0.072238296
102	0x3de02c60	0.10945964
103	0xbdc26db8	-0.094935834
104	0xbd255390	-0.040362895
105	0x3e5d5de6	0.2161785
106	0xbdfacc24	-0.12245968
107	0xbe1e3a32	-0.15451887
108	0x3c4295a0	0.011876494
109	0xbdedc954	-0.11610666
110	0x3cc37020	0.023857176
111	0x3d26d0d8	0.040726513
112	0x3c9d89f0	0.019230813
113	0x3d9eddb0	0.07757127
114	0xbe7a0d50	-0.24419141
115	0x3e51e61a	0.20497933
116	0xbe7f06f6	-0.24904999
117	0xbe416926	-0.18887767
118	0xbe179efc	-0.14806741
119	0x3d78ac30	0.060711086
120	0x3e028ee2	0.12749818
121	0x3dbe58f4	0.0929431
122	0x3e1c0340	0.15235615
123	0x3cc12f90	0.02358225
124	0x3d2592e8	0.040423304
125	0xbe1ef092	-0.15521458
126	0xbe584fe0	-0.2112422
127	0x3e59b294	0.21259528
128	0x3e11c502	0.14235309
129	0x3dc1faf4	0.09471694
130	0xbe400026	-0.18750057
131	0xbe778862	-0.2417312
132	0x3d5bcc30	0.053661525
133	0x3e4ab6bc	0.1979627
134	0x3d809534	0.06278458
135	0x3e46ff4a	0.19433323
136	0x3e4d046c	0.20021218
137	0xbe714f6c	-0.23565453
138	0x3e0e0e22	0.13872579
139	0xbe082bde	-0.13297984
140	0xbe3eea86	-0.18644151
141	0x3e75f80e	0.24020407
142	0xbe6fd8e0	-0.23422575
143	0x3e38bd36	0.18040928
144	0xbdfe54a8	-0.12418491
145	0xbdadb1fc	-0.084812135
146	0x3c3bdc20	0.011466056
147	0xbd00a690	-0.031408846
148	0x3e3aeab6	0.18253598
149	0x3e130a0a	0.14359298
150	0x3e7b1a0e	0.24521658
151	0xbe61c73a	-0.22048655
152	0xbdaf832c	-0.08569941
153	0xbe4dea74	-0.20108968
154	0x3df73e18	0.1207239
155	0xbda5c398	-0.08093947
156	0x3d636660	0.055517554
157	0x3e22baba	0.15891543
158	0xbe32d7a8	-0.17465079
159	0x3c88a000	0.016677856
160	0x3d815e44	0.06316808
161	0xbe250d90	-0.16118455
162	0xbe6ec378	-0.23316753
163	0x3e2a8604	0.16652685
164	0xbe13fa0e	-0.14450857
165	0x3d41c380	0.047305584
166	0xbc39af60	-0.011333317
167	0x3d7b2eb8	0.06132385
168	0xbd684628	-0.05670753
169	0x3e07f1ea	0.13275877
170	0x3e2e54d6	0.1702455
171	0x3de5e50c	0.11225328
172	0x3d236ba8	0.03989759
173	0xbe6cd758	-0.23129022
174	0xbdc8d048	-0.098053515
175	0xbd9746e0	-0.07386565
176	0x3e03a694	0.12856513
177	0xbe7d2914	-0.24722701
178	0x3e02ed70	0.12785888
179	0x3d6001f8	0.054689378
180	0x3e761350	0.24030805
181	0x3e7fb0ea	0.24969831
182	0x3e07a856	0.13247809
183	0xbcb77b50	-0.022397667
184	0x3da6ebd0	0.081504464
185	0xbe16fe8c	-0.1474554
186	0x3e558114	0.2085002
187	0x3e2bee18	0.16790044
188	0x3d21d4c8	0.039509565
189	0x3e22f874	0.1591509
190	0x3e33fb14	0.17576247
191	0x3e12d042	0.14337257
192	0x3b47a300	0.0030462146
193	0xbdfb5a30	-0.12273061
194	0x3dfa62a0	0.122258425
195	0x3e28d1ea	0.16486326
196	0xbe389c98	-0.18028486
197	0x3e4e33a8	0.20136893
198	0x3e2b462e	0.1672599
199	0x3ce90dc0	0.02844894
200	0xbda48244	-0.08032659
201	0xbd5f3f30	-0.05450362
202	0x3e65d65a	0.2244505
203	0xbdf80224	-0.12109783
204	0x3e3907bc	0.18069357
205	0x3e1eb540	0.15498829
206	0xbe429cc0	-0.19005108
207	0xbe325630	-0.1741569
208	0x3e3fb6d8	0.18722093
209	0x3c740960	0.014894813
210	0xbdb6ca04	-0.0892525
211	0x3df512a4	0.11966446
212	0x3db98554	0.090586334
213	0x3e3627ce	0.17788622
214	0xbe1608d4	-0.14651805
215	0xbdfdb7b4	-0.12388554
216	0xbe10bba0	-0.14134073
217	0x3dfdcf6c	0.12393078
218	0xbe626f82	-0.2211285
219	0xbe0b2be2	-0.13590959
220	0xbe082084	-0.13293654
221	0xbe06c85a	-0.13162366
222	0x3e311920	0.1729474
223	0xbc815b20	-0.015790522
224	0xbe69fcda	-0.22850361
225	0xbe05bad6	-0.13059554
226	0xbe12ac7c	-0.1432361
227	0x3e778c64	0.24174649
228	0xbe47b41a	-0.19502297
229	0x3d4a4c28	0.049389035
230	0x3e6d06de	0.23147151
231	0xbdbfba5c	-0.09361717
232	0xbe16692c	-0.14688557
233	0x3e0c6342	0.13709739
234	0x3c9cd200	0.019143105
235	0xbd3e4138	-0.046448916
236	0xbe424770	-0.18972564
237	0xbe4d30bc	-0.20038122
238	0xbdef5e30	-0.11687887
239	0xbe54d2fa	-0.20783606
240	0x3e26bd34	0.16283113
241	0x3e20c7e8	0.15701258
242	0xbe7030b4	-0.23456079
243	0x3e77ae8a	0.24187675
244	0x3da04010	0.07824719
245	0xbdc5cbf0	-0.096580386
246	0xbdab6d68	-0.08370477
247	0x3e6842e0	0.22681761
248	0xbe4ec34e	-0.2019169
249	0xbde9b290	-0.11411011
250	0x3de56768	0.11201364
251	0x3e4cc014	0.19995147
252	0xbcb1f520	-0.02172333
253	0x3e56afea	0.20965543
254	0x3df7ed40	0.12105799
255	0x3e0b651c	0.13612789

bias_ih_l1 f4 [64]
0	0x3ea9b88b	0.33148608
1	0x3d60349f	0.054737683
2	0xbe1d6173	-0.15369205
3	0x3d98d936	0.07463305
4	0x3c8effc3	0.017455941
5	0xbdc7444e	-0.09729825
6	0xbdd86257	-0.10565632
7	0x3e84e443	0.259554
8	0x3e668411	0.22511317
9	0x3d2f0247	0.04272678
10	0xbe1a5dff	-0.15074919
11	0xbcbcd52c	-0.023050867
12	0x3d81614a	0.063173845
13	0x3e44fedc	0.19237846
14	0x3ddde089	0.10833842
15	0xbd5e15ea	-0.054220118
16	0xbe647a62	-0.2231231
17	0x3e6ab912	0.22922161
18	0xbe0d31a0	-0.13788462
19	0x3e04b1be	0.12958428
20	0x3dd6da18	0.10490817
21	0xbd90837c	-0.07056329
22	0x3db44eb8	0.08804077
23	0xbcc661a0	-0.024216473
24	0xbe14abbe	-0.1451864
25	0xbdf6d8b8	-0.120530546
26	0x3e3d67fa	0.18496695
27	0x3e4dbd9a	0.20091859
28	0x3e7ea668	0.24868166
29	0xbe0e0244	-0.13868052
30	0xbd2e42b0	-0.042544067
31	0x3e49af4e	0.1969578
32	0x3e4499ea	0.19199339
33	0x3d6d9d4b	0.058011334
34	0x3e4ab353	0.1979497
35	0x3ceaeb68	0.028676704
36	0x3d43644e	0.04770308
37	0x3de2051d	0.110361315
38	0x3e7dfa80	0.2480259
39	0xbdf6dc80	-0.12053776
40	0x3e7ba007	0.24572764
41	0xbd674a43	-0.056467306
42	0xbe04e159	-0.12976588
43	0xbe13933d	-0.14411636
44	0xbd3e2a22	-0.0464269
45	0xbe471208	-0.19440472
46	0x3e406c77	0.18791376
47	0x3d9e1884	0.0771952
48	0xbce7b7df	-0.028285919
49	0xbd8ef12a	-0.06979592
50	0x3dc4fcb7	0.09618514
51	0x3dfea3d1	0.12433589
52	0x3e7a9469	0.24470676
53	0xbdf5c0ae	-0.11999641
54	0x3dc99f72	0.09844865
55	0x3ce8a4de	0.028398927
56	0x3e803b62	0.25045305
57	0x3e6c2686	0.2306157
58	0x3e0dea9e	0.1385903
59	0x3d911152	0.07083382
60	0x3e1dfafe	0.15427777
61	0x3d1d5513	0.03841121
62	0xbd2f9279	-0.042864297
63	0x3d9c36ea	0.076276615

bias_hh_l1 f4 [64]
0	0x3da2f7be	0.07957409
1	0x3df8c21f	0.12146401
2	0x3e57a143	0.2105761
3	0xbd91726a	-0.07101901
4	0x3ed52d9d	0.41636363
5	0x3d28ae4a	0.04118184
6	0xbdccdfa5	-0.10003594
7	0xbcfe6c47	-0.03105749
8	0x3da75ff0	0.081725955
9	0x3eaf41a3	0.34229764
10	0xbcd75894	-0.026287355
11	0xbcf3c9f8	-0.029759392
12	0x3eaac32f	0.33352038
13	0xbcca5edb	-0.024703434
14	0x3e5408f0	0.20706534
15	0x3e8f6d90	0.28013277
16	0xbd235d90	-0.03988415
17	0xbe3dc1aa	-0.18530908
18	0x3ddf378c	0.108992666
19	0xbe52030c	-0.20508975
20	0x3cf58740	0.029971719
21	0x3e3deebc	0.18548101
22	0x3e5e1432	0.21687391
23	0xbe56613e	-0.20935532
24	0x3e2cd646	0.16878614
25	0x3e4b5a8a	0.19858757
26	0x3db9d960	0.09074664
27	0x3e4c668a	0.1996099
28	0xbe6e033c	-0.23243421
29	0x3e42f984	0.19040495
30	0x3e43376e	0.19064113
31	0xbd9888d0	-0.0744797
32	0xbe3c2a3e	-0.18375489
33	0x3dbf4018	0.09338397
34	0x3e293e87	0.16527759
35	0xbe27e5e5	-0.16396292
36	0xbe52cbd9	-0.20585574
37	0x3e415dbb	0.18883412
38	0x3e34c179	0.17651929
39	0xbe4e62e6	-0.20154914
40	0xbe15d581	-0.14632227
41	0x3e28911f	0.1646161
42	0xbe79db75	-0.24400122
43	0x3da3ace4	0.07991961
44	0x3c8bb932	0.017056081
45	0x3c896ddf	0.016776023
46	0x3e66b3b1	0.22529484
47	0x3c76f471	0.015072928
48	0x3d0207de	0.031745784
49	0x3d9d145c	0.07669899
50	0xbe1b2f0a	-0.15154663
51	0x3d8df86d	0.06932149
52	0x3e15b267	0.14618836
53	0xbd5364e9	-0.051609907
54	0xbe3b388f	-0.18283294
55	0x3e3e4db1	0.18584324
56	0x3e9f8e10	0.31163073
57	0x3e28fc42	0.16502479
58	0x3e1e0f86	0.15435609
59	0x3e97f0a9	0.29675797
60	0x3ebec7bf	0.3726177
61	0x3bca3b0c	0.0061715897
62	0x3e3911ac	0.18073148
63	0x3e904dc7	0.2818434

weight f4 [32, 704]
0	0xbde7980c	-0.113082975
1	0x3d405386	0.046954654
2	0xbaa65334	-0.0012689591
3	0xbc3ce021	-0.011528046
4	0x3e0f1f49	0.13976778
5	0xbc72c6e9	-0.014817932
6	0x3d4b0d5c	0.049573287
7	0x3b8d627b	0.0043147183
8	0xbe27ebb9	-0.16398515
9	0xbd16118d	-0.03663783
10	0xbd1a6eb6	-0.03770324
11	0x3d2fae0e	0.0428906
12	0x3e61b968	0.22043383
13	0xbe19093f	-0.14944933
14	0xbcbc8ff9	-0.02301787
15	0x3e317466	0.17329559
16	0xbe20ec46	-0.15715131
17	0xbd22b558	-0.039723724
18	0xbd1f7566	-0.03893032
19	0x3ccacea4	0.024756737
20	0x3df56c34	0.11983529
21	0xbd636186	-0.055512927
22	0xbbd66d9d	-0.0065438286
23	0x3d1a5488	0.03767827
24	0xbe3c659d	-0.18398137
25	0xbddeda61	-0.10881496
26	0x3cb0a9b3	0.021565294
27	0x3e1b01a4	0.15137345
28	0x3d8fd601	0.0702324
29	0xbd910c91	-0.07082475
30	0xbd051030	-0.03248614
31	0x3d7e6398	0.0621067
32	0xbdaf7170	-0.08566558
33	0x3c796a6a	0.015223125
34	0x3d2b161d	0.041769136
35	0x3b9d0ed2	0.0047930265
36	0x3d99ba34	0.075062186
37	0xbb9aeb05	-0.0047277235
38	0x3cca26d0	0.02467671
39	0xbd2d8819	-0.04236612
40	0xbdf8e64a	-0.12153299
41	0xbc7db5a9	-0.015485206
42	0xbd627988	-0.055291682
43	0x3dd4ab1e	0.103842005
44	0x3e113ce8	0.1418339
45	0xbdd54f29	-0.10415489
46	0x3b9dc9ec	0.0048153307
47	0x3d0d5930	0.034508884
48	0xbda8bdc5	-0.08239321
49	0x3d63701f	0.05552685
50	0x3c274254	0.010208685
51	0xbd4f7733	-0.050650787
52	0x3df85988	0.12126452
53	0xbd26d89c	-0.04073392
54	0x3c8967a0	0.016773045
55	0xbc8bc9bf	-0.017063973
56	0xbdd8087e	-0.10548495
57	0xbd67de56	-0.05660852
58	0x3d14eb7b	0.036357384
59	0x3d89668f	0.067090146
60	0x3df44130	0.11926496
61	0xbd374ce9	-0.04475108
62	0x3ab89aff	0.0014084278
63	0x3d9fb5e2	0.07798363
64	0xbd14c431	-0.036319915
65	0x3d3afad8	0.04564938
66	0x3b2ba8a8	0.0026193056
67	0xbadad9b6	-0.0016696963
68	0x3dbf2a4f	0.093342416
69	0xbde3aacb	-0.111165605
70	0x3c91aae1	0.017781677
71	0x3caf5e5d	0.0214073
72	0xbdb5a8c5	-0.08870081
73	0xbd983478	-0.074318826
74	0x3d3d7996	0.04625853
75	0x3e0f091d	0.1396832
76	0x3dee710c	0.11642656
77	0x3cc0ea0a	0.023549099
78	0x3d2a4b4a	0.041575707
79	0x3cfa71db	0.030571869
80	0xbbdb819f	-0.0066988016
81	0x3ce0a18c	0.027420782
82	0x3c964ec7	0.01834811
83	0x3d0c1686	0.034201168
84	0x3c891a95	0.016736308
85	0x3ac53f4a	0.0015048769
86	0x3d486420	0.04892361
87	0x3d14e186	0.03634789
88	0xbc1a9869	-0.0094357515
89	0xbd9bb57f	-0.07602977
90	0xbccdbe74	-0.02511523
91	0xbddcd352	-0.10782494
92	0x3d2a2943	0.041543256
93	0x3c01d8b9	0.007925206
94	0x3d11a3aa	0.035556473
95	0x3bea1161	0.007143185
96	0xbd1a5dbc	-0.03768705
97	0x3d7e6015	0.06210335
98	0xbb758eea	-0.0037469217
99	0xbd449072	-0.047989316
100	0x3db1baa1	0.08678175
101	0x3b886812	0.004162797
102	0x3d83cf71	0.06436051
103	0xbc41984d	-0.0118160965
104	0xbd368219	-0.044557665
105	0xbc42c9c7	-0.011888928
106	0x3c909a0f	0.017651586
107	0x3ce2ea3e	0.027699586
108	0x3d923413	0.071388386
109	0xbc439c46	-0.011939114
110	0x3d0365f7	0.032079663
111	0x3d4d6459	0.050144527
112	0x3d5812a2	0.052752145
113	0xbce62c29	-0.02809723
114	0x3d86ca5b	0.06581565
115	0xbd38508e	-0.044998698
116	0xbd19c45e	-0.037540786
117	0x3d399bda	0.045314647
118	0xbc5b42cf	-0.013382628
119	0x3cfb55b5	0.030680517
120	0x3d38e825	0.045143265
121	0xbcc07fa0	-0.023498356
122	0x3d255298	0.04036197
123	0xba06594c	-0.00051250006
124	0x3d4a65da	0.04941354
125	0x3dbf2b5e	0.093344435
126	0x3d47dcf5	0.048794705
127	0xbca4152a	-0.020029623
128	0x3cd64f94	0.026160993
129	0x3cf93f43	0.030425673
130	0xbd251be7	-0.040309813
131	0xbb3cb0d1	-0.0028791914
132	0x3dfa6095	0.12225453
133	0xbd94c960	-0.07264972
134	0xbc7833d1	-0.015149073
135	0x3c670a2d	0.014101547
136	0xbdfde2a5	-0.12396745
137	0xbdae5654	-0.085125595
138	0x3d23cf87	0.039992835
139	0x3cccde58	0.025008366
140	0x3e12ae5c	0.14324325
141	0x3cbcb033	0.023033237
142	0xbd456b95	-0.0481983
143	0x3cac745a	0.021051574
144	0xbd9b2839	-0.07576031
145	0x3bf651c6	0.0075170724
146	0xbcd0f685	-0.025508175
147	0x3c89c291	0.01681641
148	0x3d8539ea	0.06505187
149	0xba4a7d81	-0.000772439
150	0xbd2155f8	-0.039388627
151	0x3cf55b0a	0.029950637
152	0xbd8ce188	-0.06878954
153	0xbdadb817	-0.08482378
154	0x3c19557a	0.009358758
155	0x3bd1519d	0.006387903
156	0x3a2896d6	0.0006431168
157	0x3c64740a	0.0139436815
158	0xbd8487ab	-0.06471189
159	0x3d415845	0.04720332
160	0xbc2cd40c	-0.010548603
161	0x3ac24e4a	0.0014824357
162	0xbd6559fc	-0.05599402
163	0x3bb763e1	0.0055966233
164	0xbb73f7ca	-0.0037226551
165	0xbd028541	-0.031865362
166	0xbc98d43a	-0.018655885
167	0x3d3f3d5a	0.04668937
168	0xbd2d12e2	-0.042254336
169	0xbdf4af89	-0.11947543
170	0x3d0b3a63	0.03399123
171	0x3d122350	0.035678208
172	0x3d42da4c	0.047571465
173	0x3d4aaaef	0.04947942
174	0xbc3788b3	-0.011202025
175	0x3da53f44	0.080687076
176	0xbd6f3a62	-0.058405288
177	0x3cc102d0	0.023560911
178	0xbcf82549	-0.030291216
179	0xbc6532ec	-0.0139891915
180	0x3b12da80	0.0022408068
181	0x3ccbe2d4	0.024888434
182	0xbac36ae2	-0.0014909173
183	0x3d454fe3	0.04817189
184	0xbd3f448a	-0.046696223
185	0xbe26ade5	-0.16277273
186	0xbc5a7643	-0.01333386
187	0x3c970704	0.018435962
188	0x3d869c3d	0.06572769
189	0xbce4d710	-0.027934581
190	0xbc61df91	-0.013786213
191	0x3d98c567	0.074595265
192	0xbcb57741	-0.022151591
193	0xbdad799a	-0.08470459
194	0xbd806672	-0.0626954
195	0x3d373fb4	0.044738486
196	0xbced0121	-0.028931202
197	0xbd8c3361	-0.06845737
198	0xbdb224b2	-0.08698405
199	0x3d3f8da5	0.046765942
200	0xbd32b555	-0.043629963
201	0xbda4f1dd	-0.08053944
202	0x3da4d35c	0.08048126
203	0x3d44cff2	0.048049875
204	0x3b8f137c	0.0043663364
205	0x3d68a0c0	0.05679393
206	0xbd5fad5e	-0.054608695
207	0xbc59fb26	-0.013304507
208	0xbdbd691a	-0.09248562
209	0xbd102180	-0.035188198
210	0xbddf8e97	-0.10915869
211	0x3d5bb1f2	0.0536365
212	0x3c67f4e8	0.014157511
213	0xbc16a390	-0.00919427
214	0xbd0c6851	-0.03427917
215	0x3b4df074	0.0031423839
216	0xbcfa824d	-0.03057971
217	0xbe0eb59f	-0.1393647
218	0x3d4d2102	0.050080307
219	0x3d7ecc31	0.06220645
220	0xbd17addd	-0.037031043
221	0x3d70faa5	0.058832783
222	0xbddd1cc8	-0.10796505
223	0x3cc2c6a0	0.023776352
224	0xbd22f80e	-0.039787345
225	0xbc9cecc4	-0.019155867
226	0xbd10af14	-0.035323218
227	0xbc5c2bbf	-0.013438164
228	0xbd7db0d5	-0.06193622
229	0xbcce3bad	-0.02517494
230	0xbd5c8aba	-0.053843237
231	0xbcb60e32	-0.022223566
232	0xbd978cec	-0.073999256
233	0xbcc58bd3	-0.024114525
234	0x3d1a6678	0.037695378
235	0x3d4bfa20	0.049799085
236	0x3c92f61a	0.017939616
237	0x3d2e3fce	0.042541318
238	0xbba4725e	-0.0050185164
239	0x3d5842fd	0.05279826
240	0xbd08d85f	-0.033409473
241	0xbcd46785	-0.025928268
242	0xbdb0faf0	-0.086416125
243	0x3d062cc6	0.032757543
244	0xbcb96c60	-0.022634685
245	0xbd839462	-0.06424786
246	0xbd5be300	-0.05368328
247	0x3cd97165	0.026543329
248	0xbd56cf34	-0.052443698
249	0xbd7e4635	-0.062078673
250	0x3da38bac	0.07985625
251	0x3dd889b5	0.105731405
252	0x3c4f0d1d	0.012637404
253	0x3d68699c	0.056741342
254	0xbda62434	-0.08112374
255	0x3be1ea25	0.0068943673

bias f4 [32]
0	0x3d4e0e7b	0.05030678
1	0x3c25e82f	0.010126158
2	0xbd4f0347	-0.050540235
3	0x3d525ad4	0.05135615
4	0xbd03393b	-0.032037
5	0xbc96efbb	-0.01842486
6	0xbcc757ff	-0.024333952
7	0xbc25204a	-0.010078499
8	0xbd1ec732	-0.038764186
9	0x3befc8ad	0.0073176236
10	0xbc839095	-0.016060153
11	0x3c961ae9	0.018323379
12	0xbcf8b015	-0.0303574
13	0xbbb45737	-0.005503561
14	0x3d498114	0.049195364
15	0xbaee209b	-0.0018167676
16	0xbc9d22bd	-0.019181604
17	0x3cc87597	0.024470134
18	0xbb3f0ace	-0.0029150727
19	0x3cfc5ed9	0.030806946
20	0xbc17d917	-0.009268067
21	0x3c1ddca5	0.009635125
22	0xbbaaacbb	-0.0052085794
23	0x3c05c4e5	0.008164619
24	0x3d62425b	0.055239063
25	0x3cc4f306	0.024041664
26	0x3cfe8b03	0.031072145
27	0xbc1f0038	-0.009704642
28	0xbcd32efc	-0.02577924
29	0x3c9c9622	0.019114558
30	0xbb939cdc	-0.004504783
31	0x3ca9ced5	0.020728508
