saved_models/rnn_gru.pth (torch_old, 319987 bytes, 15 tensors)

weight f4 [4927, 10]
00000000: 984e 99bd f657 353e 0a0a c1be 7243 83bd
00000010: 539e a3be cb23 f6be 01ec 39be 8739 c23e
00000020: 952e 1ebf 12b4 473e 1838 3abf 6aed 61be
00000030: 04f7 46bf 0d9b 8ebd 4d5d c1be 2301 56bf
00000040: d21e 2abd 4fb6 493f 348c 8abf e7b3 663f
00000050: 81fb 053d f857 6e3e 40c9 57be 0eaf a23c
00000060: 4090 a63e f962 13be af83 90be 8a11 ffbe
00000070: ad7d 10bf 9e9e efbe 228a 9f3d a1df 1a3f
00000080: f3bb 78bc 0fcf 113d faf0 dcbe bd4f 85bf
00000090: 1f17 163e baa1 1cbf e26a fdbd 4e05 023f
000000a0: 7a34 4bbe b556 173c f970 d9be 5126 f8bd
000000b0: 23e7 6d3f 5aab dbbe 1b77 e2bd 44c0 41be
000000c0: c538 e5be 115a c6be f972 fbbe d668 ba3e
000000d0: 1efc 073c ceed 6a3e 8316 d13e c4bb 10bf
000000e0: c937 733d 3a29 3ebe 285d 6fbd 3438 26bf
000000f0: a1fe 743e 6128 a83f cdfd 283e 6727 20bf
00000100: 2adf f93c 10a0 e9be b77b 203f f19e 633f
00000110: 242a 23bf 6351 21bf f573 e53e 03e9 9c3e
00000120: ead9 8e3e 89cd 2cbf b146 433e 7d52 03bf
00000130: bb0b 8bbe 4bad 82be 8515 dbbd d1e8 a3be
00000140: b79f 653e d41b 1f3f 6b28 bebe 1dd7 5abd
00000150: a875 233d 7e0c 4abf 9b99 213f ec04 253f
00000160: ea25 3a3c 22d3 50bf d0cc b13c 15b1 b43e
00000170: 97c6 8bbb b499 c03e edea e5bd 77c9 21bf
00000180: bdbe a33e 46dd 39be 8a6d 1fbe 2f8b 51bf
00000190: 68b0 35bf 000e ac3f 6f9a 69be 61a9 6ebf
000001a0: 9116 9bbe 84d2 e2be 696d 073f 572e b53e
000001b0: cb7a 45bf 9957 14bf 5607 883f d097 863f
000001c0: 71ec 6c3e d65e 39bf 67fb 0c3e 4396 4d3d
000001d0: ef2c 153e 6599 96bf fba8 a1be baf2 47bf
000001e0: 7f84 273e f10f 1a3f f26e 03be edeb 893c
000001f0: e469 b2bd 62c0 4dbe 06a1 1fbe 67b1 c9bd
00000200: aa01 0abf 34d2 81bc 5637 20bf ba9b c63e
00000210: e8b3 ccbe 862b e23e 20d5 6cbd e803 61bf
00000220: 68fa 40bf 0626 31bd cfa1 e0be ff0f c43e
00000230: 62c2 2c3f 8922 ca3e 9210 39bf 814e dc3e
00000240: 0a32 f23e 976d 39bf 1c56 8c3e e2a0 143e
00000250: 09c9 3f3e a36d 36bf fae5 adbf 08a4 973e
00000260: 89b9 94be 15c4 3f3e b918 dc3d 62a9 77bf
00000270: 26f2 86be b55c 343f 89df dbbe 06ed a6be
00000280: 745a 803e 0a8e b43d 8c77 e83e 05cd 3fbf
00000290: 4a1c 28be b1fb 24bf 4883 df3e 7e8a 21bf
000002a0: 801f 08bf f31d c7be 6ce4 08bf 0b62 823f
000002b0: 2697 9a3e d475 8c3e 6786 793f 3ae6 0cbf
000002c0: c8df e23e e478 5bbe 41b7 19be 43bd 4dbf
000002d0: 6d5d f53c d80f 5ebc aeec e83e 420b 9dbd
000002e0: 507b 1ebe d342 56bf 1ef5 09bf 16c9 a53d
000002f0: c1e3 49bf d9be 3ebe 3d71 4e3f 1e38 123e
00000300: e22c 25be 9192 d83e 0469 d1bd 378c 98bf
00000310: 95cb b33f 542b 3f3e a09c b8be 96af dfbf
00000320: 9411 30be 3546 7d3f 2f62 b2bf 68f2 2fbf
00000330: 13f5 23bf e48d 81bf 995a 913e 72fe 84be
00000340: 96a3 f6bd c02f 633e b280 5f3e c811 f33e
00000350: 2e12 30bf 9dc2 163f a0ea 9dbe 3f4b 34bf
00000360: d7f6 4d3f cee2 823e 399a 47be a281 9cbf
00000370: 63b1 993d 02ed 09be ba7f 23bf 4e39 37be
00000380: 1ce2 743e f1de 8fbf cdbc 8bbe 730d 243f
00000390: f7fd bebd 87fc 093f dc38 b9be 6c96 883e
000003a0: 7f7c a33d 8930 81bf d91a 293e e468 47bf
000003b0: e257 2cbe 52ca 933d fe30 8dbe 917a 82be
000003c0: ed49 843e 5990 503f 4369 84be cac1 3f3d
000003d0: 2405 ff3e a9e4 6ebf 9b8d e6be 2a6a 60bf
000003e0: 8430 523e 2bf8 a83e 4125 17bf b60f 643f
000003f0: 95e9 59bf 546a 663e 69f3 6cbf 353a 77bf
-0.07485694 0.17709336 -0.37702972 -0.064093485 -0.3195673 -0.48074183 -0.18156435 0.37934515
-0.6178983 0.19502285 -0.7274184 -0.22063223 -0.77720666 -0.06963167 -0.37766495 -0.83595484
-0.0415333 0.78793806 -1.0824037 0.9011826 0.032710556 0.23275745 -0.21072865 0.019858863
0.3253193 -0.14393224 -0.28225467 -0.4981807 -0.56441766 -0.46800703 0.077900186 0.6049748
-0.015181529 0.035597857 -0.431526 -1.0414959 0.14657257 -0.61184275 -0.12373902 0.50789344
-0.19844237 0.009236981 -0.42469004 -0.12116683 0.9293081 -0.42904168 -0.11057874 -0.18921
-0.44769874 -0.3874059 -0.49111155 0.36408108 0.0082998555 0.22942278 0.40837488 -0.5653651
0.059379373 -0.18570414 -0.05843845 -0.6492951 0.23925258 1.3137323 0.16503067 -0.62560123
0.03050192 -0.4562993 0.62688774 0.889144 -0.63736176 -0.6301481 0.4481503 0.30646524
0.2790063 -0.6750112 0.19069935 -0.5129774 -0.27157387 -0.25522837 -0.10697464 -0.32013562
0.22424208 0.6215184 -0.3714021 -0.053427804 0.039907128 -0.7892531 0.6312501 0.64460635
0.0113615785 -0.81572163 0.021704108 0.35291353 -0.004265617 0.37617266 -0.11226449 -0.63198036
0.3198146 -0.18150815 -0.1556913 -0.81853 -0.709723 1.3441772 -0.22812818 -0.932272
-0.30290654 -0.44301236 0.5290132 0.35386917 -0.7714049 -0.57946163 1.0627239 1.051508
0.2313707 -0.72410333 0.13767777 0.05019213 0.14567922 -1.1765562 -0.31574234 -0.78104746
0.16359137 0.60180575 -0.12835291 0.016836131 -0.08711603 -0.2009292 -0.1558877 -0.0984829
-0.5390879 -0.015847303 -0.62584436 0.38790685 -0.39981008 0.4417383 -0.05782044 -0.87896585
-0.7538209 -0.043249153 -0.4387345 0.38293454 0.67484105 0.39479473 -0.7229091 0.43028644
0.47303802 -0.72432846 0.27409446 0.14514497 0.18729033 -0.7126104 -1.3585808 0.29617333
-0.29047802 0.18727143 0.10746903 -0.9674283 -0.2635662 0.7045396 -0.4294398 -0.3260271
0.2506901 0.08816154 0.45403707 -0.7492221 -0.16417041 -0.6444655 0.43654847 -0.6310195
-0.53173065 -0.38890037 -0.53473544 1.018617 0.30193442 0.27433646 0.97470707 -0.550388
0.44311357 -0.21432835 -0.15011312 -0.80366915 0.029951775 -0.013553582 0.45493072 -0.07668163
-0.15476727 -0.83695716 -0.53889644 0.08094995 -0.7886315 -0.1862749 0.8064154 0.1427922
-0.16130403 0.4229932 -0.10225108 -1.191779 1.4046503 0.18668872 -0.36056995 -1.747546
-0.17194206 0.9893525 -1.3936213 -0.6872926 -0.6404583 -1.0121427 0.28389433 -0.25975376
-0.1204292 0.22186184 0.21826437 0.47474504 -0.6877774 0.58890706 -0.30843067 -0.70427316
0.8045477 0.25563663 -0.19492425 -1.2227061 0.07504537 -0.13469318 -0.6386677 -0.17892954
0.23914379 -1.1239911 -0.2729248 0.6408302 -0.09325784 0.5390095 -0.36176193 0.26677263
0.0798273 -1.0092937 0.16514148 -0.77894425 -0.168304 0.07216324 -0.2757644 -0.25484136
0.2583765 0.8147026 -0.25861558 0.04681567 0.4980861 -0.9331766 -0.4502991 -0.87661994
0.2052632 0.33001837 -0.5904122 0.89086473 -0.8512204 0.22501498 -0.92558914 -0.9657319

weight_ih_l0 f4 [48, 10]
00000000: af01 383d e92c e93d cdcb 213d af13 6fbe
00000010: 121f 833e 2629 29bd e0ea 56be 8dce 9dbe
00000020: fe04 08be 8a6a 8b3d 8d03 8c3d 0c81 fd3d
00000030: 119e 12bd 3295 40bc 1cb0 203e 4eb3 8ebd
00000040: 2295 a2be 2e6a 273d e261 dabb c9f1 93be
00000050: 8909 e03c 8ade f2bd 42b9 f63d d2a9 7dbe
00000060: 08bd 9cbd 7821 14be c959 a2bd bfa6 8fbe
00000070: ad4c 2d3d df2e c3bd 840a a63d 8242 e4bd
00000080: c5dc 54bd 6457 053e 8fa6 0ebe 90a6 883d
00000090: f0e8 203e d5a1 e0bd 2616 103e 610e 343e
000000a0: bc1d 093e 18a2 53be 24ca 68be d428 40bd
000000b0: 9656 c8bd 3da9 86be 7f5b 453e 6abb 233e
000000c0: 5759 923d 9c50 373e 1757 b7bd 23db 66be
000000d0: 5417 b1bc 3154 073e d604 80be 478b 583d
000000e0: c2ef 51bd 7d95 9a3e cd45 513e e03c 14be
000000f0: 9949 613d 8ed1 7abc 409d b9bc cafa b93d
00000100: 796e 0bbe 4aa9 2ebe 3536 13be 836e 69be
00000110: 40ad 4b3d 64b3 e6bc 8cbb 943e 0099 10be
00000120: fc93 d5bd 5bd7 413e fc8b f23d 0fb1 51bc
00000130: e030 cd3d a963 84be 882f f23d 75bd 0e3d
00000140: c70f 303e 17a5 0fbd 4c9a f8bd 251d 8d3e
00000150: 3f5c 6c3e dcee 9bbd 7191 053e c203 19bd
00000160: ef3b 233b 6941 533e 367f 98be d481 14bd
00000170: b7ee 69be bb6f b1ba 1fbc 073e 27f7 343e
00000180: a5d0 b33d c598 ce3e a55c 383e 2202 96bd
00000190: 265b 91bd c917 2c3e 209f 1e3d bf4d 9fbd
000001a0: 7587 0c3d ca6a 5b3e 0632 44be b8b5 76bd
000001b0: f713 223e 4f99 3ebe f141 07be 66ab 59bd
000001c0: 2e9b 8dbd 24c9 003e 0f82 e2bd 1322 e6bc
000001d0: d18f 1d3e c395 60bd 6959 8d3d 7747 a4bd
000001e0: 9b01 21be 592b 473d 7d6c a53e 03f5 e1bd
000001f0: 3595 be3c a00d 703e 1727 8c3d 6843 dabd
00000200: e135 c03d f1df 743c b392 7ebb 851b 36be
00000210: bb0c 94bc 7719 003e 2e98 063e 3f58 163d
00000220: a3d1 393e ca31 2abe 961c 283d 0800 7a3e
00000230: 2c31 c13a b6e3 80be bb8f 1f3e 9129 02bd
00000240: fe2b 87be 1645 4f3e a89e 76be a48c 463e
00000250: ef6c 14bd 995d bcbc 21ad 87be 8d6e 833d
00000260: 61ae 9b3d 9109 c9bc 9259 11be a02c 83be
00000270: 05ad b4bc 5d5b 703e 1f6f 3dbd e003 903a
00000280: 045c a8be 97c2 33be 8ff7 03be 323f b3bd
00000290: d298 26be 7bf6 fabc e1d4 663d 2ba3 9ebd
000002a0: 5a3a 51be 2dc3 293e f601 303e fcd1 213e
000002b0: 3b90 4f3e 12c8 a63e 2141 b5be 7f1d c33c
000002c0: 6a09 803e 844c 923e 7472 243e e456 dc3d
000002d0: d2ac 9b3c ac16 82be a127 e0bd ffdf d0bd
000002e0: 5ed1 a8be 112a 40be 4353 9e3d 3e91 973e
000002f0: 79d6 403d 518a dd3c 78e5 ddbc 3ba3 453e
00000300: 6bd1 67be 6871 9b3d ced2 333e 1b9e 633e
00000310: 32b8 90be b50e 883d 3c4d d5bd 7a78 f9bd
00000320: 487c 20be ece2 8a3e 3a10 b03c 97d7 11bd
00000330: 7ff3 f83c 298c 97bd 5ede 453e 636b 1a3e
00000340: dd31 823d 460f 703e fdeb 503d 5069 703e
00000350: 4a8e 553d c289 643e 767c 2a3e fa4a 2c3e
00000360: f650 bebd dcc5 363c ce55 a93d ddaf 56be
00000370: 59b6 893d 8f34 23be e90b da3d 6fff 0f3e
00000380: 75f0 29bc 80e4 05be 8169 843e 85f1 423e
00000390: 137a b4bd f777 6f3c 1297 88be fee3 9d3e
000003a0: f255 9ebd 4226 8a3e 3b5d f83d e8d4 5c3d
000003b0: 1209 21bd 2b78 95bd f6f1 403e 55d6 113e
000003c0: 5af1 39bd 8e7d d13c 053e 343e 7a7a 1cbc
000003d0: 3296 9dbe dbd9 97be cea5 bfbd 4649 d3bd
000003e0: d0a6 003e 0824 03be 4de4 873c bba8 8f3e
000003f0: 0eb6 d1bd eac4 963e d54a 643e 8dc5 0fbd
0.04492348 0.11385519 0.039501 -0.23347352 0.25609642 -0.041299008 -0.20988035 -0.30821648
-0.13283154 0.0680743 0.06836615 0.12378129 -0.035795275 -0.011754321 0.1569218 -0.069677934
-0.31754404 0.040872745 -0.0066645006 -0.28895405 0.027348297 -0.11858852 0.12047054 -0.24771813
-0.07653242 -0.14465892 -0.079272814 -0.28056905 0.04230945 -0.09530424 0.081074744 -0.11145498
-0.051968355 0.13021618 -0.13930725 0.06672394 0.15713859 -0.10968367 0.14070949 0.1758361
0.13390249 -0.20667303 -0.2273336 -0.046913937 -0.0978214 -0.26300994 0.19273184 0.15989462
0.071459465 0.17901844 -0.08952158 -0.22544532 -0.021617569 0.1321571 -0.2500369 0.0528672
-0.05125404 0.30192176 0.20436783 -0.14476347 0.05500183 -0.015308751 -0.02265799 0.09081037
-0.1361636 -0.17056766 -0.14376147 -0.22796063 0.04972577 -0.028161712 0.29049337 -0.14120865
-0.104286164 0.18929808 0.11843106 -0.012798562 0.10019088 -0.25857285 0.11825472 0.03484865
0.17193519 -0.03506955 -0.12138805 0.27561298 0.23082064 -0.07613918 0.13043763 -0.0373571
0.002490755 0.2063042 -0.29784554 -0.036256626 -0.22844969 -0.0013537327 0.13255356 0.17672406
0.0878003 0.4035093 0.18004091 -0.073246256 -0.07097463 0.16805948 0.038725972 -0.07778501
0.03430887 0.21427456 -0.19159707 -0.060231894 0.15827928 -0.1861317 -0.13208748 -0.053141974
-0.06914364 0.12576729 -0.11059963 -0.02809242 0.15386893 -0.054830324 0.06901819 -0.08021443
-0.15723269 0.048625324 0.32309332 -0.110330604 0.023264507 0.23442698 0.06843393 -0.10657388
0.093852766 0.01494597 -0.0038844764 -0.17783935 -0.018072477 0.12509714 0.1314399 0.03670525
0.18146376 -0.16620556 0.041042887 0.24414074 0.0014739386 -0.2517373 0.15582173 -0.031777922
-0.2640075 0.20241198 -0.2408396 0.19389588 -0.0362367 -0.02299385 -0.26499274 0.0641757
0.076016195 -0.024540694 -0.14194325 -0.25619984 -0.022055158 0.23472352 -0.04624855 0.0010987483
-0.32882702 -0.17554699 -0.12887405 -0.08752288 -0.16269234 -0.03063511 0.05635536 -0.077459656
-0.20432416 0.1657836 0.17188248 0.15802759 0.20269863 0.32574517 -0.35401252 0.023817776
0.25007182 0.28574002 0.16059285 0.107587606 0.019003306 -0.25407922 -0.109450586 -0.10198974
-0.32972234 -0.18766047 0.07730725 0.29602998 0.047079537 0.027043493 -0.027086958 0.19300549
-0.2263848 0.0758999 0.17560884 0.22228281 -0.2826553 0.0664343 -0.10415122 -0.12181182
-0.1567241 0.27126253 0.021492112 -0.035605993 0.030389545 -0.0739978 0.19323108 0.15080027
0.06357167 0.23443326 0.051006306 0.23477674 0.05213765 0.22318175 0.1664904 0.16825476
-0.09292786 0.011155572 0.08268319 -0.20965524 0.06724233 -0.15938018 0.10646803 0.14062284
-0.010372271 -0.13075447 0.25861743 0.19037445 -0.08812346 0.014616004 -0.26677758 0.30838007
-0.077312365 0.26982313 0.12127157 0.05391398 -0.03931529 -0.07298311 0.18842301 0.14241917
-0.045396186 0.025572564 0.17601784 -0.009550685 -0.30778652 -0.29658398 -0.093577966 -0.1031671
0.12563634 -0.12806714 0.016588354 0.2805842 -0.10239802 0.29447109 0.22294171 -0.03510051

weight_hh_l0 f4 [48, 16]
00000000: 40f9 e23d e2c3 4dbe 4805 59be 806d 6b3d
00000010: 5028 8e3c 705e eebc c8c9 e5bd 8e59 693e
00000020: 100f 34bd a4a3 4ebe fcca c9bd a466 5bbe
00000030: d669 39be 3c68 733e fc2f 31be d87b 7cbd
00000040: de6b 68be 2828 7bbe 7c21 823d 4e82 6fbe
00000050: e06b 1f3d a065 47be cab7 41be 20f8 d2bd
00000060: ac7e 643e baeb 2bbe 8c04 603e 78c8 613d
00000070: 52e3 303e 4c60 c23d 30db 723e 6286 70be
00000080: 5251 193e 04ef 813d 40c5 f63b b0c3 233d
00000090: 881c 163d 8068 edbd 84fe d63d 80b3 b53b
000000a0: 6a17 2cbe 5075 39be 00b6 783d f07c 223d
000000b0: e0ea 8cbd 1063 073e 34e3 27be 0cb0 42be
000000c0: 5ede 563e 008f 1bbe f435 413e aa9a 663e
000000d0: 1660 6b3e be5a 4ebe 627e 75be 80eb 593d
000000e0: 4077 59be c24e 1cbe 30d6 a8bd 94ff f8bd
000000f0: 60af 01bc 6847 d53d 40e3 b23b 22ab 36be
00000100: d05e 3a3e 400d 433e 1033 143d 2839 07bd
00000110: c0ab f83b 08f0 44be 203b b1bd 707f d73d
00000120: bad9 53be 6076 ea3d 72e9 5d3e 0cc6 db3d
00000130: e806 d7bd be4f 40be 1c9a e73d 3c60 eebd
00000140: c012 7a3d aacc 5dbe 0457 bf3d 4a86 3cbe
00000150: 88b2 903d 2001 5e3c a0d8 eb3c 9083 41be
00000160: c0c2 11be 560c 2bbe 9465 98bd 721e 1cbe
00000170: ba96 713e f41f acbd fc88 b23d 80e1 ddbc
00000180: c80f b2bd 2e1d 093e 00c6 22bd f0ad efbc
00000190: bc76 aabd feb5 153e fc3d 5cbe da3a 31be
000001a0: 0ced 58be 6614 39be 20a3 523d 5cd3 a8bd
000001b0: 881b f6bd 7013 943d c006 023c c010 c7bc
000001c0: ee3b 443e 1470 753e dcc1 f73d 7092 9abd
000001d0: 3c16 cd3d c0da 2a3c 067d 0ebe 7083 4a3d
000001e0: 1acf 5b3e 3c4f cfbd 06d3 343e c0c1 cabd
000001f0: eeac 793e a2ad 6d3e ae68 6ebe 4476 9fbd
00000200: 1253 13be b008 fe3d c0e7 2abd 3c4e 3a3e
00000210: 0061 a63b 088d 07be d012 cebd 184b 30bd
00000220: e0e2 783d 403b acbc 5c74 5f3e 0098 ab3d
00000230: ecb6 f53d cc85 193e 5e93 453e 444f 97bd
00000240: 465e 64be 7053 2d3e 241b de3d 8893 b43d
00000250: 0023 e33d 92af 6e3e c035 19bd 1c17 e83d
00000260: ac1e 9ebd 88be e63d f688 1dbe 483b 303d
00000270: d6e9 673e 4826 13bd d227 47be f829 353d
00000280: 48b6 d83d 6c03 a9bd 5a9e 4dbe 44dd 5ebe
00000290: b0f4 75bd b04c 62be 20f5 1a3d 78d2 583e
000002a0: 1842 0e3d 6ab4 76be e4ff 63be 9838 1b3e
000002b0: ac75 4c3e 14fd 753e 3c2c 4dbe c688 12be
000002c0: 5047 bb3d 3413 69be 0cac 25be 001c ce3d
000002d0: 0045 803c e0a0 4fbd fea2 1ebe 52a0 7ebe
000002e0: 1c18 f03d 9af4 70be a4d8 3e3e d8ce 243e
000002f0: 582a 703e 422d 09be c0fa 84bc f485 753e
00000300: 105d adbd 24d8 6bbe 90d0 abbc f03f 7e3e
00000310: 3e59 73be 2c86 f43d 8095 d3bc d8da 2dbd
00000320: 707a 3e3e dec1 17be ea98 39be 6459 b73d
00000330: cc8d 2dbe 20af 3dbc 64e3 3cbe e018 18bd
00000340: 9c0a 363e 5422 b3bd 64af 15be ae36 303e
00000350: a0c3 103c 5cc8 4f3e 3edb 063e 3842 8f3d
00000360: 084e 6cbd 1459 2f3e 1cfc 0e3e ba7f 60be
00000370: 5003 aa3d 00fd 763c 4cee eb3d cc0d fc3d
00000380: e819 3b3e c0a6 e1bc f0c1 ec3c 00be b63d
00000390: 64f7 7fbe 3014 3abe 6ecc 2d3e bca5 c3bd
000003a0: 0c0f e53d 6077 01bc a8ef 5b3e ac99 143e
000003b0: 54fa 55be 94a3 51be eaff 39be 801a 09bd
000003c0: f867 6dbe 8af6 453e a094 f8bd 4861 2b3d
000003d0: d274 043e 60e1 023e d87a 3a3e 4038 673e
000003e0: d05d c0bc f05e f0bd 2a27 1c3e 0492 703e
000003f0: 3881 d2bd 403d db3d 761c 61be 5405 c0bd
0.11082697 -0.20094255 -0.21193421 0.057477474 0.017353207 -0.029097766 -0.11220127 0.22788069
-0.043959677 -0.20179611 -0.09853169 -0.21425873 -0.1810678 0.23770231 -0.17303461 -0.061641544
-0.22697398 -0.24527037 0.06354043 -0.23389551 0.038921237 -0.1947236 -0.18917766 -0.10301232
0.22313946 -0.16789141 0.21876734 0.055122823 0.17274216 0.094910234 0.23716426 -0.23488763
0.14972427 0.06344417 0.0075308383 0.039981544 0.036648303 -0.115921974 0.10497764 0.0055450797
-0.16805807 -0.18111157 0.060720444 0.03966993 -0.06880736 0.13221383 -0.16395265 -0.19012469
0.20983264 -0.15191269 0.18868238 0.22519937 0.22985873 -0.20151803 -0.23973992 0.053203106
-0.21236897 -0.15264419 -0.08243978 -0.12158123 -0.007915348 0.1041401 0.005459219 -0.1783872
0.1820023 0.19048023 0.03618151 -0.033013493 0.0075888336 -0.1923219 -0.08653855 0.10522354
-0.20688525 0.114483595 0.21671084 0.10731134 -0.10499364 -0.18780419 0.11308691 -0.11639449
0.061053038 -0.21660104 0.09342769 -0.18410602 0.07065302 0.013550073 0.028789818 -0.18897843
-0.14234447 -0.16703925 -0.074412495 -0.15245989 0.23592654 -0.08404532 0.08717534 -0.027085066
-0.08694416 0.13390037 -0.03973961 -0.029257745 -0.08323428 0.14620206 -0.2150802 -0.17307606
-0.21184176 -0.18074188 0.0514251 -0.082434386 -0.1201697 0.0723027 0.00793618 -0.02429998
0.19163486 0.23968536 0.120975226 -0.07547462 0.100140065 0.010428131 -0.1391488 0.049441755
0.21465722 -0.10122535 0.17658624 -0.09900236 0.24382374 0.23210767 -0.2328212 -0.07786229
-0.14387158 0.12404001 -0.04172492 0.18193907 0.0050774813 -0.13237393 -0.10062182 -0.043040365
0.06076324 -0.021024346 0.21821731 0.08378601 0.1199778 0.14992446 0.19294497 -0.073881656
-0.22301587 0.1692636 0.108450204 0.08817202 0.1109066 0.23309162 -0.037404776 0.11332533
-0.07720694 0.1126681 -0.15384278 0.043025285 0.22647795 -0.03592518 -0.19448784 0.044229478
0.105816424 -0.08252606 -0.20079938 -0.21764094 -0.060047805 -0.22099566 0.037831426 0.21174037
0.034731 -0.2409226 -0.22265583 0.15158308 0.19966763 0.24022323 -0.20036405 -0.14309987
0.09144461 -0.22761232 -0.16178912 0.10063934 0.015657902 -0.05069053 -0.15491864 -0.24865845
0.117233485 -0.23530808 0.1863733 0.1609453 0.23453653 -0.1339617 -0.016232848 0.2397688
-0.08465016 -0.2303167 -0.020973474 0.24829078 -0.23764512 0.11939654 -0.025828123 -0.042445034
0.18601394 -0.14820048 -0.18124738 0.08952597 -0.16948622 -0.011577398 -0.18446118 -0.037133098
0.17777485 -0.08746782 -0.14617687 0.17208359 0.008835703 0.20291275 0.13169572 0.06995052
-0.057691604 0.17123824 0.1396336 -0.21923724 0.08301413 0.015074968 0.11520061 0.12307319
0.18271601 -0.027545333 0.02890107 0.089229584 -0.24996716 -0.18171763 0.16972515 -0.09553096
0.111845106 -0.007901996 0.2147814 0.14511746 -0.20896274 -0.20472556 -0.1816403 -0.033472538
-0.23184192 0.19332328 -0.12137723 0.04184082 0.12935188 0.12781286 0.18210924 0.22580051
-0.023482233 -0.11736858 0.15249315 0.234932 -0.10278553 0.10705042 -0.21983513 -0.09376016

bias_ih_l0 f4 [48]
00000000: 4927 e13d bae6 bb3d 080c c53d b04a e7bd
00000010: dbcd d8bb 1436 d2bc 0148 aa3d c721 dcbd
00000020: 16fb af3d 5125 da3c 4f62 473e 3624 f43d
00000030: efeb bbbd 7e59 3b3e 346c e7bd 09ed 883d
00000040: 1095 d43d 0202 533d a3fc 33be eafe 203e
00000050: d9d9 83bc 27b5 7ebd 5db9 6c3e 52a0 96be
00000060: 9839 40be 8cec b7bd 5eef 92be 9c80 7d3d
00000070: 6eb7 3c3d ba71 6cbe 85fc 7f3d aef5 81be
00000080: 9435 60be 521e 5fbe f286 7f3d f326 14be
00000090: 2854 a6bd ee33 133e fecd dc3c 4457 613e
000000a0: 593c 2fbe c217 323d e093 5bbe ee0f 4cbd
000000b0: 9f2d fd3d 8e5b 0fbb 82c4 fabb 36e8 2abe
0.10993821 0.09174867 0.096214354 -0.112935424 -0.0066163368 -0.025660552 0.08314515 -0.1074863
0.08592813 0.026629122 0.19471096 0.11920969 -0.0917586 0.18295857 -0.11299935 0.06685836
0.10379994 0.051515587 -0.17576842 0.15722242 -0.016095089 -0.06218448 0.23117585 -0.2941919
-0.1877197 -0.089806646 -0.28698248 0.06189023 0.04607337 -0.23090258 0.06249668 -0.2538275
-0.21895438 -0.2178891 0.062384553 -0.14467983 -0.0812152 0.14375278 0.026953693 0.22005945
-0.17112865 0.04347969 -0.21443129 -0.04981988 0.12362217 -0.002187464 -0.00765282 -0.16690144

bias_hh_l0 f4 [48]
00000000: 78f0 0bbe c2ba 053e 76ef 73be d8d2 1bbe
00000010: be4b f23d aeeb 2d3d 4674 883d d80a 1fbc
00000020: 7630 5ebe a71c 12bc 24c3 03bd e917 053e
00000030: 53a1 08be 5d9c 013e 860a c4bd 8ea4 f2bc
00000040: aff1 283e a9e9 dd3d f882 39bd 14f0 74be
00000050: 66af 183d 61f8 e5bd 33a1 aa3c 04d3 0cbd
00000060: a842 5bbe 34d7 e03d 8f08 0e3d 3045 a6bc
00000070: ae4d 9c3d b9c0 043d 545f 8dbe e7c4 c3bd
00000080: c00a 35bd b4e4 4abe 7ebb 643e b8d7 93bd
00000090: ae57 803e 73f9 293c d5d9 23bc eec7 dabd
000000a0: 9fd4 753d 1ea6 db3d 98b2 413d ef80 db3a
000000b0: 1095 15be a5d8 773e b228 923d c2fa a13d
-0.1366595 0.13059524 -0.23821816 -0.1521715 0.11830853 0.04246109 0.066628024 -0.009707175
-0.21698174 -0.008917964 -0.032168522 0.12997402 -0.1334279 0.12657304 -0.0957232 -0.029619481
0.16498445 0.10835583 -0.045290917 -0.23919708 0.037276648 -0.11229015 0.020828819 -0.034380928
-0.21412146 0.10978547 0.03467613 -0.020296663 0.07632004 0.032410357 -0.27611792 -0.095590405
-0.044199705 -0.19813806 0.22337148 -0.072188795 0.25066894 0.010374415 -0.010000666 -0.10682665
0.060017224 0.10725044 0.04728946 0.0016746799 -0.14607644 0.24203737 0.07136668 0.079091564

weight_ih_l1 f4 [48, 16]
00000000: 54f3 8b3d ff30 f0bd 9d90 4a3d bdec 323d
00000010: 6d3a c13c 479d 693e e84b 353e 3c2d 3dbd
00000020: de22 803e 9113 883d 0e68 113c 125e bd3d
00000030: a126 6c3b 71f2 c0bd 43a9 93bd 1ae5 ddbd
00000040: b9c5 463d 75b1 c0bd 196f 9bbc 0d79 ca3d
00000050: b6a6 47be 1653 9d3e 4767 263e c521 4e3e
00000060: 69ee 4bbe 70cb 87bd df65 67be 6cbc 11be
00000070: 3f16 0d3e 2ad3 483e d2f0 8f3e 64c1 0e3d
00000080: ebc6 5abe bde4 97bd b302 28be e4b4 0f3e
00000090: 532c ffbb 133c 19bc 1534 533e fe07 8ebe
000000a0: 8305 6fbd d9d2 82be e9d8 8f3d 3d28 033e
000000b0: 0b5f 1f3e 2b0e 39be e637 27be 10c1 dbbd
000000c0: decc 263e 4ffe 873e 5aef 9d3d d8db d83d
000000d0: 1c9a 7e3e 217a 42be af74 d2bd eadd 7c3e
000000e0: d855 fcbd bf92 9a3d a7b7 503e 76e9 41be
000000f0: d03b 643e 4038 cebd e74e 40be 901d a5bc
00000100: ffb8 b5bc 534c 293e b2fd 2abe c82e ad3e
00000110: bd5c 6e3d bdfb 703c 2f27 27be c928 5abe
00000120: a951 4b3d 55f5 0d3d 8cb5 433c 3c74 263e
00000130: acc0 f6bd 0d7b fdbd c2b4 9abe 6077 7bbc
00000140: b679 4dbd 351f e7bd 437f 193e cbcb 723d
00000150: 77bb 033e 7ffc 5ebe 8b5b 063e d35d 81be
00000160: 4c44 1dbe 5092 de3d d2f2 82bd 53a0 433d
00000170: 1745 e8bd 93f7 92be 212d 4cbd d758 c63d
00000180: 130e 14be d75c 26be 4da7 8bbe fd1b a73d
00000190: 13e5 803e ae3c 063d 1f4b 563d d979 473c
000001a0: 927a e83d 4748 a33e dc6b c7bd c78c 32be
000001b0: 1b39 1ebd cfc0 ff3d adb7 6f3e aee6 3abe
000001c0: 3f09 483e 6ae9 43be 08f5 31be a0aa 80bd
000001d0: e0b8 d03d 4fbe 8d3e 5d27 cb3d 0dc4 583e
000001e0: 7840 8ebd 8181 39be 7b26 b13d 089e 41be
000001f0: c6b7 eebc 50cd ec3c 56c3 0fbe 96f3 1ebd
00000200: fdb2 d53b 84a5 e23d 9249 41bc d189 663e
00000210: 3ae2 adbd e172 1e3d 9bb1 79be 41b3 1a3c
00000220: fe27 d0bb 7881 8abd c656 c6bc 2c04 1fbd
00000230: 049f 35be e673 7c3e 4d3f 02be 78d8 4a3d
00000240: 9590 373e cfd7 2abd 4d70 823e c334 19be
00000250: 040f 303e 04a2 873d ed87 313e 9194 eb3d
00000260: 02aa 76bb f8b7 80be fdcd 4dbd 5118 273e
00000270: 5490 8b3b 3d1d 113e 1368 0bbe fedf 8a3d
00000280: 70f7 2d3e 19e8 d2bd 8756 973d 74fd dbbc
00000290: f5b3 dd3d 1c18 243e 29cd 90bd a3bf ffbc
000002a0: 2ccb dcbd 144f 01be 914a dcbd 83ce 68be
000002b0: 68c4 ffbd db82 963e e103 8b3d 33ef 2d3e
000002c0: b869 1e3e 17cb 1dbe a84e 573e ab97 47be
000002d0: c21f 6cbe 4f7c 463b 9a08 1a3e 19e0 14be
000002e0: e802 3cbe d83d 143e 23eb 76be 467e 76be
000002f0: 3f68 1d3e 2b29 5b3e 5a7a 933e e902 683e
00000300: 6ab0 433d 020a dc3d f0f5 913b c8c9 993e
00000310: a6d3 36bd e736 08be 7c47 bebd 05fe 573c
00000320: 660e 51be 2a45 fa3d 1160 dc3c ce15 823e
00000330: c90e 413e 056d 33be 271d e53d 59e1 89be
00000340: 6423 283e a53c 4c3d 340e 58be 9dd4 a23c
00000350: 2ba8 483e 1710 433e 682e 09be 4b94 01be
00000360: cc7f 77bd e5db eebd 5ebd 97bd 36ac 2dbe
00000370: 9149 d13d 5c91 0c3e 6850 da3b e451 1ebd
00000380: 4f49 f03d fc22 cf3d 9280 8cbe 3133 f5bd
00000390: b9d7 613e d994 20be 9e43 833d 8f7d 363e
000003a0: ba2a 773c 2ad0 1dbc 0df5 9cbc 1caa 3cbd
000003b0: 98ae cd3c a40a 83bc 6223 563e 3bb4 0cbe
000003c0: 30ac 013e e45e 50be 011f 503e 4cf8 fd3d
000003d0: 8224 013e 15cd a23d 5c85 333d ec0a a4bd
000003e0: 6a15 75bd e586 f8bd 2488 17be 5373 263e
000003f0: 6b94 3ebe de41 9cbe 3986 69be a1d6 003e
0.068335205 -0.11728095 0.04945432 0.043682802 0.02358743 0.22813903 0.17704737 -0.046185717
0.25026602 0.06644357 0.008874906 0.09246458 0.0036033767 -0.09421242 -0.072100185 -0.10834713
0.048528407 -0.09408847 -0.018973874 0.0988637 -0.19497189 0.30727452 0.16250335 0.2013007
-0.19915165 -0.066305995 -0.22597454 -0.14232033 0.13778017 0.19611803 0.2811342 0.0348524
-0.21364944 -0.07416675 -0.1640728 0.14033848 -0.0077872663 -0.009352702 0.20625336 -0.27740473
-0.058354866 -0.2555149 0.07023794 0.12808318 0.155636 -0.18071811 -0.16329917 -0.10730183
0.16289088 0.2656121 0.07711668 0.10588807 0.24863476 -0.18991901 -0.10276162 0.24694028
-0.12321061 0.07547521 0.20382558 -0.18936715 0.22288442 -0.100693226 -0.18780099 -0.020155698
-0.02218294 0.16533022 -0.1669834 0.33824754 0.05819391 0.014708457 -0.16323541 -0.21304621
0.049638424 0.034657795 0.01194514 0.16255277 -0.12048468 -0.12376986 -0.30216032 -0.015348285
-0.0501649 -0.11285249 0.14989953 0.059276383 0.12864481 -0.21776007 0.13120858 -0.25266895
-0.15358084 0.10867751 -0.063939705 0.04776032 -0.11341303 -0.2870451 -0.049847726 0.096849136
-0.14458494 -0.16246353 -0.27276078 0.08159635 0.2517477 0.032772712 0.052317735 0.012175047
0.113515034 0.3189108 -0.097373694 -0.17436515 -0.03862868 0.12487947 0.2340991 -0.1825206
0.19534777 -0.19132009 -0.17378628 -0.06282544 0.10191512 0.27684256 0.09919617 0.21168537
-0.0694589 -0.18115808 0.08649918 -0.1890794 -0.029140364 0.028906494 -0.14039358 -0.03880652
0.006521581 0.11066726 -0.011797326 0.2251351 -0.08490415 0.038683776 -0.24384157 0.0094421515
-0.0063524237 -0.067629755 -0.024211299 -0.038822338 -0.17736441 0.24653587 -0.1271946 0.049522847
0.17926247 -0.041709717 0.25476304 -0.14961533 0.17193228 0.06622699 0.17337008 0.11502946
-0.0037637954 -0.25140357 -0.050245274 0.1631787 0.0042591486 0.1417131 -0.1361392 0.06781004
0.16988921 -0.10298175 0.07389551 -0.026854254 0.1082534 0.16024822 -0.07070381 -0.03121931
-0.107809395 -0.12627822 -0.1075641 -0.22735028 -0.124886334 0.2939671 0.06787849 0.16985779
0.15470016 -0.15409504 0.21026099 -0.1949145 -0.2305899 0.0030286496 0.15042344 -0.14538611
-0.18360484 0.14476717 -0.24113135 -0.24071607 0.15371798 0.21402423 0.28804284 0.2265736
0.047775663 0.10744096 0.004454367 0.3003676 -0.044635437 -0.13302194 -0.09290978 0.013183122
-0.20415649 0.12220223 0.026901277 0.2540726 0.18853296 -0.17522056 0.11187201 -0.2692974
0.1641975 0.049862523 -0.21099168 0.019876773 0.19595401 0.19049107 -0.13396609 -0.12654226
-0.06042461 -0.11663035 -0.07409166 -0.16960225 0.1021911 0.13727325 0.006662417 -0.038652316
0.117327325 0.101140946 -0.2744184 -0.119726546 0.22054948 -0.15681781 0.06409381 0.17821334
0.01508587 -0.00963215 -0.019159818 -0.046060666 0.025107667 -0.015996285 0.20911935 -0.13740627
0.1266334 -0.20348698 0.20324327 0.124008745 0.12611583 0.079492725 0.043828353 -0.08009896
-0.059834875 -0.12135104 -0.14798027 0.1625493 -0.18611304 -0.30519003 -0.22805108 0.12581874

weight_hh_l1 f4 [48, 16]
00000000: 3882 5abd 32e3 74be 80a4 46be 60fe 18be
00000010: 00e4 5c3b 28ac 363d bc8f cbbd 0a89 7f3e
00000020: f0d7 81bc b06e ba3d 58d6 073e a820 71bd
00000030: 2ef1 68be 8462 e2bd 0075 afbb ee2b 38be
00000040: ac88 453e ac6b 37be 5242 29be 98de 3bbd
00000050: bcb0 fc3d 481e 00be 8061 25bd 74db 0abe
00000060: b41c c9bd 52d8 3ebe 6a25 4dbe a06f 4f3c
00000070: 20d2 21bc e45d 4b3e c882 e8bd e66d 083e
00000080: a017 ef3d 6cd0 8d3d 38fd e33d 544b 3b3e
00000090: 4411 5f3e 3896 cabd 10ed 10be f0cb 1d3d
000000a0: cef9 7f3e f0b1 d83c c062 b63c 40ce 5c3c
000000b0: b021 adbd a0d6 5ebc a07c b6bd a0a2 1abd
000000c0: 08f2 11be 6cec a33d 56ea 5ebe d0ed 7ebd
000000d0: 88e4 ad3d 8c5d 253e a4e5 2e3e 40e3 f93d
000000e0: c0bb 65bc a040 0a3c 588b 1e3d 7067 e33c
000000f0: 2a71 103e 50dc 34bd 9058 0bbe 24db babd
00000100: 9cc9 08be 54fd 0f3e 403b cc3b fec7 36be
00000110: 781e 1cbe 1880 3fbe 58ba a23d 803c 5ebe
00000120: 5064 9b3d 44d4 89bd c021 6a3e 2880 f43d
00000130: 8860 d4bd 28ab a1bd 4c69 06be e0b9 243d
00000140: 866b 0bbe 001d 69bb 4249 4ebe 0ed4 52be
00000150: 6c4b cb3d 08d4 553d fcb7 0bbe 4a42 173e
00000160: 70f6 97bd 44cd 69be 1454 4b3e 5820 b6bd
00000170: 2a90 193e 008c 5d3a 4038 a0bd 82d5 6e3e
00000180: 8817 9fbd 4284 7a3e f6c7 5a3e 7c17 adbd
00000190: e2ee 263e 544f eebd 4058 a1bc 10ce 103e
000001a0: 5cd8 473e 4c09 a2bd 665e 43be 84b5 2ebe
000001b0: 702e 053e 90be 5bbe 60d8 2dbe 807a ef3d
000001c0: e0bb b13c 4ad8 31be 8850 4cbd 1834 9fbd
000001d0: f84d 26bd a459 58be 106e 06be b6cb 06be
000001e0: c423 e6bd 6675 35be 9214 28be 76f1 36be
000001f0: c015 de3b c890 a4bd 482c 6cbd 42b9 34be
00000200: 16c2 53be 00d2 70bc 4c42 ad3d 8e73 353e
00000210: 4815 65be 0079 49be b035 c53d b890 9cbd
00000220: fc58 d73d 006d cbbb 0cff 54be 8070 17bc
00000230: 14ab bbbd 0a8b 08be 9036 823d 4895 c6bd
00000240: e07a f5bc c008 303d a43d fa3d 8070 6a3d
00000250: 86ac 7e3e e088 073e dcd2 21be 201c 6abc
00000260: 8e72 3d3e 42f9 01be b89c d1bd 00cf 423c
00000270: a0b8 193e d463 4c3e 8aaf 303e 00e0 f13d
00000280: 241b 78be 60f0 49bc 202c fabc 2cf2 dcbd
00000290: 44af 053e d8df 40bd 7822 f7bd c0f4 c63d
000002a0: ba65 423e 908d aa3c e885 37bd 28c5 203d
000002b0: e058 173e a823 51be 2897 d73d 2642 0bbe
000002c0: f803 16bd 4c7c 0cbe e0c9 2f3e 30ad 0bbd
000002d0: 1482 7bbe e0de d1bd 58b7 c03d 6c83 cd3d
000002e0: 2826 8dbd d8c8 52bd 0493 413e d851 3b3e
000002f0: a2ec 05be da7d 31be 7440 d23d ce41 223e
00000300: 40f6 9d3d 4043 cd3b 0088 433c 6025 71bc
00000310: 48b2 ed3d 6eba 3fbe ecf2 2bbe a0e3 e7bc
00000320: 9826 763e d4a3 1d3e 2068 943d 9af8 4a3e
00000330: 08cb bcbd f2bb 4dbe 0672 6ebe b080 aabd
00000340: 8043 7abd 5809 62be 6ed4 2b3e 801b 7dbc
00000350: 5cfc c43d ae0e 74be ca3b 093e 2632 57be
00000360: 2ea2 323e c817 1bbd 0227 22be dc97 4e3e
00000370: f80d e93d dccb 083e b072 babc dc81 46be
00000380: 803f b93d 20e3 9abc 98ff c23d 020c 54be
00000390: 703e ec3c 3897 f13d a464 e8bd eec3 2dbe
000003a0: 9864 853d 8430 f8bd d02c 863c 6ca3 edbd
000003b0: 588e 39be 18f6 d03d 10d2 79bd 40c3 b53d
000003c0: 2a83 7abe cc2b ae3d 406b fc3d d829 68bd
000003d0: a8e9 a6bd 3e77 393e 9e4b 153e b44f 7e3e
000003e0: aac3 4c3e 94b9 813d ee33 0c3e 2262 333e
000003f0: 7e52 083e e4f7 2bbe 605f 5f3d ce4a 03be
-0.053346843 -0.23914793 -0.1939869 -0.14940786 0.0033705235 0.044597775 -0.099395245 0.2495462
-0.015850037 0.09103143 0.1326536 -0.058869034 -0.22748253 -0.110539466 -0.0053545237 -0.17985508
0.19290417 -0.17912167 -0.16529205 -0.04586658 0.12338397 -0.12511551 -0.040376186 -0.13560277
-0.09819928 -0.18637207 -0.20033804 0.012660891 -0.009876758 0.19860035 -0.113530695 0.13323173
0.11674428 0.06924519 0.11132282 0.18290454 0.2178393 -0.09891933 -0.14152932 0.038524568
0.24997637 0.026452035 0.022263885 0.013476908 -0.08453691 -0.013600975 -0.08910489 -0.037752748
-0.14252484 0.08004078 -0.2176908 -0.062238514 0.084908545 0.16148967 0.17079788 0.122015476
-0.014021814 0.008438259 0.038707107 0.027759284 0.14105669 -0.04415542 -0.13608003 -0.09123829
-0.13358158 0.14061481 0.006232649 -0.17849728 -0.15245998 -0.18701208 0.079456985 -0.21702766
0.075874925 -0.067299396 0.22864437 0.11938506 -0.103699744 -0.078939736 -0.13126105 0.040216327
-0.13615236 -0.0035570264 -0.20145133 -0.20588705 0.09926495 0.052204162 -0.13644403 0.14771381
-0.07420051 -0.22832209 0.19856292 -0.08892888 0.149964 0.00084513426 -0.07823229 0.23323634
-0.0776816 0.24464515 0.21365342 -0.08451745 0.16302064 -0.116362244 -0.019695401 0.14141107
0.19516128 -0.079119295 -0.19078979 -0.1706143 0.13005996 -0.21459413 -0.16977072 0.11693287
0.021696031 -0.17367664 -0.049881488 -0.07773608 -0.0406017 -0.21127945 -0.13127923 -0.13163647
-0.112372905 -0.17720565 -0.16414097 -0.17865548 0.006777495 -0.08035427 -0.057659417 -0.17648795
-0.20679507 -0.014698505 0.08459911 0.17719862 -0.223714 -0.19675064 0.09629381 -0.076447904
0.10515019 -0.006208062 -0.20800418 -0.009243131 -0.0916349 -0.13334289 0.06358063 -0.09696442
-0.029965818 0.042977095 0.12218788 0.057236195 0.248705 0.13235807 -0.15803093 -0.014288932
0.1850073 -0.1269274 -0.1023497 0.011890173 0.15011835 0.19959956 0.17254463 0.11810303
-0.24229103 -0.012325376 -0.030538619 -0.10788378 0.1305514 -0.047088474 -0.12067121 0.09714651
0.18984118 0.020819455 -0.044805437 0.039250523 0.14779997 -0.20423758 0.10526878 -0.13599452
-0.03662488 -0.1371929 0.17166853 -0.03410071 -0.2456134 -0.10247588 0.0940997 0.10034832
-0.06892043 -0.05146107 0.18903738 0.1829294 -0.1307855 -0.17333165 0.102662 0.15845415
0.07712984 0.0062641203 0.01193428 -0.014718384 0.1160627 -0.18723461 -0.16791886 -0.028306782
0.2403816 0.15394527 0.07246423 0.19821396 -0.09218413 -0.20091227 -0.23285684 -0.083253264
-0.06109953 -0.22073877 0.16780254 -0.015448451 0.09618446 -0.23833725 0.13401714 -0.21015224
0.17444679 -0.037864476 -0.15835193 0.20175117 0.113796175 0.13359016 -0.022759765 -0.19385475
0.09045315 -0.01890713 0.09521407 -0.20707706 0.028838366 0.11796421 -0.11347321 -0.16969272
0.06513327 -0.121186286 0.01637879 -0.11603436 -0.18120706 0.10203189 -0.060991347 0.088751316
-0.24464098 0.08504447 0.12325144 -0.05668053 -0.08150035 0.18111894 0.14579627 0.24835092
0.19996515 0.06334224 0.13691685 0.17517903 0.13312718 -0.16793782 0.054534316 -0.12821504

bias_ih_l1 f4 [48]
00000000: 8d23 213e 0b22 83bd fa4c 8abd a6f4 df3d
00000010: 91d5 46bd 59b5 1f3e 7d87 65be 2cb3 15be
00000020: 530b 4bbe f9ad b23d 8242 eebd f01c b6bb
00000030: 4a2a 3e3e 0a8f a83c bed1 ecbd 4f6c 34be
00000040: b8b0 adbd a457 31bd ad2e b3bd e312 1bbd
00000050: 3fd3 40be bbe7 adbe 35ab b8bc 1cce 1dbe
00000060: 2a9b 99be 986c c0bd 5c21 073e 3fd6 aabe
00000070: 4db2 49be dfdc 393e 1394 15be a7ea 04be
00000080: 9cf6 5a3e dfd5 4cbe bd18 353d df66 1e3e
00000090: 9204 80be 42ba 4a3e 3528 1abe 0fe8 03be
000000a0: aff6 3dbd 5feb 373e 26bf 333a a01e 1e3d
000000b0: 7b63 613c b880 6ebe 1e7e feba 460d 0cbd
0.15736218 -0.064029776 -0.06752963 0.10935335 -0.048543517 0.15596522 -0.22414966 -0.1461913
-0.19828539 0.08724589 -0.11633779 -0.005557649 0.1857082 0.020576019 -0.11563443 -0.17619441
-0.08480972 -0.04329647 -0.08749137 -0.03785981 -0.18830584 -0.3396586 -0.022542575 -0.15410656
-0.30001193 -0.093957126 0.1319632 -0.33366582 -0.19696923 0.18150662 -0.14607267 -0.12980138
0.21383137 -0.2000346 0.044213045 0.1546893 -0.25003487 0.19797614 -0.150544 -0.12881492
-0.046377834 0.1796088 0.00068567914 0.038603425 0.013756628 -0.2329129 -0.0019416248 -0.034192346

bias_hh_l1 f4 [48]
00000000: 7978 e53d 2e58 febd ad1b 633e 5927 853b
00000010: 5717 2d3e 666f eb3c f94b f7bd 867e 6f3e
00000020: 3cdb 93bd 02b0 3d3e 45ce e4bc ec67 02bd
00000030: 3af2 6fbd 8fd2 b73d ae30 8cbd c301 41be
00000040: 0fb1 293b d834 e43d ffb1 ccbe 7b77 00be
00000050: 3e0d 04bd f375 8ebe 9ffd a4bd baea 1fbd
00000060: 5fd9 55be e636 b1be 65b1 85be ff72 403d
00000070: 5eea 82be 09d8 403e f68a 0d3a 8ba0 1fbe
00000080: f27a 4bbe 199d 01be 2432 d1bd b2f8 873d
00000090: 828f a63d 4d25 5ebe 95cf 32be d6b1 53be
000000a0: 16b1 aa3b a033 6fbe 90cf 38be 53d1 d1bc
000000b0: cb51 d33d 4657 a43d a601 e6bd ca9b ec3b
0.11204619 -0.12419163 0.22178526 0.0040635285 0.16903435 0.028739642 -0.120750375 0.23388109
-0.0721955 0.18524173 -0.027930388 -0.03183739 -0.058580615 0.08975708 -0.068452224 -0.18848328
0.0025892889 0.11142892 -0.3997955 -0.12545578 -0.03223919 -0.27824363 -0.08056187 -0.039042212
-0.20883702 -0.34612197 -0.26111904 0.04698467 -0.25569433 0.18832411 0.000539943 -0.15588586
-0.19871119 -0.12657584 -0.10214642 0.06639232 0.08132841 -0.21693917 -0.17461999 -0.20673308
0.0052090986 -0.23359537 -0.18047929 -0.025612509 0.10318335 0.080244586 -0.11230783 0.00722072

weight f4 [32, 704]
00000000: 4d9b 193e dca5 83bc 9ca6 06be bbe8 0cbd
00000010: bd98 b83d 1f96 f2bd b544 503d 6739 4b3b
00000020: c2b5 72bd e9f5 913c af3a 1e3d dad6 c73d
00000030: 231c e63d 3acf 2d3c 51a2 203e 2fae b1bb
00000040: 0c0e fa3c 24cd 0b3d e52d 91bd aaeb 7ebd
00000050: 3f78 053e 049b e9bc 74a5 b83d 7961 cd3d
00000060: 0b5d 5cbd 15db aebd c156 a93b a6b0 573d
00000070: e227 1d3d eb0e c3bc 38ce e93c cad1 283b
00000080: 933e 0f3e 81c9 1c3c 9edd d9bd 187c 853b
00000090: 9aa6 923b a51a 68bd 29d1 353d c976 c73c
000000a0: bb45 80bd e1f1 06bd cbf4 5dbd a33c fd3c
000000b0: 0539 c83b 400d cdbc 7178 663d b423 fcbb
000000c0: c4be 0f3d 9515 9b3c a40d 58bd 99e3 18bd
000000d0: b2cd 423d 48dd cdbd d35d b73d 2902 b23d
000000e0: 6279 9fbc 5403 9c3d 07ad c33c d5b7 db3d
000000f0: 2720 933d 7f61 6a3b 1157 aabb 62c7 69bb
00000100: 47b3 b43d 19ef a73d e088 68bd 2548 87bd
00000110: 66d2 d23c bade 9fbd 2e6b df3d a42e 913d
00000120: cf62 19bc 90d7 d53c 5161 9b3d e702 663d
00000130: a94c 0c3d 84c1 543d 74ce 8b3d fead d53d
00000140: 83ae 6a3c 8c5a 813d 89ab bbbc 59ff 76bc
00000150: 92cd 6bbd ef14 a7bd 73d1 51bc af79 753d
00000160: 05c9 853c aa2f a53c c35a 273d ab08 df3c
00000170: 00e7 01bc 2f61 93bc c17c 3d3c 4854 043d
00000180: 4109 b23d 2a8b 103d 71ca a2bc 1652 28bd
00000190: 022b aabc e5bb 23bd 229a 85bd 33c5 50bc
000001a0: 2135 fb39 aee9 b43d 7e62 bc3c 28c1 563d
000001b0: baf9 183c 1311 a0bc a810 e7bc 594b 213d
000001c0: 221e cebc b377 5bbd 7448 703d d452 883b
000001d0: c95c 87bd cd57 32bd f454 5fbc b42c 143d
000001e0: 61e9 04bd 44cc 5b3d d96c 06bd e12f e83c
000001f0: fa8a a1bc a91e ce3d 4807 b3bd d696 063e
00000200: d4d0 cbbc 44b4 7c3c 01c7 063c e5f3 0f3c
00000210: fefb 773d a8cc 91bd 05be 993d d628 723d
00000220: b2da f5bc ea2d 953b 1193 673c f6bc 133d
00000230: a1b1 223d 2950 983c fdcc 0cbd 8456 7c3d
00000240: 8965 5cba 2ea8 a33c 54b9 333b 7c61 f83c
00000250: 5c62 a2ba 670b 403c 5df4 763c 853c 2c3d
00000260: a35c 3abd 91f2 7ebd 4550 233b 2e30 22bb
00000270: 5dfc fbbb 284f 4bbd 1b0f 8fbc 8e39 fd3c
00000280: 7a8a 1e3c 54cc 00bd 5256 b0bc d548 333d
00000290: ce27 ddbd f64e 1c3d 309c 95bc 58e7 873c
000002a0: 3547 1d3d 352a 383c c2e4 83bb 8cab 72bc
000002b0: b987 35bd bd9d c33c f84c 88bd 5104 a83c
000002c0: 722b 543c 8645 b83d 6f16 4fbd 3dd6 d1bd
000002d0: a9bd 7d3c e1ae 61bd 761e cd3c dd60 6f3d
000002e0: 7915 4b3c 2f99 1abd 3de0 423c 1aa8 d3bb
000002f0: c4f5 733c fc16 a23d a845 93bb b352 403d
00000300: 9dbd 1abd d8bf 4d3d 9268 abbc e594 39bd
00000310: dede d3bb 6b46 6cbd 76c4 093d 411b 693d
00000320: 3c5e 623d fafb 843d 6ca4 ae3d 7706 3fba
00000330: 48a4 493d 3a72 103d 8503 a6bc 86f7 303d
00000340: ed98 1ebc f50a 63bc 6055 e13b f474 5bbc
00000350: bbf0 8c3d 55e5 d3bc 818e 013c df07 1a3c
00000360: 342d 36bc 3b69 3ebd df59 bc3b 9ad0 f13b
00000370: 4c25 9c3c 3501 99bc 85a8 3d3d b460 763c
00000380: e579 c6bb 4829 1e3d 2801 153d 5352 68bb
00000390: 673e 413d df4d c6bc 49c2 413b 0d74 463d
000003a0: 5257 583d 4b75 893c 1b54 eb3a 892f 8abd
000003b0: 8cd5 3ebc b476 4f3c 7905 40ba 1b23 00bd
000003c0: 0c91 1ebc fe1a c73d 41ab bfbc 6967 adbd
000003d0: 9ad7 993d 4779 adbd ab5a 483d 8f21 3e3d
000003e0: 5f7c bb3c c3ff f53c 3a62 8a3d 626f b5bc
000003f0: f15f f93c 1daf 883c 8f42 063b adb0 053d
0.15000649 -0.016070299 -0.13149494 -0.034401637 0.090135075 -0.118450396 0.050846774 0.0031009556
-0.05925537 0.017817454 0.038630184 0.097577766 0.112358354 0.010608489 0.15686919 -0.0054223756
0.030524276 0.034131184 -0.07088832 -0.062236466 0.13034151 -0.0285163 0.09015933 0.10028357
-0.05379967 -0.0853788 0.0051678126 0.0526587 0.038368113 -0.023810824 0.028540716 0.002575981
0.13988714 0.009569527 -0.10637973 0.004073631 0.004475427 -0.056666035 0.044388924 0.024348633
-0.062633 -0.032945517 -0.05418853 0.030912703 0.006110313 -0.025030732 0.056267206 -0.007694686
0.035094038 0.01893119 -0.052747384 -0.03732643 0.047559448 -0.10051972 0.089534424 0.08691818
-0.01946706 0.07617822 0.023886217 0.107284226 0.07183867 0.0035763679 -0.0051983674 -0.003567182
0.08823257 0.08199901 -0.05677116 -0.06605557 0.025735091 -0.078061536 0.10909115 0.07088974
-0.009361937 0.026103765 0.07586921 0.05615511 0.034252796 0.051942363 0.06826487 0.10433577
0.014323833 0.063160986 -0.022908943 -0.015075528 -0.057569094 -0.0815829 -0.012806284 0.0599305
0.016331205 0.02016433 0.04085804 0.027225813 -0.00792861 -0.017990677 0.011565388 0.03230694
0.08693171 0.035288967 -0.019871922 -0.04109391 -0.02077246 -0.039974112 -0.06523539 -0.012742328
0.00047914035 0.08833633 0.022996183 0.052430302 0.009336883 -0.019539392 -0.028206185 0.039378498
-0.025160853 -0.05358095 0.058662847 0.0041602645 -0.06609494 -0.043540765 -0.013631094 0.036175445
-0.03244913 0.0536616 -0.03281865 0.028343143 -0.01971959 0.10064442 -0.08741623 0.13143477
-0.02487985 0.015423838 0.008226157 0.008786176 0.060543053 -0.07119113 0.075069465 0.059120975
-0.030011509 0.0045525925 0.014134184 0.03606888 0.03972018 0.01859291 -0.03437518 0.061605945
-0.0008407464 0.019977655 0.0027423697 0.030319922 -0.0012388933 0.0117214685 0.015072909 0.042049903
-0.0454985 -0.062243048 0.002491967 -0.0024747956 -0.007689996 -0.049636036 -0.017463258 0.030911233
0.00967657 -0.031444862 -0.021525536 0.04377063 -0.10798608 0.03816124 -0.018262953 0.016589805
0.038397986 0.011240532 -0.004025073 -0.014811408 -0.04431889 0.023878926 -0.066553056 0.02050987
0.012949811 0.089976355 -0.050558504 -0.10245941 0.015487113 -0.05509842 0.025038939 0.058441985
0.012395256 -0.037743744 0.011894283 -0.0064592483 0.014890138 0.0791454 -0.0044943877 0.046953868
-0.037778486 0.050231785 -0.020923886 -0.045308013 -0.006465777 -0.057684343 0.033634625 0.056910757
0.05526565 0.06493373 0.08527455 -0.0007287035 0.049228936 0.035265185 -0.02026535 0.043204807
-0.009680015 -0.013857593 0.0068766326 -0.013394583 0.06881853 -0.02586619 0.007907511 0.009401291
-0.011119176 -0.046487074 0.005748018 0.0073796036 0.019060753 -0.018677333 0.04630329 0.015037704
-0.0060570114 0.038613588 0.036378056 -0.003544946 0.047178652 -0.024207054 0.0029565266 0.04845052
0.05281765 0.016779562 0.0017954143 -0.06747348 -0.011647593 0.012662578 -0.0007325034 -0.03128348
-0.009678137 0.09721945 -0.02339709 -0.084669895 0.07511826 -0.084703974 0.048914593 0.046418723
0.022886453 0.030029183 0.067570165 -0.022147838 0.030441256 0.016685063 0.002048645 0.032639194

bias f4 [32]
00000000: e1ec eebb 1108 23bd ca38 853c abd0 493d
00000010: 34ee f6bb c33d d33c b12e 33bd 1153 673c
00000020: 7e34 0f3d f235 133d 1f50 18bd 7fc3 f1bb
00000030: bdd5 a4bc 4b32 50bc 04e5 0a3d bf30 a63a
00000040: 0f69 3b3c 082b a0bc 124f 483d 44e0 343c
00000050: 305f 693b 9dbc 053c d90c 3c3c c498 1b3d
00000060: 13d6 b73c 7ba3 173d 3d67 8cbc da92 df3c
00000070: 4125 a93c c61d d3bb c368 0bbd 0eef 8cbc
-0.0072914218 -0.039802615 0.01626243 0.049271267 -0.0075357202 0.025786286 -0.0437457 0.014118926
0.03496217 0.035940118 -0.037185784 -0.0073780413 -0.02012145 -0.012707303 0.033909813 0.0012679322
0.011438622 -0.019551769 0.048903532 0.011039797 0.0035609715 0.008162645 0.0114776725 0.037987486
0.022440946 0.03702114 -0.017139072 0.027291704 0.020647647 -0.0064427583 -0.034035455 -0.017203834

weight f4 [16, 32]
00000000: d9dc 7abe fc97 5d3d 7882 98be 96b8 43be
00000010: f01e bd3e 473b 8ebe 0f5e 3b3e ddf8 8b3e
00000020: ac2a 81be 00a8 8dbd 3f55 af3e 4a7e b93e
00000030: ac7c 073e 1d07 dc3d 2054 82be 7d46 a93e
00000040: f5a0 2bbe e7d8 c13e 08b8 71be 8561 58be
00000050: 36cd c23e ae92 bc3e 96e2 bf3e df08 1abe
00000060: 9f29 c13d 776b cfbe c259 b7be 0b89 c0be
00000070: c30a 1ebe bf27 2d3e 92e3 e03d c494 983e
00000080: 6a07 7abe 4e51 8b3d 2340 8abe 7e38 85be
00000090: 4b0d a73e 2664 5fbe 9aed a03e 9794 993e
000000a0: 74bd 31be a148 66bd d035 8a3e b326 4a3e
000000b0: 824b 693e f3de 3b3e e229 a1be 4c86 173e
000000c0: 5038 92be 912b 313e 1cda 2dbe 115d 06be
000000d0: abfa a43d ef2f df3d 6432 a13e cd36 8bbe
000000e0: 3474 bc3e cb17 b9be 310f cebe 1edf b1be
000000f0: 574c 7bbe 53f4 973e db1b af3e 47df a43e
00000100: 0009 b9be 6792 e2bb f24c bfbe a864 b5be
00000110: 8d4d 5a3d bf45 86bd cef5 413d 700d 793e
00000120: ec22 bfbe 0bde 85be af9e a03e dee2 cf3e
00000130: e176 bd3e d97b b63e c762 8ebe 161c ba3d
00000140: fcbe 68be 6f13 b83d 1a04 27bd 4aac e2bd
00000150: 08d4 433e 017a a03e 2d66 f53d 055d a7be
00000160: 58be 7b3d acbf b7be 7fc2 c4be 928b a0be
00000170: fe17 a7be 090d 8d3e 8eb6 133e 9b38 c53e
00000180: f13e 853e cfba 55bd eafd cd3e 9eae c43e
00000190: daa2 babe e8c3 b33e d4a7 88bd 9c5e 8cbe
000001a0: 67b5 9a3e 706a a63d 738d 9cbe 4926 bbbe
000001b0: aeac a0bd 4b3f c1be 46c5 8a3e e6da c1be
000001c0: aa75 943e d44f a5be cffa d03e e5dc 913e
000001d0: 946b b2be 51b0 20be 358a a1be 8336 8c3e
000001e0: a182 b0be 4416 b13e b451 913e 8753 d33d
000001f0: 3ae8 ac3e 5a7e 82be 0839 9fbe cea9 8dbe
00000200: 6a30 413e cd62 1dbe 2695 bc3e 0990 a53e
00000210: 5130 cbbe 5dc5 643d 6658 b2be 2bd4 95be
00000220: 9ba2 e33e 93fc 923e 560e e5bd ac8c 12be
00000230: 1f24 b8be 9529 8cbe 3c37 953e 254e 8abe
00000240: 0c79 023e 4848 4ebe d280 513e 4389 9b3e
00000250: 43d3 ebbd 386d b3be 9f70 a9be b8f2 b03e
00000260: ba22 9cbe f6b6 d53d 5751 043e 5dfb 473e
00000270: bb8d d83e ac76 13be 0709 c6be 55e6 37be
00000280: 700b 873e eea9 adbe a70f 2a3e 950f 683e
00000290: 9b4e 3dbe 2195 023e 8d60 77be 0fbc 20be
000002a0: 6cae ab3e 0f15 a43e 539f 98be 4699 d3be
000002b0: 026c 8ebe 2520 cfbe 95b8 003e f7ce eebd
000002c0: 8a6b 363e 4db8 c4be 6c6b b93d 317e b63e
000002d0: 2a54 d6bd 3990 b1be 674f bbbd 5bb4 323e
000002e0: c508 b8be c76f b03d 481d c03e 0cc9 743e
000002f0: 5c9c 633e 8554 81be 1d0b 91be 9ac3 3cbe
00000300: 477a ecbd 6fff cb3d 601c 71be b035 6bbd
00000310: c798 c53e 5200 d0bd 976a 8d3b ce40 a93e
00000320: 8210 1cbe 42d8 72be 48d2 463e 767d e43d
00000330: 714a 663e 7dd0 983e 4e3a a3bd 2ce3 883e
00000340: 0a4e a0bd 91fe 943e 8358 a4be b703 c5be
00000350: 4348 923d 1c02 6e3e 0a25 0e3e ce8f 9bbe
00000360: 398f bc3e 8e90 8abe 9055 98be e89a afbe
00000370: 52e1 c5be b002 2e3e 782f c73d 21a6 9d3d
00000380: d182 6d3e 8e18 b3be b9ac a23e 23a4 a03e
00000390: a7f1 37be 2270 7d3e 7dae 2bbe 09b1 33be
000003a0: 3365 cd3d 7c53 803e 42e9 0bbe 3e51 15be
000003b0: 07db 7cbe d117 f4bd 6a8b 983e d598 b2be
000003c0: 6caa 963e b023 65be 7908 ab3d 0ff8 bb3e
000003d0: 2667 fbbd 1467 dfbd 5ba0 18bd 276f a33e
000003e0: b79b d6bd b912 9d3e f63a aa3e e4e8 bd3e
000003f0: 1d7a ae3e b48f 91be db96 9bbe 9b2a 11be
-0.24498309 0.05410002 -0.2978704 -0.19113383 0.36937666 -0.277796 0.182976 0.27338305
-0.2522787 -0.06916809 0.34244725 0.36229163 0.13231152 0.10743544 -0.25454807 0.3306159
-0.16760619 0.37860796 -0.23605359 -0.21130951 0.3804719 0.36830658 0.3747756 -0.15042447
0.09431767 -0.40511677 -0.35810667 -0.37604555 -0.15433793 0.16909693 0.109809056 0.29801
-0.2441689 0.06802617 -0.27002057 -0.26019663 0.3262733 -0.21815547 0.31431276 0.29996178
-0.17357427 -0.056221608 0.2699418 0.19741325 0.2278271 0.18346767 -0.31477267 0.14797324
-0.28558588 0.17301776 -0.16977733 -0.1312144 0.080556236 0.108978145 0.31483757 -0.27190247
0.36807406 -0.36150965 -0.40245965 -0.34740537 -0.2454084 0.29678592 0.3420094 0.32201597
-0.3613968 -0.006914425 -0.37363392 -0.35428357 0.053296614 -0.06556272 0.04735356 0.24321532
-0.3733133 -0.26145968 0.31371066 0.40602773 0.3700476 0.35641363 -0.27809736 0.09087388
-0.22729105 0.08988082 -0.040775396 -0.11068018 0.19123852 0.31343082 0.11982379 -0.32688156
0.061460823 -0.35888422 -0.3842964 -0.31356484 -0.32635492 0.27549008 0.14425108 0.3851975
0.26024583 -0.052180108 0.40232784 0.38414472 -0.3645237 0.35110402 -0.06672636 -0.2741593
0.30216524 0.0812577 -0.30576667 -0.36552647 -0.07845436 -0.377436 0.27103633 -0.3786232
0.2899602 -0.32287467 0.40816352 0.28488842 -0.348477 -0.1569226 -0.31550756 0.2738534
-0.34474662 0.345873 0.28382647 0.10318666 0.33770925 -0.25487024 -0.310982 -0.27668613
0.18866125 -0.15369721 0.3683254 0.32336453 -0.396853 0.055852283 -0.34833068 -0.29263434
0.44459996 0.28708324 -0.11184375 -0.14311475 -0.35965058 -0.27375475 0.29143703 -0.27012745
0.12741488 -0.2014476 0.20459297 0.3037816 -0.11514904 -0.35044265 -0.33093736 0.3456018
-0.30495244 0.10435288 0.12921654 0.19529481 0.42295632 -0.14400738 -0.38678762 -0.17958958
0.26375914 -0.3391871 0.16607533 0.22662194 -0.18487017 0.127522 -0.24157925 -0.15696739
0.3353151 0.32047316 -0.29809055 -0.41327876 -0.27816778 -0.40454212 0.12570412 -0.11660569
0.1781446 -0.3842186 0.09053692 0.3564315 -0.10465272 -0.34680346 -0.09146004 0.17451613
-0.3594419 0.0861507 0.3752234 0.23904818 0.22227615 -0.25259796 -0.2832879 -0.18433991
-0.1154676 0.099608295 -0.2354598 -0.057424247 0.38593122 -0.10156311 0.004315685 0.33057255
-0.15240672 -0.23715308 0.19416153 0.11156742 0.22489335 0.29846564 -0.07970105 0.26735818
-0.07827385 0.2910047 -0.3209878 -0.38479397 0.07142689 0.23242992 0.13881317 -0.30383152
0.3682802 -0.2706341 -0.2975278 -0.34297872 -0.38648468 0.16993213 0.09725851 0.07697702
0.23194434 -0.3497967 0.31772402 0.31375226 -0.17963277 0.24749807 -0.16765781 -0.17548002
0.10029068 0.25063694 -0.136632 -0.14581773 -0.24692927 -0.11918605 0.29793864 -0.34882227
0.29426897 -0.22376895 0.083512254 0.3671269 -0.122755334 -0.109083325 -0.037262302 0.3192074
-0.10478919 0.30678347 0.3324811 0.37091744 0.3407754 -0.2842995 -0.3038853 -0.14176409

bias f4 [16]
00000000: 9223 753d 3692 b5bb 2e30 2fbe dfbf 1ebe
00000010: dc81 4abc 87f5 3c3d 552f 2bbe afb5 143e
00000020: 58c7 da3d 17c7 043e 0595 9abd 0f84 f9bd
00000030: 29ca 82bd 4f89 dc3d 54cb 9cbd 2612 bebd
0.059848376 -0.0055411113 -0.17108223 -0.1550288 -0.012360062 0.04613259 -0.16717274 0.14522432
0.10682553 0.12966572 -0.075479545 -0.12183391 -0.06386215 0.10768377 -0.07655969 -0.09280805

weight f4 [2, 16]
00000000: aa33 c7be 3c9a a7be 03f9 09be fbc6 d53e
00000010: 5b70 f93e b002 293e 9c15 3ebe 6c25 7b3e
00000020: c577 72be 34bc cb3e 886d 54bd c088 d93d
00000030: a433 a23e 4b22 93be 48f1 9bbe ab72 683e
00000040: 70fd 8e3e 1a9b b53e 2267 b43e 7555 07be
00000050: ab99 7dbe 3daa 9cbe 0236 853e dfe2 88be
00000060: 0189 863e 231c b7be c50e b33e f333 dbbe
00000070: 7127 57bb c3c5 b13e 907c b13e b1f2 e3be
-0.38906604 -0.3273486 -0.13473897 0.41753373 0.48718533 0.16504931 -0.18562931 0.24525994
-0.23678501 0.39792025 -0.05186227 0.10621786 0.31680024 -0.287371 -0.3045752 0.22699992
0.27927732 0.35469896 0.35234934 -0.13216193 -0.24765651 -0.30598632 0.26017767 -0.2673559
0.262764 -0.35763654 0.34972206 -0.42813072 -0.0032829905 0.34721193 0.34665346 -0.44521096

bias f4 [2]
00000000: a378 04be 1791 113e
-0.12936644 0.14215504
